tests/samples/physics/example_unit_cube_model.pth (torch, 113382 bytes, 16 tensors)

weight f4 [64, 3]
00000000: cdaa 98be 8c92 8dbe 51e6 fe3e a0a6 f13e
00000010: cc72 0e3f 22ff 05bf 8131 7dbe 687e f83e
00000020: cd22 92be bf61 f8bd d96e 9bbd a4e1 3abe
00000030: 20d0 17be 350c ad3e 8433 0ebe f07a dbbe
00000040: d6ae 11bf 045a 063e ae70 963e 62a3 0f3f
00000050: 197b ca3e c275 87be 02f8 82be 2152 e93e
00000060: 67a1 143d fec0 f83e 2596 ac3e 9260 ac3e
00000070: a2b2 a6be fbe2 003f a3dd 473e e03b 0fbe
00000080: 54cf 233d 6d2d 5d3e 97ae 2b3d 5ead 003f
00000090: 0b89 8ebd b13c e6be 7163 2ebe 6ac3 e73d
000000a0: 758d 0ebf 4a2d 693e 129e a1bd 3914 06bf
000000b0: b07b dfbd f3be d0be 351b d7be feaa 133f
000000c0: c83d 94be 3179 ed3e fdd8 9f3e 62e4 75be
000000d0: 7885 14bf 2ca0 6d3e c31a cd3e be61 9bbd
000000e0: ec31 073f b071 09bf 5130 bebe d67c 10bf
000000f0: 0bd9 e13d 2245 c93e 9c19 9dbe 1ece e1be
00000100: 006a 583b 0b51 3dbe 2789 b13e 379a b63e
00000110: cc84 79be cbbd c8be 830a 043e 3db3 c03e
00000120: 204f 15bf 3a0e 993d a3a6 abbd e357 75bd
00000130: e728 4e3c 3863 af3e 252a b8be d047 043f
00000140: d18e 05be 0965 0dbe cde4 b3be 93f4 073f
00000150: 46e7 5fbd 44b7 b03e 3b2b 98be 86ea 963c
00000160: 437d 023f 295b 243e 32bc b9be 76df bcbd
00000170: 1ca2 0c3f 16c4 023f 9215 f3be bd70 853e
00000180: b961 0bbe c711 c7be 4e6b d53e b69e 2abc
00000190: b25c d43e c903 22be ca0f 0dbf ee13 09bf
000001a0: d9a8 933e cbc0 0dbb 90ec 5d3e 53bf d33e
000001b0: 3256 c73e 9da2 6dbe e1fe b6be 0c05 7dbe
000001c0: dd32 01bf 3983 113f 45a5 9bbe da3d b73d
000001d0: 98bb 5d3e a91f 09be 593e 973d b565 9cbd
000001e0: e01b 293e 7d34 813e 20cc c1be e3d7 91bd
000001f0: 6457 9bbe 1842 433e 9aa8 093f c1e0 c43e
00000200: 5078 f73d a5c5 dcbe 9cb6 eb3e 59ec f03d
00000210: 33e3 e8be 279e e63d a05e acbe e0f2 c13e
00000220: 5dfe c2be 1808 dc3d 1993 9b3e 8dbd 003f
00000230: 6c0a 1f3e f3ab 483e c060 d8be 2fe4 f83e
00000240: ec2c f1be 3ade 073f bf03 203f b19e 40be
00000250: c51a 083c 0053 393e 3520 abbe bc32 acbe
00000260: 0d77 92be 3975 51be 72f1 063f da8f a4be
00000270: 2c51 c0be 5ebc e13d e2f5 443e e9ff 733e
00000280: cbb3 83bc 5b21 2ebe f540 843c 68d3 d23e
00000290: cf52 fc3e cf54 f03d 5cfb 143e 8315 cebe
000002a0: 01ca edbe cf05 883e b173 e03e 7a34 0ebf
000002b0: e374 0bbd 8364 b8be 4013 8bbe 784d 88be
000002c0: 10e4 6e3e aaf1 8c3e bc56 3f3e 8db5 fabe
000002d0: b0c9 2b3e a1ee f03e dbf4 6ebe 3a5b 073f
000002e0: 0796 41be 2ffb 16be 626a 273d f6d8 a13e
000002f0: 4b3a c6bd 5c54 a33e d794 c13e f936 233d
-0.2981781 -0.2765087 0.49785092 0.47197437 0.55643916 -0.52342427 -0.24725915 0.4853394
-0.28542176 -0.121280186 -0.07589502 -0.18250138 -0.14825487 0.33798376 -0.13886839 -0.4286723
-0.56907403 0.13120276 0.29382843 0.5610868 0.3954704 -0.2645703 -0.2557984 0.45570472
0.036286738 0.4858474 0.337083 0.33667427 -0.3255816 0.50346345 0.19518141 -0.13987684
0.039992645 0.2159936 0.04191455 0.5026454 -0.069597326 -0.4496818 -0.17030121 0.11316569
-0.55684596 0.22771183 -0.07891478 -0.5237461 -0.109122634 -0.40770683 -0.42012945 0.5768279
-0.28953385 0.46381524 0.31220236 -0.24012902 -0.5801616 0.23205632 0.4005948 -0.07587002
0.5281055 -0.536891 -0.37146237 -0.56440485 0.11027726 0.39310557 -0.306836 -0.44102567
0.0033022165 -0.18487947 0.3467495 0.35664532 -0.24367064 -0.392073 0.12894635 0.37636748
-0.5832386 0.074734166 -0.08381393 -0.05989827 0.012582994 0.34255385 -0.35969654 0.5167208
-0.13042761 -0.13808073 -0.351355 0.53107566 -0.05466392 0.3451482 -0.29720482 0.018422376
0.50972384 0.160504 -0.36276394 -0.09222309 0.5493486 0.51080453 -0.47477394 0.26062575
-0.13611497 -0.3888075 0.4168343 -0.010413816 0.4147697 -0.15821756 -0.5510222 -0.53546035
0.28839758 -0.0021629806 0.21672273 0.41356906 0.3893295 -0.23206563 -0.35741332 -0.24708956
-0.50468236 0.56840855 -0.30399528 0.08947344 0.21653593 -0.13390984 0.07384939 -0.076365866
0.1651454 0.25235358 -0.37851048 -0.07121255 -0.3034011 0.19068182 0.5377289 0.38452724
0.12083495 -0.4311954 0.46037757 0.1176383 -0.4548584 0.11260634 -0.33665943 0.3788061
-0.3808469 0.10743731 0.30385664 0.5028923 0.1553132 0.19596843 -0.42261314 0.4861159
-0.47104585 0.53073466 0.62505716 -0.18810536 0.008307164 0.18098068 -0.3342301 -0.33632457
-0.28606454 -0.20454873 0.52712166 -0.32141 -0.3756193 0.11022256 0.19234422 0.2382809
-0.016076943 -0.17004912 0.016144255 0.41176915 0.49281928 0.11734926 0.14549011 -0.40250787
-0.4644318 0.26566932 0.43838266 -0.5554882 -0.03404702 -0.36014184 -0.27163124 -0.26621604
0.23329186 0.27528125 0.1868543 -0.48966637 0.16776156 0.4705706 -0.23335592 0.52873576
-0.18904887 -0.14744256 0.04087294 0.3161084 -0.09679087 0.319003 0.37808868 0.039847348

bias f4 [64]
00000000: e26a 0d3d d6d7 86be 1918 023f 929f 00bf
00000010: 5f56 03bf c701 b8bd f6f8 aa3e 6c68 5abd
00000020: 1804 df3e 5cb3 47be 6404 83bc 6ba0 69be
00000030: f3e3 52be 8fb7 6d3e 08b4 b2be 9aee 0e3f
00000040: 2495 f93e ccdd 783e f338 09be 5730 04bc
00000050: 491d c0bc 2c3d 86be 6284 793e 034e 913e
00000060: d6f9 6f3e 837a 94bd 4fd1 83be 3b5e 74be
00000070: 7d54 8f3e f69c 973a 7df2 d5bd 6fd7 aebb
00000080: f378 533d 7d19 66be 3e8e c5be 0be1 603d
00000090: 1983 0dbf 087f f13e a0c5 01be 711e 273e
000000a0: 90c5 67bd fdb7 e4bc 05a8 073f 1f27 f2be
000000b0: 8aab 3cbc 5b59 e8bd 1529 d23e 1480 cf3d
000000c0: 428b babe e2f5 713d e69e 0c3f 3940 38be
000000d0: 531f 9ebd ee3f e7bd 079b a0be 0a8a f33e
000000e0: eec3 2fbe 4353 c9be 0071 0dbe 9ef4 0cbf
000000f0: ab2a 963d f29c c03e c592 c5ba 4b2c 993e
0.03452576 -0.26336545 0.5081802 -0.50243485 -0.51303667 -0.08984714 0.33393067 -0.05332224
0.4355781 -0.19502014 -0.015993305 -0.22815101 -0.20594768 0.23214553 -0.34902978 0.5583283
0.48746598 0.24303359 -0.1340063 -0.008068166 -0.023451464 -0.26218545 0.24366906 0.2837983
0.23435149 -0.0724993 -0.25745627 -0.23864071 0.27994147 0.0011567164 -0.104466416 -0.0053357403
0.051629018 -0.2247066 -0.38585085 0.054902118 -0.55278164 0.4716723 -0.12673044 0.16320206
-0.056584895 -0.027919764 0.5299075 -0.47295472 -0.0115155075 -0.11345168 0.41046968 0.10131851
-0.3643437 0.059072383 0.5492996 -0.17993249 -0.07720818 -0.112914905 -0.31368276 0.47566253
-0.17164585 -0.39321336 -0.13812637 -0.55060756 0.07332357 0.3761974 -0.0015073648 0.29916605

weight f4 [64, 64]
00000000: 1fba 93bd bfe1 943d 25af e43d bcd2 62bd
00000010: 6837 7abd cd44 b33d 040b 223b f5c3 dfbd
00000020: 303f 44bd d81d a2bd f5fb 4a3d 082e cc3d
00000030: 6e31 023e e600 da3d 0897 ae3d 59cb 793d
00000040: f4fc e2bc d899 693d ce2e 913d 5561 c83d
00000050: 0802 363d a7d7 8a3d cd37 ea3d b017 9cbb
00000060: 7cc3 763d 0e7b 053e a996 d3bc 0da3 0dbd
00000070: 75a0 54bd 2cd7 95bd ef12 2cbc 640d c63d
00000080: f7dd 9b3c c463 a53d 8081 243c fa4c 72bd
00000090: 1bdb b0bd 413f 07be ebf1 81bd fd22 00bd
000000a0: caa7 e9bd fab7 773d 5632 4b3c 9ee3 e6bb
000000b0: 1bfb 413d 52df dbbd d23f 9dbd 637d fa3d
000000c0: 957a 09be 8017 ccbd ab16 8e3d 33e7 383d
000000d0: 8c66 b0bd 368a ed3b 3b34 8e3d 7985 0a3d
000000e0: f762 7d3d 926e e23d 1a03 ea3b 3e2c 2bbd
000000f0: 3c3b a2bd fa45 6b3d 6815 67bd b283 6e3c
00000100: e490 0a3e 3878 a0bc 76d0 bfbd 108c c2bd
00000110: ca7b d7bd 5d86 b6bc 7850 b33d 9cc6 0e3e
00000120: 168a 153c d51e dbbd 20cd 0ebd 7804 62bd
00000130: 9469 833d d71c 2ebd 3281 adbd 63f4 b4bd
00000140: 6b0b d23d ec6d 81bd 7111 283d 6367 a93c
00000150: d687 a5bc c6fb 89bd 1b50 48bd 0b99 d2bd
00000160: e49c 3e3c e609 f8bb 9d74 e23d 6202 9cbd
00000170: 2b39 203d edbd f8bc 313f 18bd 2384 b0bd
00000180: cea9 093e 218d 06bd 995f 35bd 3fe1 643d
00000190: 9243 a4bd fe6d 523d 9532 fcba 7231 04be
000001a0: 1fa7 ff3b a713 093d 1a92 ff39 46b8 da3d
000001b0: 86cf b2bd 2282 8b3d bdec 04be bef3 ca3d
000001c0: 971b 5d3d df00 a23d b457 02be d47e c83d
000001d0: a0a4 d63c 04c6 d1ba 4f6f 3bbc 1165 b63c
000001e0: 2886 9b3d 6126 0fbc eacb a0bd 2fa0 8a3c
000001f0: c52f 72bd 25ac 5a3d d13c 8e3d 21e5 f2bd
00000200: ff41 eebd 0079 eb3d 3bdb 82bd b048 c83c
00000210: a6e2 42bd 0a93 4ebd 07cb 8d3d 30a0 d33d
00000220: 0580 523c e972 b03b 3b90 51bc c2e6 ab3d
00000230: 35c1 51bd e20f 70bd 3133 c43d e899 babd
00000240: 2d42 c1bc 5c98 e6bd 1df0 f2bd 306c d1bc
00000250: b9ce 80bd 4184 8abc 892e 3abd 36ae a03c
00000260: ac07 19bd d080 38bd ed04 f1bd 1020 64bd
00000270: 92d5 f2bd e20f b83b ae0c 723d f044 31bc
00000280: 6b4d aebd 75ec 21bd e211 41bc c643 6c3d
00000290: 6338 8dbd 1787 b1bc b759 adba 1001 d3bd
000002a0: c98c 91bd e57e 373b 8a9c fb3c f0e8 8dbd
000002b0: 2292 ad3c 9bfc 9abd cd88 d6bd 50c8 b83b
000002c0: dff2 a03d 908d a53c 377c 593d 71bd 223d
000002d0: b44c b9bd a02f 133d 8d90 3dbd f9d5 c13b
000002e0: 9ff9 e33d 3c3a b23d b21e 64bd c7c2 acba
000002f0: b02d c13c 60f7 19bd 4f31 60bd c2d2 863d
00000300: 5ebf 05bd 568d 7dbd f90b a23d 98b9 023c
00000310: 4a99 433d 073f e53c d172 c0bd 9d7c 4dbd
00000320: 57ae 61bd 1fb4 99bd 9555 763d df66 94bd
00000330: 636a 85bd b229 a83c 0bf2 b0bd 9f07 cd3c
00000340: 1bee b4bd 887b 1abd e9ae cbbd 454e a8bd
00000350: 7f77 0bbd 65bf 0f3d b5af 343d e949 d2bd
00000360: ee39 d53d 3b9e 0f3d b464 3ebc fe65 213d
00000370: b912 9e3d 66b6 423d 26f7 6a3d 6fc7 f5bd
00000380: 01e9 cfbd cd94 45bc c150 cb3c ee27 f2bd
00000390: ad82 403d 9ecb dbbc c905 ccbc de51 683d
000003a0: 3c29 0b3d 716f a7bd 1738 fb3c 85fb dcbd
000003b0: a4e5 483c 7cd7 dbbd c936 5ebd ce5f 6abd
000003c0: ca74 81bd 79eb e83c 2376 383b d3da 33bb
000003d0: 373e bf3d 48c6 093c 11c1 b7bd 9348 b8bd
000003e0: 2569 063d 1016 f2bd 32ea ba3d 3c16 59bd
000003f0: a58c 203d 3903 eabd 4638 463d d264 89bd
-0.07213234 0.0726962 0.11166219 -0.055376753 -0.061087996 0.08753357 0.0024725804 -0.10926048
-0.047911823 -0.079158485 0.04955669 0.09969717 0.12714168 0.106447026 0.08524901 0.060984943
-0.027708508 0.057031482 0.070890054 0.097841896 0.04443553 0.06779414 0.114364244 -0.004763566
0.060245022 0.13035223 -0.025828676 -0.034579325 -0.051910836 -0.073164314 -0.010502561 0.09670523
0.01902674 0.080756694 0.010040641 -0.05915544 -0.08635541 -0.13207723 -0.0634497 -0.031283367
-0.11408956 0.060478188 0.012402138 -0.007046177 0.047358613 -0.10735954 -0.076781884 0.12230947
-0.13425668 -0.0996542 0.06937917 0.045142364 -0.08613309 0.007249142 0.06943556 0.033818696
0.06186196 0.11056246 0.007141483 -0.04179024 -0.07921454 0.05743978 -0.0564169 0.014557766
0.13531834 -0.019588575 -0.09365933 -0.09499371 -0.10521658 -0.022280866 0.087555826 0.13942951
0.0091271605 -0.1069924 -0.03486359 -0.055180043 0.06416622 -0.042507973 -0.08471908 -0.088356756
0.10256084 -0.06319794 0.04103226 0.020679181 -0.020206373 -0.06737475 -0.04890452 -0.10283097
0.011634085 -0.0075695394 0.110573985 -0.07617642 0.03911702 -0.030364001 -0.03716964 -0.08618953
0.13443682 -0.032849435 -0.044280622 0.055878874 -0.080207005 0.051374428 -0.0019241149 -0.12909487
0.007801905 0.033466008 0.00048746244 0.106796786 -0.08730988 0.0681193 -0.12980933 0.099097714
0.05398139 0.079103224 -0.12728769 0.097898155 0.026201546 -0.0016004448 -0.011440112 0.02226499
0.07593948 -0.008737178 -0.078513935 0.016922085 -0.059127588 0.053386826 0.069451936 -0.11860109
-0.116336815 0.11497688 -0.06389471 0.024448723 -0.04757943 -0.050433196 0.0692349 0.10333288
0.012847905 0.005384792 -0.012790735 0.08393623 -0.051209647 -0.058608897 0.095800765 -0.091113865
-0.023591125 -0.11259529 -0.11862204 -0.025564283 -0.06289429 -0.016908767 -0.045454536 0.01961432
-0.037360832 -0.04504472 -0.11768518 -0.05569464 -0.118571416 0.0056171278 0.059094124 -0.010819659
-0.0851086 -0.039532144 -0.011784049 0.05768182 -0.068955205 -0.021670861 -0.001322559 -0.10302937
-0.07106931 0.002799922 0.030714292 -0.06929195 0.021187846 -0.07567712 -0.104753114 0.0056391135
0.07858824 0.020209104 0.053096976 0.039731447 -0.09047833 0.03593409 -0.046280432 0.0059154
0.11131596 0.087025136 -0.055693336 -0.0013180607 0.023581356 -0.03758943 -0.054734524 0.065831676
-0.032653205 -0.061902367 0.0791244 0.007978819 0.04775361 0.027984155 -0.093968995 -0.05016767
-0.055097904 -0.075050585 0.06014021 -0.072461836 -0.06514432 0.020527694 -0.08639916 0.025028048
-0.088344775 -0.037715465 -0.09945471 -0.08218054 -0.034049507 0.035094637 0.04411288 -0.102680035
0.1041144 0.03506301 -0.011620689 0.039403908 0.07718415 0.04753723 0.057364605 -0.120009296
-0.10151864 -0.012059403 0.02481878 -0.11824022 0.046999622 -0.02683049 -0.024905102 0.0567187
0.03397487 -0.08175553 0.030666394 -0.10790161 0.012261782 -0.1073446 -0.054251466 -0.057220273
-0.06321104 0.028432595 0.0028146587 -0.0027443662 0.093380384 0.00840909 -0.08972371 -0.089982174
0.032815117 -0.11820614 0.091267005 -0.05299972 0.03919663 -0.11426396 0.04839351 -0.06708683

bias f4 [64]
00000000: a8ee 93bb 0d54 29bd 4b38 e73d 7a8c e63d
00000010: f793 283b ef4d 343d 4173 12bd e3ee c03b
00000020: 5d99 803d e4af ebbd ff22 e83c eed4 cf3d
00000030: 1416 c0bd efd8 fcbb dd95 f1bb 9323 b63d
00000040: fa07 91bd d0fa 12bd ac3c 5bbd 279e 283d
00000050: 62c0 d9bd 6623 fabd d54a cabc 53f0 d6bd
00000060: 0c66 a9bd 3f28 253d de4c d9bd ba7f 4ebc
00000070: a8b1 e43c 81a8 dabd baff 033d 283d b5bd
00000080: ffa4 85bd 10ab e8bc 20b1 833d 818f 34bd
00000090: e626 dcbc a533 abbd c7b1 9c3b ff37 c13d
000000a0: 6da8 9abd a281 353d fb88 a53d df03 813d
000000b0: 93c7 8d3d cb8c 37bd 380e e83d 5fbd a73d
000000c0: ffec f53c 980b 623d 6b90 f2bd 9339 8cbc
000000d0: 84ac 2e3d 0600 c3bc c845 fb3d a585 3f3d
000000e0: adf4 b9bd 6cc1 833d b418 a53d d230 e43d
000000f0: 1a7a 29bd 60d9 cdbd c9dc 9bbd 7f4e c4bd
-0.004514534 -0.041339923 0.11290034 0.112572625 0.002572296 0.044019636 -0.035754446 0.0058878525
0.06279252 -0.11508158 0.028337 0.10148035 -0.09379211 -0.00771629 -0.0073726014 0.08893504
-0.070815995 -0.035883725 -0.053524658 0.04116645 -0.10632397 -0.12213783 -0.024693886 -0.10495057
-0.08271417 0.040321585 -0.106103644 -0.012603695 0.027916744 -0.10676671 0.0322263 -0.08849555
-0.06525611 -0.028401881 0.06430268 -0.04408217 -0.026874017 -0.0835946 0.004781935 0.094345085
-0.07551656 0.04431308 0.080827676 0.062995665 0.069228314 -0.044812005 0.11330837 0.081904165
0.030020235 0.055186838 -0.11843952 -0.017117297 0.042644992 -0.023803722 0.12269169 0.046758313
-0.09079871 0.06433377 0.08061352 0.11142124 -0.04137621 -0.100512266 -0.07610471 -0.095852844

weight f4 [64, 64]
00000000: 12d2 d93d eefa 263d 4ece d2bb 6d82 91bd
00000010: 0032 8b3c 5c18 90bd 5f16 663d e994 013e
00000020: 7e2d 583d 2f1a 7fbd a989 d03d d3f6 e33c
00000030: 0758 b9bc 1313 e7bd 30c6 f3bd 8122 89bc
00000040: 2434 84bc bab0 95bc 7b80 80bd 6ec5 cc3d
00000050: 6a86 b73d 0566 8cbd 90f3 e73d 358b 9c3d
00000060: eb1b 8cbd a28a 463c 553a e1bd 841c 153d
00000070: b49d bd3d d246 bd3d 3779 d93d 9e14 513c
00000080: ae54 bbbd 1000 86bd 6656 67bd dfe0 0dbd
00000090: a061 3c3d 7118 69bd eb8d 413c 463b fabd
000000a0: 7d3d e7bd ca63 d83b dc77 953d affc 80ba
000000b0: 918f a0bd 8061 c43d 9400 c63d 98e3 c23d
000000c0: 45e2 7ebd 2e08 a13d 39cf cbbd 06a2 88bc
000000d0: d7ce 3d3b 2bdf f9bd 5653 c23d aa9a e23c
000000e0: 9d18 96bd 3f4f efbd fc5f dfbd cfac d9bd
000000f0: 983d 653b ce5d e13c 3cc2 8c3d 03a7 c7bd
00000100: c4c6 653d 0d38 17bd 359e a9bd 9b3d 753d
00000110: 5725 9ebd a09b b6bd b68b 31bd 2070 06bd
00000120: 6500 d53d 1113 65bd bdd9 5bbd f401 02bd
00000130: 681d 4ebd 2cde 063e f779 f93c 2a64 f33d
00000140: 1837 cbbb 5c71 8fba 7577 8bbd 6d61 03be
00000150: 741e b93d 4c3f 433d e75d fe3c 7bf3 d13d
00000160: fd03 80bd b001 e6bd 2e38 373d 0665 bbbd
00000170: de88 71bd 1347 a2bc dcca dd3b 7196 febd
00000180: b0bd 9f3d e62b 6f3d 38c8 abbd adc8 c2bc
00000190: ac97 45bd 1bb7 2a3c 41dd df3d 1a6f adbd
000001a0: 3ec4 9dbd 559f 7abd 9f48 34bc e471 b1bc
000001b0: 2f46 9b3d 4927 83bc 5a9c 2e3d f635 0b3d
000001c0: 5a5a 893d 5e5b f4bc d383 e3bd 778e 8ebd
000001d0: 849a 2a3d 5131 3e3d ad36 213d a182 e8bc
000001e0: 0f5a cf3d 1a93 e7bc ff6a ed3d 7443 06be
000001f0: a58e aebc 3ac1 81bd 367a 4d3b 37c5 b63d
00000200: 6d2c eebc fdc7 383d ba2e 5e3d 6caf f33c
00000210: 2989 64bd 3a1c 9fbd 1ee2 abbd c7a7 d7bd
00000220: b368 5e3d cbc7 12bd 24c1 9b3d 31f5 bdb9
00000230: 9d2c b03d b465 a6bc 7691 a93d 850e 773d
00000240: 6916 cdbd d316 a7bd 9a3c aa3c 3293 893d
00000250: c795 85bd 8888 063d f5a7 383d 60e4 59bc
00000260: d8e2 d43d ab51 0ebd 510f 9dbd 51bd 2dbd
00000270: a76b 30bd c105 803b 9a3a 1abc 5cca d9bd
00000280: 865d ea3d 3a40 983d 03be 733c c967 77bc
00000290: 0c5d dbbd d6fc 733d 8667 983d 683e 813d
000002a0: fdb4 f9bd cdcb 053e 9057 2dbd 3ef2 d83d
000002b0: d763 ffbd 36a3 0f3d 743f 753d 8037 c53d
000002c0: ad50 b33d dfa9 f1bd 69a1 8d3d e028 88bd
000002d0: 8170 f93d 91ca bfbd 7c50 b4bd 71ad b5bd
000002e0: f70e 56bc e7e3 babd c2a1 d8bd dbf0 833d
000002f0: a74d ebbd 225a 803d 3c29 fd3c 29e5 1abd
00000300: 9205 bebd 9604 69bb 0f92 5d3c 0545 03bc
00000310: 0b86 fdbd beb6 ddbd 7a96 c23d e79f bb3d
00000320: 155c dbbc 9f04 aebd 7b24 02bd 99b7 1bbd
00000330: b3eb 8dbd 39ec 06bd 55c2 37bd d226 a8bd
00000340: 32ec c0bd 1f2e 70bc 919c 91bd 7c1a 1b3d
00000350: 2f54 53bd 05e6 c9bd 7060 a23d 8528 9abc
00000360: d96b 003d dd24 8dbd 1e23 75ba 01b5 553d
00000370: 949a 173d 4ad9 c73d 382e 993d 5596 893c
00000380: 4b82 013e f556 3cbd d5c7 f3bd 546e 003e
00000390: f3c2 693d 7781 00be 7b22 e0bc 72bd e0bd
000003a0: cdc7 8cbd 7fdf 973d 9e19 c53d e5a3 f43c
000003b0: f425 d1bd b6a8 8bba b422 6b3d 36c9 e5bd
000003c0: 0a6c 1b3c c892 c2bd 1645 e33d 518c 6e3c
000003d0: d616 683d 113f ee3d 342b d53b 5ce7 97bd
000003e0: 4095 7abc f88d eabd be1f 253d cb44 90bc
000003f0: 7ae2 5fbd 3f2e af3c 5103 be3d 2b98 ecbd
0.10635771 0.04076665 -0.006433285 -0.07104955 0.016991615 -0.07035896 0.05617368 0.12654461
0.05277776 -0.06228083 0.101825066 0.027827656 -0.022624983 -0.11282935 -0.11903036 -0.016740086
-0.016138144 -0.018272746 -0.06274506 0.09998594 0.08961184 -0.06855396 0.11325753 0.07643739
-0.068412624 0.012118014 -0.10997454 0.036404148 0.09258595 0.092420235 0.10618823 0.012761263
-0.09147011 -0.06542981 -0.05647888 -0.034638282 0.04599154 -0.056908075 0.011813621 -0.12218337
-0.11291025 0.0066036927 0.07298252 -0.000984093 -0.07839883 0.09588909 0.09668079 0.09516066
-0.062227506 0.07862888 -0.09951634 -0.016678821 0.0028962397 -0.12200769 0.09488551 0.02766164
-0.07328913 -0.11685037 -0.109069794 -0.10628664 0.003497934 0.02751055 0.06872985 -0.09748652
0.05609776 -0.03691869 -0.08282129 0.059873205 -0.07721966 -0.08916402 -0.04334613 -0.032821774
0.10400466 -0.055926386 -0.05367445 -0.031740144 -0.050321013 0.1317069 0.030453665 0.11884339
-0.006201636 -0.0010943818 -0.06809894 -0.12830134 0.090390116 0.047667786 0.031050636 0.10251518
-0.06250761 -0.112307906 0.04473131 -0.09150128 -0.058968417 -0.019809281 0.0067685675 -0.12431038
0.07799852 0.058391474 -0.08387798 -0.02377733 -0.04824035 0.010419632 0.10930873 -0.084684566
-0.07703446 -0.061187107 -0.011003642 -0.021660753 0.07581746 -0.016009944 0.042629577 0.033987008
0.06706686 -0.029828724 -0.11109128 -0.06960767 0.041651264 0.04643375 0.039358784 -0.028382601
0.10124599 -0.028268386 0.115926735 -0.13111669 -0.021308253 -0.06335683 0.003135336 0.089243345
-0.029073918 0.0451126 0.05424378 0.029746734 -0.05579487 -0.07769056 -0.08392738 -0.10530048
0.054299068 -0.03583507 0.07605198 -0.0003623157 0.08602259 -0.020312168 0.082796976 0.06031658
-0.1001404 -0.0815865 0.02078085 0.067175284 -0.065227084 0.03284505 0.04508205 -0.013299078
0.103948295 -0.034745853 -0.07668937 -0.042416874 -0.043071415 0.003906936 -0.009413386 -0.106343
0.114436194 0.07434125 0.014876845 -0.015100428 -0.10711107 0.059567295 0.074416205 0.06310731
-0.12192724 0.13066025 -0.042319834 0.10593079 -0.12470215 0.03506776 0.059874967 0.096297264
0.08755622 -0.117999785 0.06915552 -0.06648421 0.121796615 -0.09364808 -0.08804414 -0.08870972
-0.013065091 -0.091255 -0.10577728 0.06442424 -0.114894204 0.062671915 0.030903451 -0.0378162
-0.09278406 -0.0035555712 0.013523593 -0.008012061 -0.12379082 -0.10825871 0.095013574 0.09161358
-0.026777307 -0.08496975 -0.03177307 -0.03801689 -0.06929722 -0.032940123 -0.044863064 -0.082105294
-0.09420051 -0.014659434 -0.07109941 0.037867054 -0.051593956 -0.09858326 0.0792855 -0.01881815
0.03135285 -0.06891797 -0.0009351241 0.052174572 0.03701265 0.097582415 0.07479519 0.016795317
0.12647359 -0.045981366 -0.11903349 0.12542087 0.057070684 -0.12549387 -0.027360192 -0.10973634
-0.068740465 0.07415675 0.09624027 0.029863307 -0.10212317 -0.0010655138 0.057406142 -0.112200186
0.009486208 -0.095006526 0.110971615 0.014559821 0.056662403 0.11633123 0.0065053944 -0.07417175
-0.015294373 -0.1145286 0.040313475 -0.017610928 -0.054659344 0.021384357 0.09277976 -0.11552461

bias f4 [64]
00000000: 3027 cd3d 687f 143d 8190 9d3d 5394 8cbd
00000010: f007 333d cde3 2ebb c04f 50bd dcd2 783d
00000020: 87f1 853c 8d9f 023e a816 f03d a052 243d
00000030: c0a3 8c3d e094 843d aa02 a6bd 5489 fcbd
00000040: be26 0bbb 801a 2ebd 7708 cdbd 284d b23d
00000050: c7da f2bd 4778 d53d 2012 563d 759d 58bd
00000060: 7168 61bd 1272 8a3d cc8b dd3d 8611 183d
00000070: bc18 74bd 41d0 e13c 4912 5fbd 58fa afbd
00000080: b029 d3bd 7903 cfbc 0d30 ee3d a918 adbc
00000090: 8bf0 afbc 4867 dbbd b4ea e1bd 051a b6bd
000000a0: 41fe 73bd 2c79 d4b9 2195 373d afe7 cebc
000000b0: f7ad 793d ec03 08bd 13b5 133d cdf4 9ebc
000000c0: 298d cb3d 0c28 3f3d eefc fdbd 7ce6 ae3d
000000d0: 3937 e33d 7be9 94bd 0447 6d3c f01c d4bd
000000e0: 7ebd 01b9 e963 c1bd 0c08 743d 05e5 db3c
000000f0: 127a 8c3d 592d b4bd 6a71 413d 877b 9b3d
0.1001724 0.036254317 0.076935776 -0.06864228 0.04370874 -0.0026686073 -0.050857306 0.060747966
0.01635052 0.12756176 0.11723071 0.04011786 0.0686717 0.06473708 -0.08105977 -0.12330881
-0.002123281 -0.04250574 -0.1001138 0.08706123 -0.11858135 0.10423332 0.05226338 -0.052884538
-0.055031244 0.067600384 0.1081768 0.037126087 -0.0595939 0.027565124 -0.054460797 -0.08592671
-0.10310686 -0.02527021 0.11630259 -0.021129923 -0.021477005 -0.10713059 -0.11031094 -0.088916816
-0.059568647 -0.0004052607 0.044819955 -0.02525696 0.06095692 -0.033206865 0.036061358 -0.01940384
0.099390335 0.04666905 -0.12401758 0.08540055 0.11094517 -0.07271095 0.0144822635 -0.10357082
-0.0001237299 -0.094428845 0.059577987 0.026842603 0.068592206 -0.08797712 0.0472273 0.0759192

weight f4 [64, 64]
00000000: 5397 903d 3d87 eb3d 895d 86bd f17b 97bd
00000010: e195 b53d 8436 cb3d 2645 cd3d 5341 603d
00000020: 3870 a2bd b938 363c 7d3d 393c 439d 23bc
00000030: 3fbc e33c ffa3 c33c 4471 a0bb cb73 cfbc
00000040: f9d6 053e 1332 e53b 7aa0 ec3d 6ddf fb3d
00000050: cd3e cd3d f461 03bd d509 f53d 4ac3 cd3d
00000060: 22cf 49bd 07b7 b6bd ed5a 7bbd 4eed 803d
00000070: dbf0 32bd 0114 e53c 3f9e 313c 54b1 adbc
00000080: a21c 293d 09f7 20bc 559d b8bd ea9d 623d
00000090: 73ca d73d deee 813d 172d 8dbd 2f89 98bd
000000a0: 1dd7 48bd a43e a83d 02ca 483d 096e 053d
000000b0: 03c5 cebd d38f 9bbd 4615 e83d b651 e7bd
000000c0: 64af 73bd 10e6 43bd e53b 783d 784e 8abd
000000d0: 5e50 3d3c 98fa c1bd 6fcf 24bd 10f6 823b
000000e0: 9926 9bbd 0f48 28bd b607 45bd 2fb5 22bd
000000f0: 2f98 b23d 23b4 a53d 9092 f3bd 3145 733d
00000100: cdb2 b53d bd25 71bd 4b0a fd3b 144d 903d
00000110: 4f6b d33d 69ae 17bc fb70 773a d985 94bd
00000120: 91fd c73d 32b7 97bc 70fa 20bd 1970 cabd
00000130: d05a 943d d5c2 aabd 24a6 00bd 2b72 c6bd
00000140: 8230 bc3b 3288 c53d 329d eb3c b0a1 a7bc
00000150: 2891 903c c566 f83c 4ab3 e43d 2131 dc3d
00000160: d06a 713b b3a0 b6bd daf1 563c e16d 28bd
00000170: a4ae cf3d 0971 94bd 5b50 e13d 1962 aebd
00000180: 90f5 c23d b2bf 01be f7c9 dc3c ea32 bebd
00000190: 551e 513c d5ea c3bb 0bbd b7bd 4c78 fc3c
000001a0: 62aa 2c3d 2f9c e4bd c433 edbd 22ce 52bd
000001b0: 1e71 e43c d291 1ebd 810e 3bbd 9925 b6bd
000001c0: b5b1 8fbd 89b8 20bd 02da b2bd 3a41 9bbc
000001d0: 8b7d b9bd 8aae 353d 9547 c63d 3b5b 90bc
000001e0: 229d 12bc 591d bc3d a729 2cbd 2305 eb3c
000001f0: d6a2 bebd 684e b5bd 9011 b3bc 47c8 9abc
00000200: c6b1 a5bd 4e13 c9bd 6f39 b63d 0061 ad3d
00000210: ae31 66bb 238a bb3d 8ea5 fe3d 7eb9 e83d
00000220: 3e94 7f3c 76c3 abbc e159 a73c 7f56 5cbd
00000230: eaa0 33bd a3d0 da3d 10ee 6dbd fa9f a83c
00000240: 4ac4 62bd 092e 75bd 4b35 973d 0ea3 b53d
00000250: 42ca a43d 411f babd dcfa 45bd 3fd4 e4bd
00000260: 5dc9 f23c 04eb 0f3b c4a1 443d 50e4 c03d
00000270: ebd0 8abd b32f 373c 1951 3dbd 1980 56bd
00000280: 85d0 04be 2640 e5bd 0554 b0bd 3c75 99bd
00000290: ec06 f93d 1cdd 583d 71ca 483c 4196 9939
000002a0: 2204 c2bd 5712 673d 724a 403d 824a cabb
000002b0: 6429 8cbd 14a6 3e3d fee9 b13d 0252 8b3d
000002c0: f83a 823c 030e e2bd 369e 873d 3b9d 893b
000002d0: 94b6 c5bc c87a 87bc 2ff0 4c3d 4277 093d
000002e0: e4d6 8cbd 2bfe f0bd 21ff 423d 608f a1bd
000002f0: 4b5a cebd e103 983c e37a 463d fb95 8bbd
00000300: f58b 93bc 8261 cebd b0b9 a9bd 79b3 abbd
00000310: ddc9 c1bd 0f79 52bd 1b6c 333d 0591 60bd
00000320: 43c0 4cba 755d 0a3e abbc a03d af81 e7bd
00000330: 2c95 d8bd f514 a4bc 9656 f1bc 5638 923b
00000340: 4cf8 aebc 84ac 7b3c 25dd 9fbd 9441 c5bd
00000350: b796 20bd 6835 94bd ae23 5dbb f173 7f3d
00000360: 46bd ac3d 1d70 cdbc 51bb cabd 2868 fcbc
00000370: 60cf 41bd c29a 873d 0da7 26bc 885b 333d
00000380: a341 8a3d b8c3 3ebd aebc d73d 9c72 a03c
00000390: 4953 8c3d be8e e5bd 2973 6b3d 3ce0 0bbd
000003a0: 264f 8a3d d21b 833d ae9a b03d a7e4 163d
000003b0: 7e6d 6fbd 62b2 c93d fc3e cebc 285a 063b
000003c0: 91a0 f0bd e86f 2dbc ade1 54bc afd2 ea3b
000003d0: 4208 f4bd f2f6 9abd a388 503d 0f2d 353d
000003e0: d0ef 8cbd 4c1e 0fbd 4310 d7bd 9900 503c
000003f0: 0ab7 90bc 79b6 bdbd 06af ea3d e919 c03d
0.07060113 0.11500404 -0.06560809 -0.07396687 0.08866478 0.099225074 0.10022955 0.054749798
-0.0793156 0.011121922 0.011306164 -0.009986225 0.027799724 0.02388191 -0.004896315 -0.02532377
0.13070287 0.0069944947 0.11554046 0.122984745 0.10021744 -0.032075837 0.11964766 0.10047014
-0.049269803 -0.089216284 -0.06136601 0.06295262 -0.04368673 0.02796364 0.010840951 -0.02120272
0.041287072 -0.009824523 -0.09014384 0.05532638 0.10536661 0.063443884 -0.06893366 -0.07448041
-0.049033273 0.08215073 0.049020775 0.03257564 -0.10096171 -0.07595792 0.113321826 -0.11294882
-0.059493437 -0.047826827 0.060603995 -0.06753248 0.011554806 -0.09471625 -0.040236887 0.003996618
-0.07575721 -0.041084345 -0.048103057 -0.03972357 0.08720433 0.08090999 -0.11893189 0.059392158
0.08871994 -0.05887388 0.0077221743 0.070459515 0.10323202 -0.009257891 0.00094391376 -0.07252092
0.09765161 -0.018519972 -0.039301336 -0.09884662 0.072438836 -0.083379425 -0.031408444 -0.096897446
0.0057430873 0.09645118 0.02876148 -0.02046284 0.01764734 0.030322442 0.11167009 0.10751558
0.0036837347 -0.0891737 0.013119185 -0.041120414 0.10140732 -0.07248122 0.11001655 -0.085148044
0.095194936 -0.12670782 0.026951773 -0.09287055 0.012763579 -0.005978922 -0.08971604 0.03081908
0.042154677 -0.11162602 -0.11582139 -0.051466115 0.02788597 -0.038713284 -0.04566813 -0.0889389
-0.07016317 -0.039238486 -0.08732988 -0.018952 -0.090571485 0.044355907 0.09681622 -0.017621627
-0.008948596 0.09185285 -0.04203191 0.028688973 -0.09308402 -0.088528454 -0.02185896 -0.018894328
-0.08090548 -0.09818135 0.08897673 0.08465767 -0.0035124826 0.09157207 0.12433921 0.11363505
0.015599309 -0.020967226 0.0204286 -0.053793427 -0.04385463 0.106843255 -0.058088362 0.020584095
-0.055362977 -0.059858356 0.07383212 0.08868991 0.0804639 -0.090879925 -0.04833494 -0.11173295
0.029637033 0.0021960149 0.048005834 0.09418547 -0.06778129 0.011180806 -0.04621992 -0.052368257
-0.12970169 -0.11193876 -0.086097755 -0.07493064 0.12159523 0.05294524 0.012255297 0.00029294382
-0.094734445 0.056413975 0.046945997 -0.006173433 -0.06843832 0.046545103 0.086872086 0.06802751
0.01589726 -0.11037829 0.06621973 0.0041996515 -0.024134912 -0.016538039 0.050033744 0.033561
-0.06876925 -0.11767229 0.04760659 -0.07888675 -0.10075816 0.018556537 0.048457038 -0.06815716
-0.018011073 -0.10077192 -0.0828737 -0.08383841 -0.094623305 -0.05138498 0.04380427 -0.0548258
-0.00078106317 0.13512214 0.078484856 -0.11304032 -0.10575327 -0.020029524 -0.029460233 0.004462282
-0.021358632 0.015360955 -0.07805852 -0.09631649 -0.039206233 -0.07236749 -0.003374319 0.06236643
0.084345385 -0.025077874 -0.09899009 -0.030811384 -0.04731691 0.066213146 -0.010171664 0.043788463
0.067508005 -0.04657337 0.10534035 0.0195859 0.06851823 -0.112088665 0.057482872 -0.034149393
0.067533776 0.06401791 0.08623253 0.036839154 -0.05845403 0.09848477 -0.025176518 0.0020500515
-0.117493756 -0.010585763 -0.012993258 0.0071662287 -0.119156376 -0.07566632 0.050911557 0.044232424
-0.06881678 -0.034941003 -0.105011486 0.012695455 -0.017665405 -0.092633195 0.11459164 0.09379942

bias f4 [64]
00000000: b04e 85ba d754 cd3d 64d1 d3bd d3ec 913d
00000010: 182c c4bc f653 763d bd38 243d fa54 d1bd
00000020: f527 a7bd d5d7 9d3d 8b20 cebd fe85 823d
00000030: d882 2d3c 78df 8d3d 9c4a 473d 9c4d 493c
00000040: 04fd adbd 83a2 b8bd 97ce 10bd 7cc8 e83d
00000050: 07e2 e8bd 741b 78bc 5150 143c 1ed0 873d
00000060: 70fc 4bbd c4b9 5e3d 0273 a83d 1d6d e83d
00000070: 1b21 d8bd 3206 d53d 2301 0e3b fa29 053b
00000080: ec55 243d 1f9e 3fbd ca25 b83d 0aff e8ba
00000090: 4413 1c3d 3f79 483d b4be 7ebd 3943 f9bd
000000a0: 5120 3dbd 8537 72bd c21f cdbc 3a83 c3bc
000000b0: 2e4b 1dbd e89b d5bd f9b3 2dbd 517c 9c3d
000000c0: 4002 623d f9dd d9bd b257 023d 229a e33d
000000d0: 4bd9 39bd f011 4abd 3262 b73c d136 28bd
000000e0: b8c4 ca3d fb5a edbd 7a1d 613d a164 cebc
000000f0: ea17 07bd 67a7 273d b518 b03d f875 efbd
-0.0010170545 0.100259475 -0.103426725 0.07125249 -0.023946807 0.060138665 0.040093172 -0.10221286
-0.08161918 0.07707182 -0.10064801 0.06373213 0.010590278 0.06927389 0.048655137 0.01228657
-0.084955245 -0.09015372 -0.03535327 0.11366364 -0.11371236 -0.015143264 0.009052352 0.06631492
-0.04980129 0.05437638 0.08225061 0.11348937 -0.10553189 0.10401572 0.0021668158 0.002031921
0.040121004 -0.046781655 0.08991583 -0.0017776203 0.03810431 0.048943754 -0.062193587 -0.12171025
-0.046173397 -0.05913498 -0.025039557 -0.023866285 -0.038401775 -0.104301274 -0.042407963 0.07640899
0.055177927 -0.10638041 0.031821914 0.11113383 -0.045373242 -0.049333513 0.02238569 -0.041067902
0.099008024 -0.11589619 0.05495975 -0.025194468 -0.03298179 0.04093113 0.085984625 -0.11692423

weight f4 [64, 64]
00000000: 09e7 cb3d 7568 1e3c 1f26 e1bd 3ce8 5bbd
00000010: 8a29 703d 53e3 bdbd 0eb7 89bd a72c 863d
00000020: 0c40 88bd e4d7 f13c 18f0 03bd e8fa 6cbb
00000030: 9532 ea3d 7732 ebbd 8b74 67bd 37e0 3d3d
00000040: abaa 0fbd 8139 5fbd bf1f abbd 409f d1bc
00000050: 7c5f bd3d 9d42 d63d ae79 873d 7a16 ce3d
00000060: c3d3 94bd 4a4c 98bc 7065 e7bd fdc5 e3bd
00000070: 808c 6abd b936 6c3d 4c53 65bd edc4 b83c
00000080: 7103 92bd daa6 c43d 41ea b03c 0608 b3bd
00000090: a748 ba3d 1fc7 90bd ce5c bf3d e4d2 383c
000000a0: 80a8 573d 09c2 81bc 6518 333c 4beb 973d
000000b0: 34f1 50bd ab1d 003e 93c6 b43d 24be 5e3d
000000c0: a841 f33d b362 47bd 1671 3b3d 45ce 9e3d
000000d0: caa6 843c d1fb 1e3d d2b0 afbd 2729 403d
000000e0: 808b a13d 0d51 65bd fcd5 e1bd 0ecd fbbd
000000f0: 126a c1bd 7f9d 6e3d 84fc f2bd 221c 333d
00000100: 25cf abbd ae99 943d 3c33 cdbc 0599 223d
00000110: 922d ddbd 781a 4cbd 6917 3b3d db3a 02bd
00000120: 8786 d03d fe72 c63c c68b cbbd 7b24 a33d
00000130: 18f2 84bd 978b cbbd 9b6e c93d 8f09 b7bc
00000140: 4be1 d4bc d8d6 cebd a408 af3d 7d75 d2bd
00000150: 8ec5 0f3b 32c2 05be d9cc 98bc 3332 2b3d
00000160: c7db 86bd 5dde cfbd 5de0 abbd bb7b 323d
00000170: 322a 833d b65f cf3b 8dfa f33c 7fc5 b7bc
00000180: 6db7 c5bc 7db4 c0bc 04e6 513c 68ca ebbd
00000190: 5b0f aebc bdbc ed3d 485d e23d f646 0fbd
000001a0: 15ea c43d 07f5 e4bd d5fe a03b 583a cabd
000001b0: fae7 d9bc 0f52 a7bd fb1b 9ebd 05ea 1bbc
000001c0: e926 943d c49b c33d 15ad d03d e4ce c43d
000001d0: 835f ce3d f35a ee3d ec84 dfbd addb 893c
000001e0: c12b 32bc 2204 a7bd 9b86 24bd 6bcc d3bc
000001f0: 944c e9bd 29b7 f5bd 4282 b63b f73b b63c
00000200: f549 033d 33e6 abbd 545a e4bc 5d36 87bd
00000210: e8d6 a03d 082f 9e3d eec6 ba3d df05 85bc
00000220: 1997 da3d 767b 88bd af0e 843d 6649 28bb
00000230: 1d43 2ebc da0b dcbc bd26 d13d 1675 b6bd
00000240: ed93 ae3c 2611 a8bc 00ee c7bc dae8 15bc
00000250: e593 9abd fc7f 32bd 563f fa3d 9c74 edbd
00000260: ab00 c9bd 1e21 acbc 711e 733d 8c47 6a3c
00000270: 920e 87bc 63e5 83bd e3f2 9b3d a0bd bfbc
00000280: aa0b eabd b88a 753d bd53 ffbd b895 21bc
00000290: 2131 54bd f566 a6bd 6f46 edbd bfbd 9dbd
000002a0: 3efb 983d 0c8a 713d 16de a1bd fdbe e03d
000002b0: 0a57 e1bd c70d 253d af03 b33d 736a b53d
000002c0: 4a28 91bc 80ac cd3d 8a21 9a3d f898 233d
000002d0: 7519 1d3c ecb0 453d 5aff 24bc 672e a4bd
000002e0: 98f8 fabd 7473 783c a9cb 40ba 330c ce3d
000002f0: 9675 903d 8df4 57bd b74d dc3d 3af8 b6bd
00000300: ff90 9d3a 7c0f b2bd cb3e 99bd 1ede 9d3d
00000310: 4858 9e3d 6aef e5ba f8e6 babd 1d8a 713c
00000320: 038c 323a a19c d53d 4be0 043e d193 cf3d
00000330: 12bd 823d 24f2 acbd 5e4d 653b 8b22 c5bd
00000340: c6bb 61bd 0912 27bd 5716 d8bd 6d58 8fbc
00000350: 66a6 a5bd efba 75bd c727 32bd 5b34 60bc
00000360: 13bb 753d 5cdf 9e3d 9f17 9c3d 5003 cebd
00000370: 5628 8ebd 4707 b03d 95d7 f23a a556 69bd
00000380: 47dc c2bd 7e7c 023e 88d6 e23b e54b 903d
00000390: 0027 07bd 7e96 20bd 6b3f 813d d568 833d
000003a0: 4c3a fbbc 498f 9b3d d1bf cbbc 9ded dc3d
000003b0: b748 2c3d 1de7 883d f5ec 8bbd 2819 05be
000003c0: a71c d13d c499 063d d6dd b73c 04b9 4abd
000003d0: db2b cabc 291b ef3d dc4e dd3d 4f36 acbd
000003e0: 4a64 f6bc eb24 0cbc 025e 2c3d 3505 7d3d
000003f0: f33f c83b e0ec 6d3c aea9 ca3d bf9f 073c
0.09956176 0.009668459 -0.10993599 -0.053688273 0.058633365 -0.09271874 -0.06724368 0.065514855
-0.06652841 0.02952189 -0.032211393 -0.0036160294 0.11435429 -0.11484235 -0.05650763 0.046356406
-0.03507487 -0.0544982 -0.083556645 -0.025588632 0.09246728 0.10461924 0.066150054 0.10062881
-0.07266953 -0.018591065 -0.112986445 -0.11121748 -0.057262897 0.057669375 -0.05598764 0.022554839
-0.07129563 0.09602137 0.021596076 -0.08741765 0.090958886 -0.07069229 0.09343873 0.011280749
0.05265093 -0.015839593 0.010931109 0.074179254 -0.05101128 0.12511317 0.088269375 0.05438055
0.11877757 -0.04867811 0.045762144 0.077541865 0.016192812 0.03881437 -0.08578648 0.046914246
0.07887936 -0.0559855 -0.110271424 -0.122949705 -0.094440594 0.05825567 -0.1186457 0.043728
-0.08389119 0.072558746 -0.025048845 0.039696712 -0.107997075 -0.04982993 0.045676623 -0.03179441
0.10181909 0.024224754 -0.09938769 0.079659425 -0.06491488 -0.09938734 0.098355494 -0.022343425
-0.025986334 -0.10099572 0.0854657 -0.10276315 0.002193782 -0.13062361 -0.018652366 0.04179592
-0.06584888 -0.10149834 -0.08392403 0.04357503 0.064045325 0.0063285483 0.029782558 -0.02243304
-0.024135316 -0.023523564 0.012811188 -0.11513215 -0.021247556 0.116082646 0.11052948 -0.034979783
0.0961496 -0.11179548 0.004913191 -0.098744094 -0.026599873 -0.08169948 -0.077201806 -0.009516244
0.07233984 0.09551194 0.10189263 0.09609774 0.10076811 0.11638441 -0.10914025 0.016828382
-0.01087469 -0.08155085 -0.040167432 -0.02585431 -0.11391559 -0.11997826 0.005569727 0.02224539
0.032052953 -0.083935164 -0.027875103 -0.06602166 0.0785349 0.07723814 0.09119974 -0.016238151
0.10673351 -0.06664173 0.06448113 -0.0025678515 -0.010636118 -0.02686112 0.10212467 -0.08909051
0.02131077 -0.02051599 -0.02440548 -0.009149754 -0.0754774 -0.043579087 0.122191116 -0.11594507
-0.098145805 -0.021011885 0.059355203 0.014299285 -0.01648644 -0.064402364 0.07614686 -0.02340585
-0.11428006 0.059946746 -0.12467144 -0.009862356 -0.051804665 -0.08125106 -0.115857 -0.07702207
0.07469796 0.058969542 -0.07903688 0.10973928 -0.110029295 0.040296342 0.08740937 0.08858194
-0.017719407 0.100426674 0.07525928 0.039940804 0.009588589 0.04826443 -0.010070646 -0.08016663
-0.12254447 0.015164245 -0.00073545665 0.100609206 0.07053678 -0.052723456 0.107570104 -0.08934064
0.0012021362 -0.0869436 -0.0748268 0.07708381 0.07731682 -0.0017542664 -0.09126085 0.014742401
0.00068110245 0.10430265 0.12976186 0.101356156 0.063837186 -0.08444622 0.0034988741 -0.09625729
-0.055110715 -0.040788684 -0.10551136 -0.01749822 -0.080883786 -0.059992727 -0.043494966 -0.0136843575
0.05999286 0.07757446 0.07621693 -0.100592256 -0.06941287 0.08595138 0.0018527383 -0.056967396
-0.09514671 0.12742803 0.006922547 0.07045726 -0.032996178 -0.03920602 0.06310924 0.064164795
-0.030667447 0.07595689 -0.024871739 0.10787509 0.042061534 0.06684706 -0.06832305 -0.12997878
0.10210543 0.032861486 0.022444647 -0.04949285 -0.024679115 0.11675102 0.10806057 -0.08408796
-0.030077118 -0.008553724 0.04208184 0.061772544 0.006111139 0.014521807 0.09895645 0.0082778325

bias f4 [64]
00000000: b759 153c f84b 01bd eae3 9a3d 1280 94bd
00000010: fd27 a6bd a4f5 debd ea8d b43d df90 d6bb
00000020: 5a89 a03d cd32 b7bd d975 64bd 97ac 2a3d
00000030: 3e81 fc3d fcfb 9b3d 4b3a c3bb ad21 e4bd
00000040: 27b2 f73d 468b 273c 751b d5bd 28bb efbd
00000050: c58f 53bd 4014 a43d d189 0fbd df06 9c3d
00000060: 43f4 0b3d e04f e4bd 7622 0b3c 5a8f 2fbd
00000070: 087b 833d eac2 d7bd fc34 f0bd 802b a7bd
00000080: a466 e53c 490a 04be 35c2 cd3b a6a9 a33c
00000090: a288 b2bd 55e4 80bd e6c5 983c 8273 30bb
000000a0: 693e 813d 4f56 e63c 2850 233d 47ca aabd
000000b0: 7479 38ba 7c3a 2f3c f59e 2e3c 3d92 fe3d
000000c0: 6591 87bd 5765 b13d 1c3e 223d 4d8d bebd
000000d0: f0f8 d1bd 1a88 8dbc 840b 113c 929e 3bbd
000000e0: fe3e 5b3d 336c 08bd 461f c0bd 0bba 623d
000000f0: 42c0 933d 60f0 c3bd ac7a 6bbd 3221 c6bd
0.009115628 -0.03156659 0.075630024 -0.0725099 -0.08113096 -0.10886696 0.088161305 -0.0065480317
0.07838698 -0.08945236 -0.05577645 0.0416685 0.123293385 0.076164216 -0.005957877 -0.11139236
0.12094527 0.0102260765 -0.10405628 -0.11705619 -0.05165078 0.08011675 -0.03504354 0.07618498
0.034168493 -0.111480474 0.008492103 -0.04286132 0.06419951 -0.10535224 -0.11728856 -0.08162594
0.028003044 -0.12894548 0.006279255 0.019978356 -0.08717467 -0.06293551 0.018649053 -0.0026924317
0.06310732 0.028117327 0.039871365 -0.083393626 -0.0007037141 0.010695096 0.0106580155 0.124302365
-0.06619529 0.08661907 0.039610013 -0.09304295 -0.10252559 -0.017276812 0.008852843 -0.04580552
0.05352687 -0.03330631 -0.09380965 0.055353206 0.07214405 -0.09567332 -0.057490036 -0.096743

weight f4 [64, 64]
00000000: 4512 cdbb 176e acbd 2b3a 03be b177 d1bd
00000010: 806f 8c3c 0207 86bd c67e 913d 4d5b 1a3d
00000020: 37bd 00be fc64 77bd dc55 88bc 15df f23d
00000030: 18b0 abbd 7628 b73d afac 03be 6556 52bd
00000040: 4fcc c63d a3fe 8a3d d8c4 3cbd f15d 3fbd
00000050: 0ce0 4abd ff04 e53d 4100 b3bc e2fc ce3d
00000060: c3da 60bc 81d2 92bd cdec d13d 8768 573d
00000070: f73c 7e3c 06a1 eebc 29f5 1f3d 193d 983d
00000080: faed 503d 629c 903d 144b ddbd 0641 11bb
00000090: dc33 7bbd b3c3 063b 58eb 5c3d 633b d73d
000000a0: d019 dcb9 522e ed3d 5ee8 ef3d 224e f83c
000000b0: 44bf dabd d708 303c bbf8 cebd 79dc 773d
000000c0: 79f4 4cbd 381b 9abb 2fb9 21bd 5aaf 763c
000000d0: 7aa6 b2bd 63a9 573d f123 50bd 4041 8a3d
000000e0: a192 023c f8d1 bcbd ced5 0b3d 389f 303c
000000f0: a5a3 99bc baac ecbd 1caf 243d 548a 90bd
00000100: 4a0d 74bd 3eba 7cbc 3877 4938 ad3a 6d3c
00000110: 4ac1 c13d b65e c0bd de4f 0e3d 58b3 7abc
00000120: 9aed 743d 4a57 01bd 58b4 ab3d 57bc d23d
00000130: 1b3f 22bd 299e 283d 7ae4 b13d 8df4 fc3d
00000140: 1d83 6dbd ae6e 4f3d 7399 bdbb e1cd 37bd
00000150: 0d0b 7bbd 939b dbbd 7629 3f3d ac27 6bbc
00000160: 4b94 853c df44 6e3d 357a a43c 1e99 d33d
00000170: acc5 d2bc d152 2f3d 52e7 c83c e70d e7bd
00000180: 79df 72bd 1b05 83ba 0be6 7b3d 7e49 f33d
00000190: edf7 023e 0491 e6bd 3ba9 bbbd 5981 a2ba
000001a0: d21c 6d3c 79ed dd3d 0a35 7d3b 5792 b4bd
000001b0: 46af be3d 3a27 bb3d 5c54 56bd 5b1b a83d
000001c0: a679 b03d 2b72 97bc 735f 8ebd ddb4 04bc
000001d0: f3ea c9bd 1572 02bb bb09 d63d bb6a b43d
000001e0: d20e e4bc 5aec 8d3d 8b5c 7c3d 5d2c 033d
000001f0: 1826 233b c178 883d bfa5 47bd 45d0 803d
00000200: 6722 bdbd c20a 413d dbef 86bd f0c5 25bd
00000210: fc5d b13d c4df e73c 7d4f 553a 0be9 893d
00000220: ffbf abbd 7315 c5bd b902 383d 91bb aa3d
00000230: ea71 833d 563f 043e 2ff8 e3bc 5c99 333d
00000240: ff54 1f3d 2f6f bdbd 5a5d 9ebd 9874 ec3c
00000250: 92ea 913d d893 e6bb 1738 983d 0ff8 2bbd
00000260: 38f0 8dbd 77ba 01bd 507d 943d 2c17 403d
00000270: 8f7b 8dbd 1de9 833d a542 8b3d 6b10 ee3d
00000280: 9bba 41bd c496 6cbc f756 adbd 4039 ac39
00000290: d172 0d3e e7d8 c63d 08c5 c3bc 133f 58bd
000002a0: 1654 a43d 6bc9 0e3d 6dd8 a63d 823b b33a
000002b0: d166 f13d 06b7 ef3d fb2d f93d a177 183c
000002c0: 1cf0 453d 0178 a7bc 0c22 cbbd ac19 d3bd
000002d0: d73b aabd 4f2f 93bc 443d 94bd 7e64 703d
000002e0: 660c af3c b112 97b8 85fa 30bd 5144 efbc
000002f0: 70d4 903c b7db ef3c d702 493c db57 cb3d
00000300: b287 bdbd bf20 b73d 362a dbbd c7a9 2dbd
00000310: 5e03 443d e6bb e73d b1c6 a23d 9fa2 923c
00000320: 60ef eb3d 3449 62bd 898d 5bbd b056 4abb
00000330: 4066 43bd ff5f d1bd 4d95 fd3d 991d b8bd
00000340: 0ab1 d43d 9076 d83d 0a75 893d bcef 8b3d
00000350: 87a9 ac3d 21b3 b9bd da58 453d 43a2 db3d
00000360: 32b7 663d 861b 80bc 5071 853d 9db0 a23d
00000370: b13b b2bd f3ef 90bc c5c7 62bc 0016 d53c
00000380: fb85 803c ec11 323d 13b4 19bd 1932 fbbc
00000390: 01fd cfbd efc5 87bd 24b6 a43d 44e2 7c3d
000003a0: 8c04 b4bc e85a c3bd d9cb 17bd 9587 ba3c
000003b0: 67d3 60bd dfa4 cfbc 88c8 babd 321c af3d
000003c0: 6c30 18bb 82a1 a1bc b4bd f63d af6f 9ebd
000003d0: 0e56 543d aab8 d1bd d7a7 2d3d c0bd c5bd
000003e0: e1ad 34bd cc33 c93d c573 00be b85b 9d3d
000003f0: e753 aa3b 0e4a c7bc f499 3b3d 9fe7 213c
-0.0062582814 -0.084194355 -0.12815158 -0.102279074 0.017143011 -0.065443054 0.07104258 0.037684727
-0.1257218 -0.06039904 -0.016642503 0.11858956 -0.083831966 0.08943264 -0.12858842 -0.051351923
0.097069375 0.06786849 -0.046086162 -0.04672045 -0.049530074 0.111825936 -0.021850707 0.10106827
-0.013724032 -0.07169057 0.10250244 0.05258992 0.015517465 -0.029129516 0.039052162 0.074335285
0.051008202 0.07061078 -0.10805336 -0.0022164 -0.061328754 0.0020563423 0.05393538 0.10509374
-0.00041980902 0.115811005 0.117142424 0.030310694 -0.10681012 0.010744295 -0.10106035 0.060512993
-0.050037835 -0.0047029518 -0.039483245 0.0150564555 -0.08723159 0.052651774 -0.050815526 0.06750727
0.007969529 -0.09219736 0.034139447 0.010780148 -0.01875479 -0.115563825 0.04020606 -0.07057634
-0.059582986 -0.015425263 4.8033166e-05 0.014479321 0.09460695 -0.09393065 0.034744136 -0.015301548
0.059796907 -0.031577386 0.08384007 0.10289829 -0.039610963 0.04116646 0.086861566 0.12351332
-0.057986367 0.05064266 -0.005786115 -0.044874076 -0.061289836 -0.10723033 0.0466704 -0.01435272
0.016306063 0.05817115 0.020077804 0.10331939 -0.025729023 0.04280359 0.024524365 -0.112819485
-0.05929515 -0.0009996028 0.061498683 0.11879252 0.12789889 -0.11258128 -0.091631375 -0.0012398168
0.014472203 0.1083631 0.003863635 -0.088169746 0.093107745 0.09138341 -0.052326545 0.08208343
0.086169526 -0.018487057 -0.06951799 -0.008099762 -0.09859266 -0.0019904424 0.10451075 0.0880942
-0.027839098 0.06929846 0.061611693 0.03202473 0.0024894532 0.06663657 -0.048742052 0.06289724
-0.09235077 0.0471294 -0.065887176 -0.04047197 0.08660504 0.028304942 0.000813715 0.067339025
-0.0838623 -0.09623232 0.04492447 0.08336557 0.06418212 0.12914786 -0.027828304 0.043847427
0.038899418 -0.09249722 -0.07732649 0.02886419 0.07124819 -0.0070366673 0.07432573 -0.041984614
-0.06930584 -0.031671967 0.07250464 0.0468971 -0.069083326 0.06440947 0.06799821 0.11624225
-0.0472971 -0.014440242 -0.08463853 0.0003284905 0.1381333 0.097093396 -0.023897663 -0.052794527
0.080238506 0.034860056 0.08146749 0.0013674351 0.11787189 0.11704831 0.12166973 0.0093058655
0.04832469 -0.020442965 -0.09918603 -0.10307631 -0.08312195 -0.017966894 -0.07238248 0.058689587
0.021368217 -7.2037226e-05 -0.043207664 -0.02920738 0.017679423 0.029279573 0.0122687435 0.099288665
-0.092543975 0.08941793 -0.107014105 -0.04239824 0.047854774 0.11315136 0.07948054 0.01789981
0.115202665 -0.055245593 -0.053601775 -0.0030874424 -0.047704935 -0.10223388 0.123819925 -0.0899002
0.1038533 0.10569489 0.067117766 0.06832835 0.08430772 -0.09067369 0.04818044 0.10724308
0.056327052 -0.015638124 0.06515753 0.079438426 -0.087027915 -0.017692542 -0.013841574 0.026011467
0.015688887 0.043474123 -0.037525248 -0.030663537 -0.101556785 -0.0662955 0.08042553 0.06173922
-0.021974824 -0.09538823 -0.03705964 0.022769729 -0.05488911 -0.025347171 -0.091202796 0.085503
-0.002322222 -0.019730333 0.12047902 -0.07736146 0.05183988 -0.102403 0.042396393 -0.096553326
-0.044111136 0.098243326 -0.12544163 0.076835096 0.00519799 -0.024327304 0.045801118 0.009881883

bias f4 [64]
00000000: c7d0 f9bb 86ae 51bd ab63 acbd 2b87 4bbb
00000010: 89f3 bfbd 6729 d33d 3499 053d 50d7 4ebd
00000020: ef73 db3d 73b9 6cbc 24d0 ba3d 29f1 223b
00000030: 6998 b7bd 2348 5cbc 5ee2 c43d aa63 e33d
00000040: 4cb6 d6bb 0896 b23c 8471 5f3b 584c fabd
00000050: 3d62 0e3d 7e93 ac3d af0e b4bd f875 2e3d
00000060: 92c7 fdbd 777c c9bd 2777 51bd 44c5 84bd
00000070: ba21 debd 0224 fcbd c734 533d da95 b13d
00000080: d846 a53d a40e 0b3b 339f 033e 48d6 733d
00000090: d79c 3cbc 0d36 d6bd 3bff eabd bda8 a03d
000000a0: e028 9ebd 4ffc 863c 76db e83c d330 e0bd
000000b0: 3962 b3bc f3d0 81bd 981f 91bc fc08 7f3d
000000c0: 6112 a83d 0915 9dbd 5ea1 e43c 94df 9b3b
000000d0: f047 9dbd 84ed bc3d abda 573d 4744 ab3d
000000e0: ceb6 fc3c bd51 bd3d f166 cabc ec52 143d
000000f0: 84cd a9bd 118f d93d 7698 203d 4c8d d83d
-0.007623765 -0.05119183 -0.08417448 -0.0031055908 -0.093726225 0.10310631 0.03261681 -0.050498307
0.10715472 -0.014448511 0.09121731 0.002486298 -0.08964617 -0.013444933 0.096134886 0.11102994
-0.006552493 0.021800056 0.003409476 -0.12221593 0.034761656 0.084265694 -0.08791863 0.042592973
-0.12391581 -0.09838193 -0.051139023 -0.06482938 -0.108462766 -0.123115554 0.051564004 0.0867116
0.08070153 0.0021218443 0.12853698 0.059530526 -0.011512003 -0.10459528 -0.114744626 0.07844684
-0.0772264 0.016477732 0.02842496 -0.109468125 -0.021897422 -0.06338682 -0.01771526 0.062264428
0.082066305 -0.07670028 0.027908977 0.004756877 -0.076797366 0.0922499 0.052698772 0.08362632
0.030848887 0.09244106 -0.02470729 0.036211893 -0.08291152 0.10622991 0.039207898 0.10573825
