tests/python/kaolin/physics/simplicits/regression_test_data/beam_weights_fcn_32_handles.pth (torch, 190422 bytes, 26 tensors)

weight f4 [64, 3]
00000000: 0c1c c63d fc90 223e be73 5fbe c737 e0be
00000010: 457d 82be 327f 06bd bddf 4dbd 6ef4 38bc
00000020: 6742 f0be 380c 6dbe 50b0 353e 9bda 1abf
00000030: 8858 883e 9df5 413e 715d 90be 61fd 033f
00000040: 7745 c6bd 3043 833e 32ba 24bf 42ea 9f3e
00000050: da21 e03e 6b71 bb3e 5f9e ddbe 7c83 ff3e
00000060: 64e7 063e 5bb1 20bf f7f3 973e d30d 0a3f
00000070: 9be2 fbbe b387 d03d 7370 813e 8274 303d
00000080: a767 083f 6b51 75be aabe aa3c 6a08 35bd
00000090: 6ca7 7fbd a9e1 2e3f 3ae1 e43e db6b 9e3e
000000a0: 79e8 233f a0c6 c63c c35e 89be 64e9 a73e
000000b0: 3a24 babe 35f5 483e ee84 0cbd 6e11 d1be
000000c0: f2ec 09bf 0b6e 1ebf 8579 523b 70e8 a63c
000000d0: acf5 0fbf 0dd6 273f b4f0 56be 1a58 01bf
000000e0: 87e1 25bd 5e8a 28bf a738 90be 0eb9 b1be
000000f0: 410e b7be e393 963e e0bd e8bd 5d91 443e
00000100: ec20 80be 13a9 63be 7182 d63d d209 0f3f
00000110: 4d4a 90be 3618 0abe bf2f 153e 4b99 893e
00000120: 5299 0b3f 2554 08bf 34ad 69be bc89 933e
00000130: 5f72 ee3c bc2a 463d 353c 33bf 0a6d d5be
00000140: daff e33e 8c83 e23e fa8f b3be 8d1d 9ebd
00000150: ea02 e7be de22 803e 0ae1 70be d12a 1a3f
00000160: 08fe 42be e538 84bd b5f5 063f 0472 083f
00000170: 6c70 1e3f 31f0 92be fb37 0c3f 3c4e 1d3e
00000180: 30cf 553e 1c86 0ebf 53a4 89be fca9 283f
00000190: f8d4 28be b9e9 cebe 5f2e 003f fa81 6fbe
000001a0: 2d09 9e3e 0a1d 77be 881e 41be f12f 1e3f
000001b0: 0879 b4be 7a0b d6be 799e bc3e d797 303f
000001c0: 8f77 153f 3ade 2ebf 1ed1 1bbf 04bc c6be
000001d0: 1558 febe ed79 073f 9801 15bf 051a 303e
000001e0: e596 273e 0d58 e7be aa82 ab3e cb7c c43e
000001f0: 5494 263e fb47 3ebe 8d80 53be a458 293f
00000200: 9c2b 14bf 7a6a 80be 8d77 563e 2b2d 17bf
00000210: 5eca 083e 1792 8bbe 0f41 d93e f77c 39be
00000220: 5a55 223f 59bd fc3e f925 423b d750 043f
00000230: 251d b43d a51c 05bf 1c78 d0be dda5 d7bd
00000240: 0228 e33d 5639 f6bd 569b ef3e dd58 903e
00000250: 4492 b3be 38ee 5fbe d452 bdbd 31c2 d6bd
00000260: 40a3 05bf 73f7 903d 0972 76bd 2028 f53e
00000270: aeda bdbd 33ee 47be 7ff5 1ebf c2ff de3e
00000280: 3c99 b63e 0846 91bd aedf a33e 075b 0fbf
00000290: f1ae c13e 1fe9 1abf 632e 1f3f 4738 213c
000002a0: 6332 80bc 3da9 703e efc8 8fbe 27a3 32be
000002b0: f36a a6be d844 8cbe 4651 ca3e 7a4a c5be
000002c0: c9fa 04bf 38a5 6c3e b410 693e 4b7d 07bf
000002d0: 95e5 69be ecfc 253f e854 12bf cd7f e53e
000002e0: 76dd 0ebc 01e3 abbe 40e8 8d3e c0b3 203e
000002f0: 3418 86bd 9df8 143f 16c6 e83e e838 b3be
0.09673318 0.1587562 -0.21821496 -0.43792555 -0.25486198 -0.032836147 -0.0502622 -0.011288745
-0.4692566 -0.23149192 0.17743039 -0.60489815 0.26630044 0.1894135 -0.2819629 0.515585
-0.09681218 0.25637197 -0.6434661 0.31233412 0.43775827 0.3660997 -0.4328489 0.49905002
0.13174206 -0.6277062 0.29678318 0.53927344 -0.49196324 0.101821326 0.25281104 0.04307986
0.5328316 -0.2395684 0.020842869 -0.044197477 -0.062415525 0.6831308 0.44703084 0.30941662
0.640266 0.024264634 -0.2683011 0.3279525 -0.36355764 0.19624789 -0.03430646 -0.4083361
-0.53877175 -0.6188666 0.0032115888 0.020374507 -0.5623424 0.6556099 -0.20990258 -0.5052506
-0.040498283 -0.6583613 -0.28168222 -0.34711498 -0.35753062 0.29409704 -0.11364341 0.19196077
-0.25025117 -0.22232465 0.104740985 0.5587436 -0.28181687 -0.13485798 0.14568995 0.26874766
0.54530823 -0.53253394 -0.22819978 0.2881602 0.02910727 0.0483806 -0.70013744 -0.41684753
0.44531137 0.44240987 -0.35070783 -0.0772048 -0.4511941 0.25026602 -0.23523346 0.6022158
-0.19042218 -0.06456164 0.5271867 0.53298974 0.6189029 -0.28698877 0.5477292 0.15361875
0.20879817 -0.55673385 -0.26883182 0.65884376 -0.16487491 -0.4041269 0.50070757 -0.23389426
0.30866376 -0.24132171 -0.18859303 0.617919 -0.3524859 -0.4180563 0.36839655 0.6898169
0.58385557 -0.6830784 -0.6086596 -0.3881532 -0.49676576 0.5292042 -0.58205557 0.17197426
0.16366155 -0.45184365 0.33498126 0.3837646 0.1626752 -0.18582146 -0.20654507 0.6615088
-0.5787904 -0.25081235 0.20944043 -0.59053296 0.13358447 -0.27259895 0.42432448 -0.18114077
0.63411486 0.4936321 0.0029624684 0.5168585 0.087946214 -0.51996833 -0.40716636 -0.10529683
0.11091615 -0.12022655 0.467982 0.28192797 -0.3507253 -0.21868217 -0.09244314 -0.10486258
-0.52202225 0.07078447 -0.060167346 0.47882175 -0.092702255 -0.1952446 -0.6209335 0.43554503
0.35663784 -0.070934355 0.32006592 -0.5599827 0.37828782 -0.60511965 0.62180156 0.009840078
-0.015649026 0.2350206 -0.28082988 -0.1744505 -0.3250347 -0.27396274 0.39515132 -0.38533384
-0.5194517 0.23109901 0.22760278 -0.52925557 -0.22841485 0.64839053 -0.57160807 0.44824067
-0.008719793 -0.33571628 0.27716255 0.15693569 -0.06547585 0.58191854 0.45463628 -0.35004354

bias f4 [64]
00000000: a82b 18be b98e 803d 8d24 c83e b45a 003e
00000010: 5c8b ca3e 3312 bf3d 1df5 463e 20dd 503c
00000020: 5e32 d63e bf96 92be 944f a8bd 07e7 92be
00000030: e01f 7bbe 9d41 13bf 3956 32be 7b8d a2bd
00000040: add7 2abe 7575 90be aa46 93be 83fd 293f
00000050: 6b31 d8bd 7c63 81be 482b 003a fe9f 3cbd
00000060: f5fd 79be 229d 80be f3bb 193e da80 683e
00000070: f392 973e 4d28 c8be 005a adbe 11f3 4bbe
00000080: 0868 3abe 165b c2be 1398 1e3e 4129 fe3d
00000090: 4cb6 b2bd 247c b43e 1f5d 9b3e 93f0 7a3e
000000a0: ad30 bb3e 6a5e 4abe 6c01 b63e d66d e23e
000000b0: 8a60 7bbe e3d2 e83c 665c 02bf fe00 fbbd
000000c0: 116e 703e d349 f23d b02b 123f 4510 c93d
000000d0: 5adf 3f3e 6e41 cdbe 6dbf f93d f70e 0cbe
000000e0: 8c12 543e 75e9 6dbe b7a9 a53d 890a 27be
000000f0: 943d ce3e 5ce6 933e 49c2 4cbe cfe3 febe
-0.14860404 0.06277222 0.39090386 0.125346 0.39559448 0.09329643 0.19429441 0.012748033
0.41835302 -0.28630635 -0.08218303 -0.28691885 -0.24523878 -0.5752199 -0.17415704 -0.079371415
-0.16683836 -0.28214613 -0.2876485 0.66402453 -0.10556301 -0.25271213 0.0004889262 -0.046051018
-0.24413283 -0.25119883 0.15013103 0.22705403 0.296043 -0.39093247 -0.33857727 -0.19916941
-0.18203747 -0.37960118 0.15487699 0.12410212 -0.087261766 0.35250962 0.30344483 0.24505834
0.36560574 -0.19762579 0.3554796 0.44224423 -0.24548545 0.028420871 -0.5092224 -0.122560486
0.23479487 0.11830487 0.5709791 0.09817556 0.18737546 -0.4008898 0.12194715 -0.13677584
0.207102 -0.23233588 0.08089011 -0.16312613 0.40281355 0.28886688 -0.19995989 -0.4978318

weight f4 [64, 64]
00000000: 1da1 c23d 9747 e43d 2981 f13d 4f2b fa3d
00000010: cd74 3d3d 0e70 363c ac50 9c3d 3d31 c7bd
00000020: 47ae 2dbc 8b73 073e 3f2b 24be 3683 4ebd
00000030: 55b9 8bbe b766 3dbe 2703 cc3d fe1f da3b
00000040: 5c46 1f3e 5538 ab3d 14e6 763d 0cf8 a03e
00000050: e4bc febd 1d47 fa3d 0245 41be 9081 32bc
00000060: 732d 133d d9f7 933d 1839 cc3d 0d80 883d
00000070: 6843 99bd d010 9cbd 8fdb 84be b0de 7bbe
00000080: a5ee 023e bb6e d93d 44c4 be3d cac1 71bd
00000090: b986 dc3d 91e8 23bd dac2 453e 17c4 a6bc
000000a0: 859d e63d a183 c2bb 5500 8abd b8aa 003d
000000b0: 9389 ce3d 8c60 d6bd 1b07 aabd 5e1c f73d
000000c0: a7d4 f6bd fc30 c63e fbc9 0cbb 80f4 13be
000000d0: d974 7b3e 9b3d 02be d932 4a3d 4ff4 27bd
000000e0: 95fb 2f3d 1584 9dbd 8005 5c3e 45b7 f63d
000000f0: 4489 a5bd d2e3 1b3c 3abd 22be 9c36 94bd
00000100: 1dc5 d5bd 9811 c5bd 71e0 673d 6464 023c
00000110: 6064 903d ce7c b43d 9aa1 b1bb 6d8e 0d3d
00000120: 027c 57bd eedc d0bd a43c a13d 45fa 683c
00000130: 434a 113c be8d 85bd d71a a53c 5b0d aabd
00000140: 3c06 313d 4bd4 d43c 9049 60bc 3c94 3bbd
00000150: 1382 e13d a494 f03d 8684 e23d 1bdb ea3d
00000160: 60b7 6c3d bbfb 94bc adc8 b93d d55b d7bd
00000170: 6803 903d eb76 56bd 385c adbd 2a65 1abe
00000180: 1e80 d6bd 38d2 973d 71e3 cb3d 2998 febd
00000190: 9248 953c a1f9 e23d 63ae a6bd faf2 f8bc
000001a0: a2dd 8fbc c637 99bb b8a4 ab3d e7c3 eabd
000001b0: 3428 de3d 6a22 f3bd 8017 843d eb9b 0d3e
000001c0: 333f febd be46 fa3c 586d 2dbc 97c1 cb3d
000001d0: 9bef aebc 285a a9bd 15ad 71bd 0aeb b83d
000001e0: 092d 763d b24c 973d c9ac 113d 097e 14bd
000001f0: 1ce2 f7bd 929b 323c 318d f1bc 8737 3b3c
00000200: dc6a 8dbd 4f51 093e 8671 48bd 8f4d c8bd
00000210: 0800 583d 4150 60bc 8163 343d 0cd9 a43d
00000220: da83 703d 5730 24bc ae3d 51bd fc8e 50bd
00000230: df98 96bd 7f82 80bd b851 d6bd 0474 8b3d
00000240: d219 b9bc 45eb 3c3c 8c7e 0e3e 8c56 053e
00000250: c1aa 7c3d 39b8 74bd 5dbd 2cbe 8e18 8abc
00000260: 47bc f6bc 3321 543c cd0a 043e 9015 a73c
00000270: 5b86 d6bd d37e 5b3c 9386 1cbe 8973 9ebd
00000280: 3cf2 d83d fc3a 87bd 4afb 03bd 2f86 abbd
00000290: c262 e13d fa09 d0bd 3ef9 583d 5428 103e
000002a0: c2b3 e03d f7c7 b8bd 25c6 52be 8457 98bd
000002b0: d530 273e c9d5 bebd 2557 73bd ec14 93bd
000002c0: 63c4 f2bd 783f 023e 64b3 84bc 26b3 18bd
000002d0: d115 e43d d586 1bbe 7f92 c63d 5d81 093d
000002e0: 41cc eb3c a76a 1b3d a9ab 803d c88b c13d
000002f0: 1d35 0fbe 6b16 033d 79ea b0bc cccb b1bd
00000300: c7dd ee3d 5e03 75bd 1f46 5bbd 84dd 003e
00000310: 8637 ebbd 5247 bb3c f585 2f3e 0b2a 2abe
00000320: 73cd b2bd 4ec0 063d 811c 95bd f0b3 a83d
00000330: a4e5 433d d2fd 663d dd5c b73c cdea 1cbd
00000340: 4d89 b7bc 3045 c2bd a704 cbbd 833f f33e
00000350: e5de 183d 7d0f afbd 7737 fa3b 9028 7c3d
00000360: 1257 983b 5ef3 ecbd 07ec 293d ae41 d0bd
00000370: e874 553e 1a58 1bbe a97a 05be ff40 4e3e
00000380: 1421 fcbd 9f75 e4bd 3d80 b4bc 9d52 e2bd
00000390: ae7f ccbd 9577 c1bc 8c88 de3d 4933 743d
000003a0: 6e6d 07be 95fa c33c 4527 be3b bc30 313e
000003b0: 699a 2cbd f78a 393d 9a71 76bd 86b6 323d
000003c0: c0d6 353d 7abc 84be d759 093e c68f 233d
000003d0: 80f0 9bbd de35 763d 5f9a 193d 1a5e 493e
000003e0: 80ee b43d 6b9b 8c3d 2891 2d3d f8a3 82bd
000003f0: 9af4 c13d e6e3 6ebd 72cd e8bd 676b aebb
0.09503386 0.11146467 0.117922135 0.12215292 0.046253968 0.011135114 0.076325744 -0.09726188
-0.010600633 0.1322767 -0.16032122 -0.0504181 -0.27289835 -0.18496214 0.09961539 0.006656646
0.15554184 0.08360354 0.060278013 0.31439245 -0.12438372 0.12220595 -0.1887398 -0.010895148
0.035932016 0.072250076 0.09971827 0.06665049 -0.0748356 -0.07620394 -0.2594876 -0.24596667
0.12786348 0.10616823 0.093147784 -0.059022702 0.10767884 -0.040016714 0.19312611 -0.020357175
0.11260513 -0.0059361015 -0.067383446 0.03141281 0.10084834 -0.104676336 -0.083021365 0.120659575
-0.12052279 0.38709247 -0.0021482694 -0.14448738 0.24556293 -0.12718813 0.0493649 -0.041004475
0.042964537 -0.07691208 0.21486473 0.12046675 -0.08082822 0.009514766 -0.15892497 -0.072369784
-0.10437987 -0.09622496 0.05661053 0.007958505 0.07050395 0.08812867 -0.0054208757 0.034559656
-0.052608497 -0.10198389 0.078728944 0.014219825 0.008867803 -0.06521176 0.0201544 -0.083033286
0.043218836 0.025980135 -0.013689414 -0.045795664 0.11011138 0.11747101 0.11060433 0.11467572
0.057792068 -0.01818644 0.09071479 -0.105155624 0.070319 -0.052359503 -0.08464855 -0.15077654
-0.10473655 0.07413143 0.099554904 -0.12431366 0.01822308 0.11082769 -0.081387304 -0.030389298
-0.017561737 -0.004675838 0.08381027 -0.11463147 0.10847512 -0.11871798 0.06449795 0.13829009
-0.12414398 0.03055131 -0.010585152 0.09949034 -0.021354487 -0.08269149 -0.059002955 0.09029205
0.060101543 0.07387675 0.03556517 -0.03625301 -0.12103674 0.010901349 -0.02948627 0.011426813
-0.069051474 0.13409923 -0.04893639 -0.09780418 0.052734405 -0.013691009 0.044040207 0.08049211
0.058719493 -0.010021291 -0.051084213 -0.05091761 -0.073533766 -0.0627489 -0.10464805 0.068092376
-0.02259532 0.011530702 0.13915461 0.13021296 0.06168628 -0.059746 -0.16869111 -0.016857412
-0.030119075 0.012947368 0.12894745 0.020396024 -0.10474845 0.0133969365 -0.15285711 -0.0773688
0.105930775 -0.06603047 -0.03222207 -0.08375203 0.11005165 -0.10158153 0.05297207 0.14077884
0.10971786 -0.09022515 -0.20583399 -0.07438567 0.16327222 -0.0931812 -0.05940928 -0.07181725
-0.11853864 0.12719524 -0.016198821 -0.037280224 0.11136974 -0.15188153 0.09695911 0.033570636
0.02878392 0.03794351 0.062827416 0.09450489 -0.13985105 0.0320038 -0.02159618 -0.08681449
0.116633944 -0.059817664 -0.05353367 0.12584502 -0.114852 0.022861157 0.17140944 -0.166176
-0.087305926 0.03289824 -0.07280827 0.08237445 0.047826424 0.056394406 0.022383148 -0.03830986
-0.022404337 -0.09485853 -0.09912997 0.47509393 0.037321944 -0.08547876 0.0076360065 0.06156212
0.0046490515 -0.11569856 0.04148486 -0.101687774 0.20845377 -0.15170327 -0.13035072 0.20141982
-0.12310997 -0.11155247 -0.022033805 -0.110509135 -0.099852905 -0.023616591 0.10865888 0.05961922
-0.13225338 0.023923198 0.005803021 0.17303747 -0.042139445 0.045298543 -0.060166933 0.0436311
0.044394255 -0.25925046 0.13413177 0.039932035 -0.07614231 0.060109966 0.037500735 0.19664803
0.08834553 0.06865581 0.04237476 -0.06378931 0.09470482 -0.05832281 -0.113673106 -0.005322862

bias f4 [64]
00000000: c01b acbd 7b5a a53d 34ab c23d e832 753d
00000010: 81bb 09be 9e9d 503d 9dd8 87bd 267e 293e
00000020: cd01 b6bb cf35 133e 5138 07bd 8489 08be
00000030: ad1f 12bd 0b6a 12be 4909 86bd cb80 02be
00000040: 9e20 ad3d 8027 afbd 1f1e abbd cc30 783c
00000050: 4423 f9bd e100 9a3d f4f2 183d fd25 e3bd
00000060: 5a81 be3d 6012 ddbd 99b6 12bd 2801 d33a
00000070: a0fd 85bc 4faa 08be ae8e 93bd 6838 adbd
00000080: 44fa e43d f831 f13d 143e 793d 5427 e9bd
00000090: 0f99 19be 0e75 703d c392 973b 22cb 1f3d
000000a0: 0ac8 483e 1f38 6fbb fed8 f43b c2c2 383d
000000b0: 6c71 76bd baea 813d 6451 a03d 1966 4cbc
000000c0: 92ae ecbd 0051 28bd ff74 073d 3e86 05be
000000d0: e901 a73d 122c f53d 6a94 1e3d 515f ba3d
000000e0: e236 b3bd 237a a6bd 4915 bcbc af21 63bd
000000f0: 243b 8fbd ce7d 5e3d 9e69 f83c d7dc 21bd
-0.084037304 0.080738984 0.09505311 0.059863 -0.13450433 0.050931565 -0.066331126 0.16552028
-0.005554414 0.14375995 -0.033012692 -0.13333708 -0.03567474 -0.14298265 -0.0654474 -0.12744443
0.08453487 -0.08552456 -0.083553545 0.015148353 -0.121649295 0.07519699 0.037341073 -0.1109123
0.093020156 -0.107945204 -0.03581867 0.0016098367 -0.01635629 -0.13346218 -0.07204948 -0.08458024
0.11180547 0.11777109 0.060850218 -0.11384454 -0.14999793 0.058705382 0.0046256497 0.039012082
0.19607559 -0.0036501957 0.0074721565 0.04510761 -0.06016676 0.06343599 0.07828024 -0.012475514
-0.11556734 -0.041092873 0.03307056 -0.1303949 0.08154661 0.11971296 0.038715757 0.091002114
-0.087507024 -0.081287645 -0.022959368 -0.055452045 -0.06993702 0.054319195 0.0303238 -0.03951725

weight f4 [64, 64]
00000000: 4ad2 85bb 9b28 8bbc c7b0 b83c 282c 163e
00000010: 2a74 133e 1a92 963d 883c 4cbe 8bb1 093d
00000020: f91e bb3c a753 f6bd 1b43 3c3d 8a42 f03d
00000030: 15a8 b43d e416 49bd e421 f53d 22c8 a3bc
00000040: dbe4 bebd e5ff cb3d fa69 bc3d 9062 913c
00000050: 3142 25bd 03e5 59bc 210a 69bd d919 2e3e
00000060: d383 88bd ff44 02be af2a 2e3c bb41 0e3e
00000070: 88e8 9dbc 34cd 733e aed7 25bd 77e9 adbd
00000080: ac2f 4f3e 137c 053d 6452 4abe 6469 9cbd
00000090: f988 f6bd 2914 57bd c5a6 98bd 9142 9dbd
000000a0: 97a6 95bd 8b7b fb3b 3cc4 b63c d159 bc3d
000000b0: 197b 8c3d 896e a13d c88a e9bd c28b 2b3e
000000c0: 5657 16bd b293 89bb fd59 4e3d 02f4 903d
000000d0: d43e 043b f058 aa39 cc48 df3d 8d9d af3d
000000e0: 6248 f0bd e4e7 29bd 4c65 78bb 1026 aebd
000000f0: 2700 97bd 344b bcbc 293d 3cbd e2f3 3bbc
00000100: e642 03be dc95 1b3e 14a5 01bc b78e d3bd
00000110: 23b6 813d c5cd a13d 5b5b 253e fa2e edbd
00000120: e23f b93d b24b 1d3e 835f 053e a776 eb3d
00000130: cd53 a13d cc8c 5ebd eea8 623d 56a9 b83d
00000140: 2def b7bc 859f a0bd ee6e 82bc 2bfe 2fbd
00000150: 4442 15bd c306 553d 285b 963d b073 0e3e
00000160: 7658 fb3c b320 0abe ee80 adbd 2a14 193e
00000170: c998 e53d e94b c53c c17a 013d dcc5 983d
00000180: dd64 813d 14dd abbc 66d5 ec3c de2e aabd
00000190: 9757 e13a 1c9a d2bd 3c77 6b3d 5046 f63d
000001a0: 0422 30bd c40f 563d 3123 863c ec80 a5bd
000001b0: 3429 ca3d a9f3 adb8 e418 e8bd f099 8f3d
000001c0: 232c afbd 0014 5bbd ee08 a5bd 1c8f d93d
000001d0: e47d 6e3d d4a5 873c 869c 043c 0287 993d
000001e0: bd76 773c 4c7f 2ebb c9b2 04be 7029 37bd
000001f0: 7c03 cfbd e7e1 8abd b2ab cfbd 6880 4bbd
00000200: ed4c 903c 9725 973d dd1a debb 9c76 aa3d
00000210: 953c 1cbe 1a61 06bd 9832 963e 1b3a 573e
00000220: 3cbf eb3c 4fad a93e 7859 2abd e4a9 b6be
00000230: 28a2 933c 76b8 d9be d24b 913d c3fc f0bd
00000240: 2cf3 7e3d a685 8a3d 9daf 003d 826f 673d
00000250: 9c1a 9ebd 5292 153e afda 153e 6a45 2d3c
00000260: 7512 8e3d 8ef7 9abd fa05 acbd 89e2 89be
00000270: 638d 41be 157f 77be 6630 a6bd f608 ae3c
00000280: f003 22be a309 913d 5ff5 993d 8a5e 25be
00000290: f3cb a0bd e2a1 c23d 8299 73bc 92ae babd
000002a0: 1fbf 63bd 22ee 113d 46fc 1a3e c927 a03d
000002b0: ae24 ac3d 242f c2bc 5194 563c 143f 8dbe
000002c0: 41d1 2c3e cba7 d4bd 1bc8 c63d 6d8b 16be
000002d0: 8c46 453d f79e d93a 1bea f5bc cf40 dbbc
000002e0: d53b 72bd c856 9d3e 5020 a13d 9a10 ef3d
000002f0: 0059 d2bc 12b9 20bd 469d 0c3d fe57 2b3b
00000300: e4e5 14bd ed46 1abc c7e1 493d bf2e 953d
00000310: 80aa 32be baa9 75bd 5289 033e 07f2 f4bb
00000320: 3414 783d 4c84 d6bc f503 ff3d eb6f d33d
00000330: e364 433d c562 5abe 5d53 2e3d 7a09 a03a
00000340: 460b c83d c324 fbbb 1be1 1b3d bdca 8abd
00000350: c8a6 f63c 7213 fa3d 7657 8b3d 6a8d 313c
00000360: 2634 b3bc 0a75 40bd 4c4d d9bd d0bc 5c3d
00000370: 9e3c 513d b4e5 253e ed8f 973d 40ff 06bd
00000380: ed76 bb3d 8f4f 443d 76a4 b0bc 627f e13d
00000390: 9564 013c 431d c93c de03 c8bd 26c5 913d
000003a0: 9abf b93d 898c 89bd 18f9 023e f60f b13c
000003b0: d92f 853d 6527 39bd 64b8 63bd fe54 bbbd
000003c0: b397 f1bd df5f 1f3e bf2c 36bd 40eb 783d
000003d0: 675a 9c3d 919b abbd aab5 d33d 349e acbd
000003e0: 83f1 003e e621 e43d f42a f43d a38c d13d
000003f0: 4a61 7b3d 55c6 92bd 4a51 663c 7d33 f7bc
-0.0040839063 -0.016987136 0.022545232 0.14665282 0.14399782 0.073520854 -0.19944966 0.033616584
0.022841917 -0.12027674 0.045962434 0.11731441 0.088211216 -0.049094096 0.11969355 -0.019992892
-0.093209945 0.099609174 0.09199901 0.017747194 -0.04034633 -0.01329923 -0.056894425 0.17002048
-0.066657685 -0.12721632 0.010630294 0.13892262 -0.019275919 0.23808748 -0.04048889 -0.084917955
0.20233029 0.03258903 -0.19757992 -0.07637289 -0.12037844 -0.05250946 -0.07453684 -0.07678712
-0.07307165 0.0076746396 0.022310369 0.091968186 0.068594165 0.07882411 -0.114034235 0.16752532
-0.036704384 -0.004198515 0.05037879 0.07077791 0.002017905 0.0003249119 0.10902557 0.08574972
-0.11732556 -0.041480914 -0.0037902175 -0.085033536 -0.07373076 -0.022985078 -0.045956764 -0.01147172
-0.12818488 0.15193886 -0.007912893 -0.10329955 0.06333568 0.079005755 0.1614813 -0.11581226
0.09045388 0.15360907 0.13024716 0.114972405 0.07877312 -0.054333493 0.055336885 0.09016673
-0.022452915 -0.07842926 -0.015922036 -0.042967003 -0.03644015 0.0520084 0.073416054 0.13911319
0.03068183 -0.13489036 -0.08471857 0.14949098 0.11210782 0.024084048 0.031611208 0.07459614
0.06318066 -0.020979442 0.02891035 -0.083097205 0.0017192242 -0.102833 0.057486758 0.1202513
-0.04300119 0.05226113 0.016374202 -0.080812305 0.0987114 -8.294668e-05 -0.113328725 0.07011783
-0.0855334 -0.05348587 -0.08058344 0.10622999 0.058225527 0.016558565 0.008093959 0.07496454
0.015103993 -0.0026626168 -0.12958826 -0.044717252 -0.101080865 -0.06781369 -0.1014017 -0.049683005
0.017614806 0.073802166 -0.0067781047 0.08323404 -0.15257485 -0.032807447 0.29335475 0.21018259
0.028777711 0.33140036 -0.04158923 -0.3567649 0.018021658 -0.42523545 0.0709454 -0.117669605
0.062243626 0.06763773 0.031417478 0.056502827 -0.07719919 0.14606598 0.14634202 0.010575632
0.06937114 -0.075667486 -0.083995774 -0.26930645 -0.18901591 -0.24169572 -0.081147 0.021244507
-0.15821815 0.07081916 0.07517504 -0.16149345 -0.078514 0.09503533 -0.014868142 -0.09115328
-0.05560219 0.03562749 0.15135297 0.078200884 0.084054336 -0.023704119 0.013096885 -0.27587187
0.16876699 -0.103835665 0.09706136 -0.14701624 0.048162982 0.0016603161 -0.030018857 -0.026764302
-0.05913909 0.3073027 0.07867491 0.11673088 -0.025677204 -0.039238997 0.034329675 0.0026144977
-0.036352053 -0.009416324 0.049287584 0.07284307 -0.17447853 -0.059976317 0.12845352 -0.007475141
0.060566142 -0.026186131 0.124519266 0.10324081 0.047703635 -0.2132674 0.04255997 0.0012209855
0.09767775 -0.0076642944 0.038056474 -0.067769505 0.030108824 0.1221074 0.06803791 0.010836938
-0.021875452 -0.046986617 -0.10610446 0.053891003 0.0510832 0.16200906 0.074004985 -0.03295827
0.09153543 0.047927435 -0.021562796 0.110106245 0.007897516 0.024550086 -0.097663626 0.07117681
0.09069748 -0.06716258 0.12790334 0.021614056 0.06503267 -0.045203585 -0.05559577 -0.0914707
-0.117965125 0.15563916 -0.044476267 0.060771227 0.076344304 -0.08379281 0.10337384 -0.08428612
0.1259213 0.11139278 0.11922255 0.102319025 0.06137208 -0.07166735 0.014057467 -0.030175919

bias f4 [64]
00000000: f5dc 643c feb5 42bc 1d89 ee3d 2780 a13d
00000010: 0309 e83c d7fd 75bd f199 b23b ed6d 1f3c
00000020: 9c31 8ebd c92e 1fbd 88d5 62bd 580b 11bd
00000030: d036 783e 13f0 b63c 232b 80bc e66c 803d
00000040: 45f4 edbd 21dd 823c c7fd 91bd f42a 843d
00000050: 5f68 15bc a9f0 cebd 1649 023d b08b 0dbe
00000060: 426e 3d3d 80ed 0dbe 0140 843d 8215 c9bb
00000070: 92f7 e3bc 0528 023d 23d2 eebd 98ab e43c
00000080: 4523 50bd 4d92 5b3c bc75 93bd 6619 b13c
00000090: 1d5d 5c3c 083e 0abc 4fdd 8e3d 9ed0 ebbd
000000a0: d399 963d 6a3b be3c 080c c3bd acc1 0f3d
000000b0: 0b32 453e 575a 94bd e989 62bd 3f9d 0bbd
000000c0: 8b99 1c3c 1902 8cbd fbe8 93bd 55c3 af3d
000000d0: 54e6 d23d 414a dabd 445f a53d 6e68 483c
000000e0: 1002 c7bb 4adb fbbc 1288 a93d 6192 8dbd
000000f0: 505b 623d 8a10 d13d dee6 b53d a93c afbd
0.013968696 -0.011884211 0.11647246 0.07885771 0.02832461 -0.060056534 0.00545048 0.009730798
-0.06943056 -0.038862977 -0.05537942 -0.03541121 0.2423966 0.022331273 -0.01564557 0.06270771
-0.11618856 0.015974583 -0.07128482 0.06453505 -0.009119122 -0.10104496 0.03180798 -0.13822818
0.04624773 -0.1386013 0.0645752 -0.006136597 -0.027828012 0.031776447 -0.11661174 0.027913854
-0.050814886 0.01340158 -0.072001904 0.021618556 0.013449934 -0.008437641 0.06975805 -0.115144
0.073535584 0.02322169 -0.09523779 0.03509681 0.19257371 -0.072437935 -0.055307303 -0.03408551
0.009558092 -0.068363376 -0.07222172 0.085821785 0.10297838 -0.10658694 0.08074811 0.012231929
-0.006073244 -0.030744214 0.082779065 -0.06912685 0.055262864 0.10208233 0.08881925 -0.08556492

weight f4 [64, 64]
00000000: 337c 6dbc 8e1c ef3c 10b1 cfbe 6916 4a3b
00000010: b427 1b3e 8f5d 3fbe 1d72 b5bd 139d 3cbe
00000020: 7fb0 913c c5a1 35be 7075 ac3d dd1e ccbc
00000030: e4e3 493e 0317 00be 695f cd3d a152 8a3d
00000040: b95d 85bc 0230 223e bccb 81be 6fad 233e
00000050: 5b6f 6c3d 8885 753d 7111 623e bf3b 8bbd
00000060: 91e1 3bbe 0233 2d3e 7186 603e 51d9 ac3d
00000070: 2fdf 683e 99b5 003e e03a 353d e65a 8e3c
00000080: 59ec 813e d8db 2bbd 12c6 433c f91f dd3d
00000090: e8f8 bbbe bee4 fd3c dbfb 36be 05ef f5ba
000000a0: 5f98 553e 4944 8d3d 8419 363c 547b 3e3e
000000b0: 6cfa 99be f432 92ba dac7 4e3e 1837 193e
000000c0: e428 9d3d 3ed8 243e 9807 ed3d fef6 a93d
000000d0: 69be acbb 2c82 e23d 96e4 aabd d28a de3d
000000e0: 8210 1fbc 27a2 2c3e ba64 f63d 796d b23d
000000f0: d41d 193e 853a 0ebd cc6e 9bbd a9b0 083d
00000100: 0389 e1bd bfff e5bd 0683 6d3e 01f5 26bd
00000110: 3bdd 843e 0777 ac3c 4baf 023e b71e b73d
00000120: 513e 60bd c42f 003e 3334 513d ca66 ccbd
00000130: b207 8b3e 593d 46be 42fa a83e 5d3d bb3d
00000140: dc4e 4d3d 7f1b 85be ae29 b1bb fd86 443e
00000150: 01a3 4d3d f1c7 30be 3888 8b3d e5be 213d
00000160: d36b 2bbc 751c 9d3d 9ee1 a53d e3ac 97bd
00000170: e947 85bd b936 3f3d 822b 21be d655 843e
00000180: f048 46bd 2403 4bbe e5a0 e93d 5fc7 95bd
00000190: 1bed 193d 95d9 0ebb 7f48 d43d ec22 2c3e
000001a0: ffa9 18be c7cb 3ebd c52f 1f3e 7969 fb3d
000001b0: 0147 3ebd 5636 95bd eb93 1e3e f449 693d
000001c0: e3a5 7ebd e327 023e 1d1b 783e e2ac 74bd
000001d0: bdd0 803d 476e 51bd 33b3 3fbe acd1 753c
000001e0: 71cf 0dbe 7a55 823d 37a5 a1bd acab 67bc
000001f0: db0a 45be 2a6a df3c d9ab 01bc 3ee9 9ebd
00000200: 1b79 88bd 6d88 debd 2781 6e3e 18c6 803c
00000210: 4830 df3b 666b 0abe 7719 01be 236f f6bd
00000220: 8fa9 a43d 3c52 983c 11a1 bebd 98e7 ad3d
00000230: a495 b1be 5e1f 7abe b36b abbd 69ac c73d
00000240: 300d 5c3d 3325 733d cb25 a8bd 0fb7 6d3d
00000250: 22a4 1abd 2801 15bc d33b 57bb 3de7 b73d
00000260: ff5f a03c bd44 0ebe fdcd 2a39 f6e6 b1bd
00000270: 6a13 aabd 37ce d13d d99b 553d c5d2 923d
00000280: 9a22 adbd d022 373d cce3 da3d 1908 22be
00000290: cd5f fe3d 204f efbd 9e65 073d 8091 043e
000002a0: bebd 0c3e bf05 1cbe 3179 b53c 5d7b 383c
000002b0: 0f96 7c3c 72a6 ffbd c88f 923d c4a2 f0bd
000002c0: 21c3 a13d 057a cdbc da77 72bc 0e06 18be
000002d0: 6c45 633d 999b 8f3b 6c4f 05bd 4104 22be
000002e0: c367 a9bc acd8 073d 0f70 77bd 4f20 f03b
000002f0: 185e a4bd 76cc 003d f5f1 fbbc d117 c23c
00000300: d348 e73c 778a f0bb e049 0d3e caab 2a3e
00000310: 55ec 0f3e 8a32 9ebc 5093 41bd 7a8e 713e
00000320: 3e56 c93b 25b8 16bd 4f71 bbbc 6fbe 04bf
00000330: f25c ef3d d822 c23d 4d0e d93d 37c4 44be
00000340: f2c5 c4bd 73fe 6ebd 262a 8cbd cd02 f43d
00000350: 44a3 143e eea2 01bd 2471 14be 22b7 9cbc
00000360: e008 d33d 7cab 85bd 55c7 403c 7e5f 6bbe
00000370: a437 e93c 78b8 1c3d c17a d0bd 8334 46bd
00000380: bbfc 3d3d d0e0 23bd e103 ab3c d84b a63c
00000390: 0820 2ebe fb10 b43d 82b2 763e 13a9 75bd
000003a0: bae5 f5bd 5b99 873c c79e b8bd 6578 20bd
000003b0: c31d ce3d 7cb6 e2bc 4a2b cdbd 7aee 853d
000003c0: 253f 553d eb84 ba3b afd5 39bd c570 b1bd
000003d0: 5a65 003e 8bf6 893d e04a f6bd ed0f 14bd
000003e0: 0187 ea3d cbcc 8fbe 04a6 8d3c afb6 debd
000003f0: 0b59 ecbd da07 833d 3d18 1bbe 8a5f 41bc
-0.014494943 0.02918842 -0.40564775 0.0030836111 0.15151864 -0.18688034 -0.08859656 -0.18419294
0.017784355 -0.17737491 0.08420837 -0.02491706 0.1971584 -0.12508778 0.10027964 0.067540415
-0.016280042 0.15838626 -0.2535075 0.15984128 0.057723384 0.0599418 0.22076966 -0.06798505
-0.18347766 0.16913989 0.21926285 0.08439887 0.22741388 0.12569274 0.0442456 0.017377328
0.2537563 -0.041957706 0.011949079 0.10797114 -0.36713338 0.030992862 -0.17869513 -0.001876325
0.20858906 0.0689779 0.011114482 0.18601733 -0.3007387 -0.0011154101 0.20193425 0.14962423
0.07673815 0.16098115 0.11573714 0.08299063 -0.005271722 0.110599846 -0.083443806 0.108663216
-0.009708526 0.16858731 0.12030931 0.087122865 0.14952785 -0.034723777 -0.07589492 0.0333716
-0.11012461 -0.1123042 0.23194513 -0.040760998 0.25950035 0.02105285 0.12762181 0.08941405
-0.05474693 0.12518221 0.05107517 -0.09980543 0.2715431 -0.1935934 0.33003432 0.091425635
0.050124034 -0.2599754 -0.00540658 0.19192119 0.05020428 -0.17263772 0.06813091 0.03948869
-0.010462719 0.076714434 0.08099674 -0.074060224 -0.065078564 0.046683047 -0.15739253 0.25846738
-0.048409402 -0.19825417 0.11407641 -0.07313418 0.037579637 -0.002179717 0.1036539 0.16810197
-0.14908598 -0.046581056 0.15545566 0.12275977 -0.046454433 -0.072857544 0.15486114 0.056955293
-0.06216992 0.12710528 0.24229093 -0.059735186 0.06289814 -0.05113056 -0.18720703 0.015003603
-0.13848664 0.063639596 -0.0789284 -0.014140051 -0.19242422 0.027272303 -0.007914507 -0.07759331
-0.06663724 -0.10865865 0.23291455 0.015719458 0.0068111755 -0.13517532 -0.1260737 -0.120329164
0.08040153 0.0185939 -0.09308065 0.084914386 -0.3468448 -0.24426028 -0.08370151 0.097496815
0.053723514 0.059361648 -0.082103334 0.058035906 -0.037754185 -0.009094514 -0.0032842054 0.08979652
0.019577025 -0.13893409 0.000162892 -0.086866304 -0.08304484 0.102444105 0.05215058 0.07169107
-0.08453865 0.044710934 0.1068798 -0.15823402 0.12420616 -0.11685014 0.033055894 0.12946129
0.13744256 -0.15236567 0.022152515 0.011259881 0.015416636 -0.12482919 0.0715633 -0.11749795
0.07898546 -0.025082598 -0.014799083 -0.1484606 0.055486128 0.0043825624 -0.032546446 -0.15821935
-0.02067936 0.03316562 -0.0604096 0.0073280702 -0.080257595 0.03144499 -0.030755023 0.023692997
0.028232967 -0.007340725 0.13797712 0.16667095 0.14054997 -0.019311208 -0.04725963 0.23589507
0.006144314 -0.036796708 -0.022881178 -0.5185308 0.1168765 0.09479302 0.10598431 -0.19215475
-0.096080676 -0.05834813 -0.06843977 0.11914597 0.14515406 -0.031649522 -0.14496285 -0.019130293
0.10304427 -0.06526849 0.011766274 -0.22985646 0.028468914 0.03826186 -0.101796634 -0.048389923
0.0463836 -0.04000932 0.020875873 0.020299837 -0.17004406 0.08792301 0.24091533 -0.059975695
-0.120067075 0.016552618 -0.090146594 -0.039177317 0.1006427 -0.027674906 -0.10018022 0.065396264
0.052062172 0.0056921146 -0.0453698 -0.08664087 0.12538663 0.067364775 -0.12026 -0.036148
0.11451531 -0.28085932 0.017291076 -0.10874688 -0.11540421 0.06397982 -0.15145965 -0.011802563

bias f4 [64]
00000000: 615c 8fbc 192b cbbc 5553 04be 2bdc 1e3e
00000010: c5ee 853d 13df 0d3d bc0c d43d 1474 a5bd
00000020: 14d7 10be 19e6 a93d e1ec 8abb 6b13 f63d
00000030: 2727 9ebc 9e9c 99bd d7e7 4d3c aa29 acbd
00000040: 8630 14bd 85d1 bc3d 3f0e ddbc 0129 50bd
00000050: 168e 833d 7c0f 843d ef33 323d ace1 bd3d
00000060: 5b70 e7bd 4ffd d43d a99c d53b 265e 8c3d
00000070: 9bb8 fcbd 978e 19be 22a6 6fbc 97f7 8bbd
00000080: f167 c7bb aa84 c239 c829 e3bd 9b49 aa3c
00000090: 7392 67bd 122a 5a3d 0e91 fb3c 0267 a43d
000000a0: 2d9f 54bd d5a2 6fbd 5a69 4d3d 3de2 ddbd
000000b0: 9e63 f83d d803 bf3d 9006 40bc dae5 dbbd
000000c0: 8815 023e 7912 89bd 3e7e 5f3d b2ab 48bd
000000d0: e0f7 bbbd 2186 713d 246d 3bbd 8e5d b93d
000000e0: 9576 523d aa1a 543d 8e85 903d 5421 693c
000000f0: 800f ed3d c9ba c2bd da85 c53d 0561 303d
-0.017500104 -0.024800824 -0.12922414 0.15513675 0.06539682 0.03463657 0.103539914 -0.08078781
-0.14144546 0.08295841 -0.004239664 0.120154224 -0.019305779 -0.075005755 0.012567482 -0.08406384
-0.036179088 0.0921965 -0.026984332 -0.050820354 0.06423585 0.06448266 0.04350656 0.09271559
-0.11300727 0.10399877 0.0065189195 0.06853895 -0.12339898 -0.149958 -0.0146270115 -0.068343334
-0.006085389 0.00037101406 -0.110919535 0.020787051 -0.05653615 0.053262778 0.030708816 0.0802746
-0.051909614 -0.058504898 0.0501493 -0.10834167 0.121283755 0.09326905 -0.011720315 -0.107372
0.12703526 -0.066929765 0.054563753 -0.048991866 -0.09178138 0.058965806 -0.04575838 0.09051047
0.05138262 0.05178324 0.070567235 0.014229137 0.11575222 -0.09508283 0.09644671 0.043061275

weight f4 [64, 64]
00000000: 2dac 973d 8d2a 2d3e 787f c83d 3fe0 183d
00000010: c9ce a2bb 738b a1bd 007c 973d c26c 783e
00000020: 49f1 e0bd 5f08 c63d 7790 88be d466 ffbd
00000030: bcd1 923d 6111 8c3e aacf 4b3d 06b3 99be
00000040: 0e40 c4bd 57d8 4a3e 1ad0 23be 25be 72bd
00000050: 6021 20be 3102 62bd 7744 a33d 419b 64be
00000060: 0ee2 4fbe af11 ae3d 8c72 d03c 614a 13bc
00000070: 5a4d 44bd b72a a6bd b004 1a3e 60bd adbd
00000080: b617 5a3e cf7b 9bbd fa45 603e 48c2 06be
00000090: cdef 393c a823 bc3e 91f1 9f3d a0d3 d8bd
000000a0: 5177 ac3e 13e6 93bd 27e0 3b3d 1d4b 2dbd
000000b0: 07ca cfbc 9b1e f0bc 018a 1b3e 2f4e c9bd
000000c0: b218 da3d 8714 47bd aad5 4dbd d60a 23bd
000000d0: 2d07 92bd 32b6 073c e524 efbd 3819 933d
000000e0: cf9a d6bd 2a5d a83d de96 78be 50b0 c6bd
000000f0: 9941 293e c0cf 66bd abe0 8bbd 7f76 753e
00000100: fa2a 18be 439a 543d bd8a 8d3d d11a eb3d
00000110: 7b54 813c 48b4 7fbd 4c00 d53d 4fcf 72be
00000120: 4766 05be 410b 88bd e855 c23c 10cd bbbd
00000130: 2cb1 a2bd 262e 1e3c adf0 1e3e 040a b83d
00000140: 13fc abbc 27ca bb3d e133 18be 5f31 9ebc
00000150: 5697 f7bd a911 c0bd 4af2 00be 7219 dcbc
00000160: 791f d03c 52d4 793d f3c9 3ebd 52fd 2a3e
00000170: 084a 57be fc0d fbbd 2d3c 3e3e 4b78 273d
00000180: 0e1f 883d 7163 8c3d 9613 b53d b4f2 da3c
00000190: b326 b63d 30ef c63d 0cca 5a3e af76 3c3d
000001a0: 99d8 0abd dd29 3bbc 9032 1d3d 1b96 52bd
000001b0: 92db 03be 3705 c9bd 1320 dcbd ab78 4d3d
000001c0: 39fd 473e 3064 0e3d 322b 983d 190d 61bd
000001d0: b255 98bd a9fa 0a3e e44d c2bd 2a0c 17bd
000001e0: 5e68 71bd 6ab8 743d 271a 89bc 9463 cf3c
000001f0: a62a b93d 6d0f 7fbd e88f f3bd 3437 4b3e
00000200: d9c1 c13d 481e 053d b157 8f3d 6159 983d
00000210: 022a e93d aa82 fe3c bb25 8e3d 0961 3a3d
00000220: e957 04be cb24 e33d 2cfc 113e 12bd 68bd
00000230: 432c d93b 5f7d 5c3d 4c46 903b c9b5 a5bd
00000240: da24 46bd 1814 19bd b360 0dbd f7e3 96bd
00000250: 328d 2f3d cc30 3f3d 8d2c 0a3d 662a 39bc
00000260: 7990 51be 98d8 f53d 0112 48be d774 283d
00000270: dc91 1e3d 0716 f9bc 3f1c 1b3e 20a6 bbbd
00000280: 9004 5e3d 1372 33bd c403 e53b 0f31 42be
00000290: 5241 96bc 8ab2 043e 3ed2 75bd b212 e33d
000002a0: c213 923c e23b 1f3d df4d 453c 284c a43d
000002b0: 937f 833c c4bf 1d3d 97fe 51bd d908 103c
000002c0: 66c3 2f3e b815 073e 11f7 e4bb a07a 573d
000002d0: 1a51 093e 5cb2 19bd df94 09bd e80c d1bc
000002e0: 4974 78bd cc1b 9cbc f921 72bd bfcf dbbb
000002f0: 4494 d1bc 4830 ac3d ed37 febd 6c33 82bd
00000300: e283 023e 917d 933d 2228 0abe 38f6 53bd
00000310: 5643 b23c de9c 213e 0f98 2a3d e08d 7abd
00000320: 882c 58bd 90e5 543d 0323 72bd 7404 803d
00000330: c348 cb3d 0e2c 4abd 347c 7abd 85b2 393e
00000340: cdf1 a23d 6820 19bf 10da aa3d e102 1f3d
00000350: 4a08 523e 9d27 b33c 724f 67bd 1101 1f3e
00000360: 4a1a 0c3e f93f 0ebe 1713 8f3d 052a 7dbd
00000370: 6fc1 233d f18b a3bc e46b 683c cdf5 b4bc
00000380: 9a8d 1fbe 0033 d0bc e072 123c 5bc2 fbbd
00000390: 77b2 b73d 46b3 b7bc 4a0e 60bd 092c ebbd
000003a0: 9040 c3bd e4e0 8d3d dc97 febc bfce bb3d
000003b0: 705c 00bc 01e7 8f3c 1d16 e2bd 6fe6 fc3d
000003c0: 6b38 fb3c 3809 1f3b 7df0 61bc 52d5 873d
000003d0: 618d 523e d1fb 983d b234 61bd 60e8 cfbd
000003e0: 2474 4a3e 1184 85bd 75ba 45bd 4d2b 17bd
000003f0: 1ebe e5bd 116e a93d 60e8 b0bc 1e1c a0bc
0.07405887 0.16910763 0.09789938 0.037323233 -0.0049684984 -0.07887926 0.07396698 0.24260238
-0.109835215 0.096695654 -0.26672718 -0.12470785 0.0716891 0.2735701 0.04975859 -0.30019397
-0.0958253 0.1980909 -0.15997353 -0.059263367 -0.15637732 -0.05517787 0.07972043 -0.2232485
-0.20301077 0.08499467 0.025445245 -0.008989901 -0.04792533 -0.08113616 0.1504085 -0.08483386
0.21298108 -0.07591974 0.21901694 -0.1316005 0.011348677 0.36745954 0.07809747 -0.10587239
0.3368478 -0.072216175 0.045868065 -0.04230796 -0.025364889 -0.029311469 0.15189363 -0.098293655
0.106492415 -0.04860356 -0.050252594 -0.039805256 -0.07130275 0.008283185 -0.11676959 0.071825445
-0.10478746 0.08220895 -0.24276301 -0.09701598 0.1652893 -0.05635047 -0.068299614 0.23970984
-0.14860144 0.051904928 0.06911228 0.11479724 0.015787354 -0.06242779 0.10400447 -0.23711894
-0.13027297 -0.066427715 0.023722604 -0.09169972 -0.07943949 0.009654557 0.15521498 0.08986285
-0.020994222 0.09169417 -0.1486354 -0.019310651 -0.12089412 -0.093783684 -0.12592426 -0.026867602
0.025405632 0.0609935 -0.046579313 0.16698197 -0.21024334 -0.12258527 0.18577643 0.040886205
0.06646548 0.068549044 0.08841626 0.026727058 0.088941 0.0971359 0.21366137 0.046011623
-0.03389797 -0.011423555 0.0383783 -0.051412683 -0.12876728 -0.09815448 -0.10748305 0.050163906
0.1953019 0.034763515 0.07430114 -0.05494413 -0.0743822 0.13572182 -0.09487513 -0.036876835
-0.058937423 0.059746183 -0.016736103 0.025316037 0.09041338 -0.06227057 -0.11892682 0.19845277
0.09460802 0.03249958 0.06999148 0.07438923 0.113849655 0.031068165 0.0694079 0.045502696
-0.1292416 0.11091002 0.14256352 -0.056820937 0.006627591 0.0538305 0.0044029113 -0.080913134
-0.04837499 -0.03737268 -0.034516048 -0.073676996 0.042859264 0.046677396 0.033733893 -0.0113016125
-0.20465268 0.120042026 -0.19538118 0.041127052 0.03871332 -0.030406011 0.15147494 -0.09162545
0.05420357 -0.04380996 0.0069889743 -0.18964027 -0.018341694 0.12958732 -0.060014956 0.1108755
0.017831687 0.038875468 0.012042492 0.08022338 0.016052043 0.03851296 -0.051268186 0.008791172
0.17164382 0.13191879 -0.0069874604 0.05260718 0.13409844 -0.037523612 -0.03358924 -0.02551885
-0.060657773 -0.019056223 -0.05911443 -0.006708115 -0.025583394 0.084076464 -0.12413011 -0.06357464
0.12745622 0.07201684 -0.13491872 -0.051748484 0.021760624 0.15782496 0.04164892 -0.06117046
-0.052776843 0.05197674 -0.05911542 0.06250849 0.099259876 -0.04935842 -0.061153606 0.18134506
0.07956276 -0.59815073 0.08342373 0.038821105 0.20510975 0.021869475 -0.05647225 0.1552775
0.13681903 -0.13891591 0.06986063 -0.06180765 0.039979395 -0.01996419 0.014185879 -0.022089863
-0.1558136 -0.025414944 0.008938521 -0.1229293 0.08969586 -0.022424351 -0.054701127 -0.114830084
-0.09533799 0.0692766 -0.031078272 0.09170293 -0.007834539 0.017566206 -0.11039374 0.12348639
0.03066655 0.002426697 -0.013790247 0.066324845 0.20561744 0.07469905 -0.054981895 -0.10151744
0.19770867 -0.0651933 -0.048273522 -0.03690653 -0.112179026 0.082729466 -0.02159518 -0.019544657

bias f4 [64]
00000000: 2be7 b1bd 710e f2bc 8750 65bc 3e34 063e
00000010: 8e24 06be de7b 52bd b42e 7c3c 1eb3 393c
00000020: 462c 05be 257e cfbd 2fc9 eebd c32b 64bd
00000030: 195a 22bd 3e99 c9bd 6dbc acbd 222d da3d
00000040: 9479 da3d c551 ad3d e4ae bc3d 9ccf b2bd
00000050: 684c c53d 2720 e03c ed87 6d3d 7218 b93d
00000060: 8e9f c2ba 5806 d8bd 4d91 883c b792 47bd
00000070: f0f1 7dbd 7c15 8e3d 77dc 8bbd 7a99 cebd
00000080: f85f 15bd fbeb 2b3d 859d 5cbc 7d6f 72bd
00000090: 5c6c 68bd 3a2f 73bd a09b 80bd a706 063c
000000a0: e88f fe3c 34f7 e0bd 4a5f cc3b 4e4f 463d
000000b0: d75e d7bd a8a2 ae3d eabc 73bd 6933 64bd
000000c0: 67a7 60bd 9a9b 023d ad00 66bb 8924 633c
000000d0: c065 75bd dd38 07bd 6c9a 9f3d 1675 473b
000000e0: 1e59 ce3d 4350 8dbd 7af3 1c3d 0a39 103d
000000f0: 00f3 90bd 51a8 bbbc eb0e a3bd 0b04 543d
-0.0868667 -0.029547902 -0.01399625 0.13105866 -0.13099882 -0.05138766 0.015391994 0.011334209
-0.1300517 -0.10131482 -0.116594665 -0.055705797 -0.039636705 -0.09843682 -0.08434377 0.1065314
0.106677204 0.08462862 0.09213045 -0.087310046 0.09633714 0.027359081 0.057990957 0.09037866
-0.0014848576 -0.10548085 0.016670847 -0.048723903 -0.061998308 0.069376916 -0.0682916 -0.10087867
-0.036468476 0.041973095 -0.01346529 -0.059188355 -0.056743965 -0.05937121 -0.06279683 0.008180297
0.03107448 -0.1098465 0.0062369453 0.048415475 -0.10516136 0.08527118 -0.059506334 -0.05571309
-0.054847147 0.031886674 -0.0035095618 0.013863691 -0.05991149 -0.033013213 0.077931255 0.003043478
0.100755915 -0.06900074 0.038318135 0.035210647 -0.070775986 -0.022907408 -0.0796183 0.05176167

weight f4 [64, 64]
00000000: be1b 1e3e 681b 9bbb df9a a13d 7028 a4bd
00000010: 74e0 2bbd e0cb 103e 786b 283e 05bd d6bc
00000020: 6a28 0ebd f45d 52bd 11ae 183e c84b cd3c
00000030: ca04 a9bd ae7a c03d 982b b03d 23fd 623c
00000040: ad65 03be a40c 023c 3319 3c3d 6c72 e6bd
00000050: 0d0a 57be 4d69 95bb 8012 243e ff88 023d
00000060: aa33 263e 4746 ab3d 96e1 0a3e f00e ca3d
00000070: 4ea0 86bd 026e aa3b 14f8 10be 9396 e23d
00000080: 1119 e3bc f83c 3ebe c3c5 f73c 58ba 17bc
00000090: bccb a439 7e7a c1bd ddb3 0f3e 1b34 ee3d
000000a0: 6ae0 c3bc 71a1 8f3d 3e68 f43d 706b a6bd
000000b0: 1479 74bd 85e5 513d d4b2 113d d475 e83b
000000c0: 8a9f 963d 525d ca3c c7d2 ac3c b00c a03c
000000d0: b417 8fbd c4c6 aa3d 783e 1fbe aa65 563d
000000e0: c776 993d 4d22 a7bd 2c82 d1bd d4f1 36be
000000f0: f36f e83d 65ba be3d 6e27 6bbd 7e32 27be
00000100: d2e1 893c 9cb9 4e3c 710a 823d e153 c23d
00000110: 44f8 95bc 6859 bdbd 8cf7 153d 57dd 383d
00000120: e35b 313d 1312 e5bd 16e6 813d c602 e8bd
00000130: e8f7 bdbd 24a8 ac3d 6a70 77be 2ca7 ffbd
00000140: 7083 583d e6f4 d1bd 030c bc3c fde0 f9bd
00000150: a2f0 32be aedd a33d a362 d8bd 4a26 df3c
00000160: 5afa 7bbd 5d0c 20bd d848 44bd 9dda 0abd
00000170: 264a 893d a886 37be 1392 f43c 9f1a 22be
00000180: bb84 813d 6528 873d ae89 2bbe 5deb f2bd
00000190: 41db e6bb 6439 f43b 100e 8dbd c9a8 a13a
000001a0: de81 043c bfb4 b1bd 2869 adbd af52 0cbe
000001b0: f773 6e3d 4060 86bd b04e c23c c938 ef3d
000001c0: c0a9 08be 5da3 013e 0602 ca3d 8cb0 fb3d
000001d0: 08da 4e3d 52df 62be cfa3 37bd 19bf c9bd
000001e0: 651a f7bd 5cf3 af3d bebc 393c bc5e b7bd
000001f0: eeb8 ebbd 2915 90bc d35c 273d 9a97 4b3a
00000200: c035 eebd 7827 6b3d 3bdb 133e bff3 6f3e
00000210: a83f b2bd e6c2 343e f012 12be 8f84 b7bc
00000220: 559e 68bd 40f6 513e acba 763d 8b51 0c3e
00000230: 1f3a 713d 664a d33d db9f 423d e20f f63c
00000240: b748 d53d 0b79 003e f4ab 163d a3da 2cbe
00000250: bc14 10be bbbb c63b 0d8e 433c c7d8 293d
00000260: 4584 ba3d a34f 053e 55c4 dcbd fb16 583e
00000270: 4558 783d f5b3 b4bd c8b4 a13d 1c1b 633e
00000280: a299 c93d e4cf 943d 102b 92be 9937 c1bd
00000290: 571a 6abd 380a fd3c d160 8dbd e647 14be
000002a0: 95fd 3b3e 18cb 96bd 79d8 97bc be6e 4dbd
000002b0: 6a2a 563d 3ba3 cfbb 0af6 8c3d deba b83d
000002c0: d2c9 b03d 8307 6cbb 0273 ee3d 87d2 543d
000002d0: 99eb 733d 5efb f43d 1121 04be 8615 7cbd
000002e0: f056 a1bd 9f0f 20be 3216 1b3d 2dd8 823e
000002f0: 3c0c 08be d82b f9ba de8f debc a5f3 963d
00000300: 920c b23d 5b74 2abe 9e9f d9bc f119 c73b
00000310: 3b26 a9bd 71db 20bd e211 a0bd 99bc dd3d
00000320: 4a3b e4bd d535 863d 53d7 c6bd 77b0 90be
00000330: e51f 51bd 20af 873d a808 653d eb94 b83d
00000340: f701 78bd f8ac ccbd 26bd f6bc 6411 97bd
00000350: c47c 013d 9f0b 7ebd 3106 cbbd cec9 53bd
00000360: 403e 90bd c0b3 813c 867f a33d 0bef 1cbd
00000370: b12d fabc 5c3d e5bd 95f5 6d3d 15d7 113e
00000380: ac6f 7b3d d866 803d a27f 933c 1584 013e
00000390: 4468 4e3d 7095 7d3d 7d10 043e 46e3 f13d
000003a0: e6ba f2bd 7508 0c3e 121b 1c3d e9b3 a5bd
000003b0: b5e4 1bbd 2595 c93d a84f b73d ac7d 6d3d
000003c0: 6c9d 0abd ad30 1fbe 3b13 b83d 87fc 87bd
000003d0: fc24 373c 5221 bcbc e36c 29bc 7ea0 c4bd
000003e0: b4a5 933d 96ea 8f3d 35d3 14be df0c 9bbb
000003f0: f662 0ebe 569b 1ebe 3b4f 063e 5f4b 0b3e
0.1544027 -0.0047334917 0.078908674 -0.08015525 -0.041962102 0.14140272 0.16447246 -0.026213178
-0.03470651 -0.051359132 0.14910151 0.02506055 -0.082528666 0.09398399 0.08602065 0.013854298
-0.12831755 0.007937584 0.04592247 -0.11252293 -0.20999928 -0.004559672 0.16022682 0.03186893
0.16230646 0.08363014 0.13562617 0.0986613 -0.065735444 0.0052011022 -0.14157134 0.11063876
-0.027721914 -0.18577945 0.030245667 -0.009260736 0.00031432312 -0.09447192 0.14033456 0.11631032
-0.02391072 0.070132144 0.11933945 -0.08125961 -0.05968578 0.051244278 0.035570934 0.0070941243
0.073546484 0.024702702 0.0210966 0.0195373 -0.06986943 0.08338693 -0.15551174 0.05234305
0.07493358 -0.08160839 -0.102299064 -0.17865688 0.113494776 0.09312896 -0.05741065 -0.16327855
0.016831312 0.012617495 0.06349648 0.09488655 -0.018306859 -0.092455685 0.036613032 0.04513296
0.04330052 -0.11185088 0.063427135 -0.11328654 -0.092758 0.08430508 -0.24163976 -0.124830574
0.052859724 -0.10251789 0.022954946 -0.12201116 -0.17474607 0.080012664 -0.105656885 0.027239937
-0.06151805 -0.03907429 -0.04792103 -0.033899892 0.06703596 -0.17922461 0.02985481 -0.15830468
0.063241445 0.065995015 -0.1675174 -0.11861298 -0.00704518 0.0074531306 -0.06887448 0.0012333627
0.008087603 -0.08677053 -0.084673226 -0.13703416 0.05821606 -0.06561327 0.023719162 0.11680753
-0.13346004 0.12659974 0.09863667 0.12289533 0.0505009 -0.22155502 -0.044833954 -0.09850902
-0.12065581 0.08591339 0.011336504 -0.08953616 -0.11509882 -0.017588215 0.04086001 0.0007766426
-0.11631346 0.057410687 0.14439099 0.23432826 -0.08703548 0.17652473 -0.14265037 -0.022402076
-0.056791622 0.20504093 0.060236618 0.13702981 0.05889332 0.10316925 0.04751573 0.03003687
0.1041426 0.12546174 0.03678508 -0.16880278 -0.1407041 0.0060648597 0.011935723 0.0414665
0.0910726 0.1301866 -0.10779635 0.21102516 0.060631055 -0.088233866 0.078958094 0.2217831
0.09843756 0.072662145 -0.2854848 -0.094344325 -0.057154026 0.030888662 -0.06903232 -0.14480552
0.18358453 -0.07362956 -0.01853584 -0.05015444 0.052286543 -0.0063365973 0.06882866 0.09020017
0.08632244 -0.003601522 0.1164303 0.051958587 0.059550855 0.11962007 -0.12903239 -0.061543964
-0.0787791 -0.15630959 0.037862964 0.25555554 -0.13285917 -0.0019010259 -0.02716821 0.0737069
0.08693804 -0.16645949 -0.02656537 0.0060760905 -0.08259245 -0.039271776 -0.07815911 0.10826988
-0.11144121 0.065532364 -0.097090386 -0.28259632 -0.051055808 0.06625199 0.05591646 0.09012779
-0.06054875 -0.09993929 -0.03011949 -0.07376364 0.031613126 -0.0620228 -0.0991329 -0.051706128
-0.07043123 0.015832782 0.079833075 -0.038313907 -0.030539365 -0.11193344 0.058095533 0.14242204
0.061385795 0.06269616 0.018005196 0.12648042 0.050392404 0.061910093 0.12896915 0.11810927
-0.11852054 0.13675101 0.038111754 -0.08090956 -0.03805991 0.098429 0.0895074 0.05798118
-0.033841535 -0.15545912 0.08988043 -0.06639963 0.011178251 -0.022965107 -0.010340902 -0.09600924
0.0720934 0.070271656 -0.14533694 -0.004731759 -0.13904938 -0.15488943 0.13116162 0.1360297

bias f4 [64]
00000000: 14f9 59bd 3579 4cbc fc5a 8fbd 70b9 afbd
00000010: ab2d 4c3d 0df7 cabd 5ae3 8a3d 7efb ccbd
00000020: dff9 ffbd 242b a8bd cc1b c7bc 44e1 883d
00000030: 376a e9bd c7fc b9bd b044 02be f953 81bd
00000040: d6ff 19be ab44 9fbd 7e0a 5d3d f060 37bc
00000050: b25a 45bd 8d32 d0bd 2fa3 cebd 9597 a13d
00000060: 864e df3d 511a a53c 81d4 77bd 0c58 45bd
00000070: 5209 cdbc 7bea 90bd b01e 8ebd 11c9 273d
00000080: 8906 82bc 5ee0 a6bd b1e5 e33c d0f6 de3c
00000090: 5a95 10bd cd42 41bd b6c3 59bc a3b3 7e3d
000000a0: 50bd e43d 2c8b 1ebd d5cf c5bd 99ef 9ebd
000000b0: 6b03 a8bd 0028 79bc 09fb d03d 3882 2a3d
000000c0: 4e36 de3d e392 32bd f167 8fbd 662a a63d
000000d0: b948 283c 4c43 f63b 842f 92bc 15fd 433d
000000e0: 8882 b73d 8ac0 eebd f018 213c 9aa1 dbbb
000000f0: ac5f e13d 7d24 b2bd 88fd 993d 8f91 a7bd
-0.053216055 -0.01248007 -0.06999776 -0.08580291 0.04984824 -0.099104024 0.06781645 -0.10008906
-0.12498831 -0.082113534 -0.024305247 0.06683591 -0.11397212 -0.090814166 -0.12721515 -0.06314845
-0.15039 -0.07776769 0.053965084 -0.011192545 -0.048182197 -0.10165892 -0.100897186 0.0789024
0.10903649 0.02015415 -0.060505394 -0.04817967 -0.025028858 -0.070759736 -0.06939447 0.040963236
-0.015872257 -0.081482634 0.027819486 0.027217299 -0.035298683 -0.047182847 -0.01329129 0.062183034
0.11168921 -0.038706943 -0.096587814 -0.077605434 -0.08203777 -0.015207291 0.10204131 0.041628093
0.108502015 -0.043597113 -0.07002247 0.081135556 0.010271245 0.0075153466 -0.017844923 0.04784878
0.08960444 -0.11657818 0.009832606 -0.006702614 0.11004576 -0.08698366 0.075190604 -0.0818206
