tests/python/kaolin/physics/simplicits/regression_test_data/box_reference_weights_fcn_10_handles.pth (torch, 113578 bytes, 16 tensors)

weight f4 [64, 3]
0	0xbbf4c2df	-0.0074695195
1	0x3e9e0785	0.30865112
2	0xbef4ef4d	-0.47838822
3	0xbee0ea45	-0.43928733
4	0xbe4bd226	-0.19904384
5	0x3e2019ce	0.15634844
6	0xbbd8b73b	-0.0066136396
7	0x3eebe044	0.4606954
8	0xbd3ec917	-0.046578493
9	0x3e1a7d53	0.1508687
10	0xbe33a5fa	-0.17543784
11	0xbdf02e22	-0.11727549
12	0xbf08bc7c	-0.53412604
13	0xbeb93767	-0.3617508
14	0xbe702018	-0.23449743
15	0x3cd3052f	0.025759308
16	0x3e6e9643	0.23299508
17	0x3eb3dbfc	0.35128772
18	0xbec40a03	-0.38288888
19	0xbe77ffee	-0.24218723
20	0x3e641868	0.22274935
21	0x3ef7ea3e	0.484209
22	0xbdee4624	-0.11634472
23	0x3edffef6	0.43749207
24	0xbdb6bf0a	-0.089231566
25	0x3d6fbe2d	0.058530975
26	0x3f079d32	0.52974236
27	0xbf09c440	-0.5381508
28	0xbebceae0	-0.36897945
29	0xbe115933	-0.14194183
30	0xbe614ad1	-0.22001196
31	0x3f011a2a	0.5043055
32	0xbebd811b	-0.37012562
33	0xbe80619f	-0.2507448
34	0xbec6c6be	-0.38823503
35	0xbf06f7d2	-0.52721894
36	0xbeb09120	-0.34485722
37	0x3f05bd94	0.522424
38	0x3e8b7907	0.27240774
39	0x3e923699	0.2855728
40	0x3cf65fa4	0.030074902
41	0xbe95b798	-0.29241633
42	0x3de16e04	0.11007312
43	0xbf0847e2	-0.53234684
44	0xbecf26ab	-0.4045919
45	0xbe98ada7	-0.29819986
46	0x3ebb51c2	0.36585814
47	0x3eae1560	0.34000683
48	0xbe834006	-0.25634784
49	0xbccc73f2	-0.02495763
50	0x3ebe97a7	0.37225077
51	0x3f12c6cd	0.57334596
52	0x3e6c90bd	0.23102088
53	0x3da5615c	0.080752105
54	0x3ec914a0	0.39273548
55	0xbeab8aad	-0.3350424
56	0x3dea91ee	0.11453615
57	0xbee7ff75	-0.45312086
58	0xbecfb6e3	-0.4056922
59	0xbe9703f4	-0.29495203
60	0x3e8ee472	0.27908665
61	0x3e7c4764	0.24636608
62	0xbeaadb4a	-0.3337043
63	0x3e46f1c8	0.1942817
64	0x3ea201bc	0.31641948
65	0xbd8bd8c1	-0.06828452
66	0x3cb29f81	0.021804573
67	0x3e0b860b	0.13625352
68	0x3eb8b545	0.36075798
69	0x3f105750	0.5638323
70	0xbee52dc6	-0.44761485
71	0xbe544773	-0.2073038
72	0x3e801055	0.2501246
73	0x3efa056f	0.4883227
74	0x3f06c759	0.5264793
75	0x3f020573	0.50789565
76	0x3de99829	0.11405975
77	0xbf02e041	-0.51123434
78	0x3d347179	0.04405353
79	0xbebdf988	-0.3710444
80	0xbf0c252e	-0.5474423
81	0x3f03e346	0.51518667
82	0x3ee5c04b	0.4487327
83	0xbf1458e1	-0.5794812
84	0x3db9de20	0.0907557
85	0xbdd21b67	-0.10259133
86	0xbdefe20b	-0.11713036
87	0xbe8c08d1	-0.27350476
88	0x3e5c4950	0.21512341
89	0xbeb3a632	-0.35087734
90	0x3e4ef64b	0.20211141
91	0x3e90a46a	0.28250438
92	0x3ecc4ecd	0.3990387
93	0x3e580c88	0.2109853
94	0xbf12f9ab	-0.57412213
95	0xbec1762e	-0.37785476
96	0x3e97c8b8	0.29645324
97	0x3e02995f	0.12753819
98	0xbee22f8b	-0.44176897
99	0xbeaa7de3	-0.3329917
100	0x3f0c3486	0.54767644
101	0x3ec655bb	0.38737282
102	0xbe7a39e5	-0.24436148
103	0xbe0d5926	-0.13803539
104	0xbf0a9599	-0.5413452
105	0xba7c5d19	-0.000962691
106	0xbedeb2a1	-0.43495658
107	0xbedbf365	-0.42959133
108	0xbd0faa68	-0.03507462
109	0x3db95f9f	0.090514414
110	0xbe7373ec	-0.2377469
111	0x3eb013b0	0.3439002
112	0xbeb4ed26	-0.3533718
113	0x3f074d3a	0.52852213
114	0x3ed3f5ef	0.4139857
115	0xbef68097	-0.4814498
116	0xbe070390	-0.13184953
117	0x3d033733	0.032035064
118	0x3db50276	0.0883836
119	0x3e132ddf	0.14372967
120	0x3e6bb34d	0.23017617
121	0x3d26104c	0.040542886
122	0xbe8daced	-0.27670994
123	0x3e8fa418	0.2805488
124	0xbf105626	-0.5638145
125	0xbeb35522	-0.3502589
126	0xbe117227	-0.14203702
127	0xbe900d88	-0.28135324
128	0xbe49abb1	-0.19694401
129	0xbef47f50	-0.47753382
130	0xbdf85f34	-0.121275336
131	0x3df7ac87	0.12093454
132	0xbec748ee	-0.38922828
133	0xbd4ae89c	-0.04953824
134	0x3ecf1b6a	0.40450603
135	0xbd98bef4	-0.074582964
136	0x3cdcfeb0	0.026976913
137	0xbd73f6ce	-0.059561543
138	0x3e00ad8c	0.12566203
139	0x3ec259ab	0.37959036
140	0x3f0c6d5c	0.5485437
141	0x3eb41350	0.35170984
142	0x3f08dfd0	0.5346651
143	0xbd341c29	-0.043972168
144	0xbf03b4d6	-0.5144781
145	0xbe8ae930	-0.27131033
146	0x3ecd6ad4	0.40120566
147	0xbc793827	-0.015211142
148	0xbe9a7f24	-0.30175126
149	0xbeeea86a	-0.46612865
150	0xbf097d70	-0.5370703
151	0xbef61960	-0.48066235
152	0xbddf439f	-0.109015696
153	0x3ea01239	0.31263903
154	0x3e9db109	0.3079913
155	0xbf10837c	-0.5645063
156	0x3ebbab20	0.36653996
157	0xbee5c815	-0.44879213
158	0xbdefa544	-0.11701444
159	0xbe705400	-0.23469543
160	0xbddea7d6	-0.10871856
161	0xbde611ab	-0.11233839
162	0xbf05f741	-0.52330405
163	0xbf011561	-0.50423247
164	0xbdc4af1a	-0.096037105
165	0x3cb99a46	0.022656571
166	0xbe83fd72	-0.257793
167	0x3e666b84	0.22501951
168	0xbf064870	-0.5245428
169	0xbd25ebd8	-0.04050812
170	0x3f0193ad	0.5061596
171	0xbe76c3b0	-0.24098086
172	0x3f0329b1	0.5123549
173	0x3e4d6c48	0.20060837
174	0xbf04ebbc	-0.519222
175	0x3eca061f	0.39457795
176	0xbd6db173	-0.058030557
177	0xbe89491a	-0.26813585
178	0x3ef3062b	0.47465643
179	0xbef29a9a	-0.47383577
180	0x3d51a8d7	0.05118641
181	0xbe0d46d3	-0.13796549
182	0x3ed04936	0.40680856
183	0x3e143f66	0.1447731
184	0x3e89aef1	0.26891282
185	0x3e41b31a	0.18915978
186	0xbdfe08b7	-0.12404006
187	0xbdd5529e	-0.104161486
188	0xbeeb2c87	-0.4593241
189	0x3ea40c74	0.3204075
190	0x3eeeb116	0.4661948
191	0x3ece995c	0.4035138

bias f4 [64]
0	0xbed12167	-0.40845796
1	0x3d06ebdc	0.032939777
2	0xbece9b51	-0.40352872
3	0xbea2ecbd	-0.31821242
4	0xbea66eec	-0.32506502
5	0x3e4ccb0e	0.19999334
6	0xbeab7f9b	-0.33495793
7	0xbc3d4665	-0.011552428
8	0x3cc87b38	0.024472818
9	0x3ec45a66	0.3835022
10	0xbedcf1e7	-0.43153307
11	0xbec1c4d7	-0.3784549
12	0xbea6d64e	-0.32585377
13	0x3ecede36	0.40403908
14	0xbe48f127	-0.19623242
15	0x3ef9f3a6	0.48818702
16	0x3e554dbb	0.20830433
17	0x3d92ad21	0.07161928
18	0x3a50aea4	0.0007960594
19	0xbdd6cbcf	-0.10488092
20	0x3da0e778	0.07856649
21	0xbdfea866	-0.12434463
22	0xbb4a430c	-0.0030862717
23	0x3d97883e	0.07399033
24	0xbee1afcc	-0.44079435
25	0xbe9c1b6a	-0.30489665
26	0x3eeaf916	0.45893162
27	0xbee9f89e	-0.45697492
28	0xbd40cfdd	-0.047073234
29	0x3f104d70	0.5636816
30	0x3e4a966e	0.19783947
31	0x3c49b1bc	0.012310442
32	0xbefc9ec3	-0.49339876
33	0x3e9205b2	0.2851997
34	0xbeceb0b9	-0.40369204
35	0xbe2254a3	-0.15852599
36	0xbe42fff1	-0.19042946
37	0xbdb30412	-0.08741011
38	0x3cb1598a	0.02164914
39	0x3ef64dd7	0.48106262
40	0x3d9bd102	0.076082245
41	0x3f055c12	0.52093613
42	0x3eb80088	0.35937905
43	0xbebb390c	-0.3656696
44	0x3e7c09c7	0.24613105
45	0xbed20a07	-0.41023275
46	0xbe748df9	-0.23882283
47	0x3e1f89f3	0.15579967
48	0x3e49eefc	0.19720072
49	0x3eda3a73	0.42622718
50	0xbe33bd01	-0.17552568
51	0xbb7f33dc	-0.0038940823
52	0x3e993335	0.2992188
53	0xbf0f20f3	-0.5590965
54	0x3ed3c52f	0.41361377
55	0xbeed4677	-0.46342823
56	0x3b9afc89	0.0047298116
57	0xbddbb595	-0.107279934
58	0xbe967aac	-0.29390466
59	0x3da1bfa7	0.07897883
60	0x3ef01cd2	0.46896988
61	0xbe3c71e7	-0.18402825
62	0xbea8f292	-0.32997566
63	0xbe54a7a4	-0.20767075

weight f4 [64, 64]
0	0xbe01fc39	-0.12693872
1	0x3d3d3827	0.04619613
2	0xbd69f917	-0.057122316
3	0xbdb5813c	-0.0886254
4	0xbd9fbbff	-0.07799529
5	0x3da05e13	0.07830443
6	0x3d757eb1	0.059935275
7	0x3dd07082	0.10177709
8	0x3d51836e	0.05115073
9	0xbd794690	-0.06085831
10	0xbd18ddf8	-0.03732106
11	0x3d000fdc	0.031265125
12	0x3de3a56e	0.111155376
13	0x3d1fe7d3	0.039039444
14	0xbd86e026	-0.06585722
15	0xbd58e496	-0.05295237
16	0xbdeb2f05	-0.11483578
17	0x3d0e3bbb	0.034724932
18	0xbd95f400	-0.0732193
19	0xbdf21071	-0.11819542
20	0x3df6b5a0	0.12046361
21	0xbd781b74	-0.060573056
22	0xbbe56fca	-0.0070018517
23	0x3c6a8727	0.014314449
24	0x3cbb4928	0.022862032
25	0xbdadb7f9	-0.084823556
26	0xbe06465f	-0.13112782
27	0x3dd11135	0.1020836
28	0x3c624134	0.013809491
29	0x3dde0434	0.108406454
30	0xbd0fe1d4	-0.035127476
31	0x3ce3807a	0.027771223
32	0xbd02f491	-0.031971518
33	0x3acdd891	0.0015704801
34	0xbda69c7c	-0.08135316
35	0x3d122c9f	0.035687085
36	0x3d11cf70	0.03559822
37	0xba0bf107	-0.0005338345
38	0xbd356453	-0.04428513
39	0xbd93a3b3	-0.072089575
40	0x3dc2ecc0	0.09517813
41	0xbdc83e79	-0.09777541
42	0x3c9b34ba	0.01894604
43	0xbd43244e	-0.047642045
44	0xbd6bba07	-0.057550456
45	0x3c940346	0.018067967
46	0xbd5cb77e	-0.05388593
47	0x3d18b795	0.037284452
48	0xbe3fc400	-0.18727112
49	0xbdddde89	-0.10833461
50	0x3c6563fe	0.014000891
51	0x3dad8688	0.084729254
52	0x3d42f6c1	0.047598604
53	0xbca993ee	-0.020700421
54	0xbe01c69c	-0.1267342
55	0xbccbd350	-0.024881035
56	0xbd1454b8	-0.036213607
57	0xbcfa6471	-0.030565472
58	0x3d3468a4	0.044045106
59	0x3dc8cbad	0.09804473
60	0xbd7a1caa	-0.061062492
61	0x3c701e66	0.014655685
62	0x3d3e0c14	0.046398237
63	0x3ca7b79f	0.0204733
64	0x3c07e261	0.008293719
65	0x3c5ba1d7	0.013405285
66	0xbdcb5ba0	-0.099295855
67	0x3be6ce80	0.0070436597
68	0x3dabdfae	0.08392273
69	0x3decd29d	0.11563609
70	0x3d918cb4	0.07106915
71	0x3c9c2375	0.019059876
72	0x3d7d79ec	0.061883852
73	0xbd84b66d	-0.064801075
74	0xbdd7ad38	-0.10531086
75	0xbde1f327	-0.11032706
76	0x3e014216	0.12622866
77	0x3da5f7a8	0.08103877
78	0xbdb803fe	-0.089851364
79	0x3d54e7e8	0.051978976
80	0x3dc7b403	0.097511314
81	0x3e02776c	0.12740868
82	0x3ddbb2f1	0.1072749
83	0x3dc06a9d	0.09395335
84	0xbcdd13d6	-0.026986998
85	0xbd25dae2	-0.040491946
86	0x3dd91441	0.10599566
87	0x3d64fec0	0.05590701
88	0xbd8e92a3	-0.069615625
89	0x3ddf52e5	0.10904483
90	0x3d574389	0.05255464
91	0x3d870ecf	0.065946214
92	0xbda6c842	-0.08143665
93	0x3d1db1bd	0.038499583
94	0xbd272a82	-0.040812023
95	0x3dbf05fb	0.093273126
96	0xbccee764	-0.02525682
97	0x3d55b729	0.05217663
98	0x3c9f9027	0.019477917
99	0x3d4c638e	0.04989963
100	0xbd3785bc	-0.044805273
101	0x3d808bc0	0.06276655
102	0xbdc706e1	-0.09718109
103	0x3cfb9a28	0.030713156
104	0xbdaf93f3	-0.08573141
105	0xbdfef18d	-0.12448416
106	0xbdd8fa04	-0.10594562
107	0x3dc59b5a	0.096487716
108	0x3d91db98	0.07121962
109	0x3deb912b	0.11502298
110	0x3dd63184	0.10458663
111	0xbddea548	-0.10871369
112	0xbd9cc7f0	-0.076553226
113	0xbcc2c9f9	-0.023777949
114	0xbdabb8c7	-0.08384853
115	0x3db4d485	0.088295974
116	0xbdc1a292	-0.09454836
117	0xbd81d0f3	-0.06338682
118	0xbe005faa	-0.12536493
119	0xbd969b70	-0.07353866
120	0x3e0344a5	0.12819155
121	0x3ddf00c7	0.1088882
122	0x3db3985d	0.08769295
123	0x3dcd34c9	0.100198336
124	0x3de8e710	0.11372197
125	0xbcdd2d23	-0.026999062
126	0x3d55b171	0.052171174
127	0x3deb72d4	0.11496511
128	0x3d59baec	0.05315678
129	0x3e12740d	0.14302082
130	0x3d9c618f	0.07635795
131	0x3db02136	0.086000845
132	0xbd00f796	-0.031486116
133	0x3d466e1e	0.04844486
134	0x3cd653b4	0.02616296
135	0xbd4e9986	-0.05043938
136	0xbdaa5432	-0.0831684
137	0xbd1e8e38	-0.03870985
138	0xbda837b9	-0.08213753
139	0x3dc37a89	0.09544856
140	0x3deea087	0.11651712
141	0xbcd6e731	-0.026233288
142	0xbd7e3396	-0.062060915
143	0x3db57ee7	0.08862095
144	0x3d93dc12	0.072197095
145	0xbbf2e9f5	-0.0074131438
146	0xbdd2f1a9	-0.10299999
147	0x3e02f469	0.12788548
148	0x3d1cdf5f	0.03829896
149	0xbde59c61	-0.112114675
150	0x3dd8c891	0.1058513
151	0x3ca5cfa8	0.02024062
152	0xbd8cabb0	-0.06868684
153	0x3d96f508	0.07370955
154	0xbd6c0f96	-0.05763205
155	0xbc7faab1	-0.015604661
156	0x3de42c79	0.11141295
157	0x3b4f83ef	0.0031664332
158	0xbdcfbffc	-0.1014404
159	0xbd052b33	-0.0325119
160	0xbcce67a7	-0.02519591
161	0xbd00fd79	-0.03149173
162	0x3cc2eff0	0.023796052
163	0x3e01ed20	0.12688112
164	0x3c9d5b36	0.019208532
165	0xbddcdafd	-0.10783956
166	0xbc04f3a4	-0.008114729
167	0x3d4aa011	0.049469057
168	0x3d2fd7ba	0.042930342
169	0xbe0468a2	-0.12930539
170	0xbc0b757c	-0.008511897
171	0xbda3fa78	-0.080067575
172	0xbd6f9a38	-0.058496684
173	0x3d63ae85	0.055586357
174	0xbdd78734	-0.10523835
175	0x3d0a66d3	0.033789467
176	0x3e87632e	0.26442856
177	0x3c72d476	0.014821162
178	0xbd90af6e	-0.070647106
179	0xbd7cafbc	-0.06169103
180	0x3bcc95c9	0.0062434417
181	0xbdac6f1a	-0.084196284
182	0x3dbe19ff	0.09282302
183	0xbdd8093b	-0.105486356
184	0xbc3cc2f2	-0.011521088
185	0xbdf9c6cd	-0.12196121
186	0xbbf8603d	-0.007579832
187	0x3e14c7ea	0.14529386
188	0xbe05925e	-0.13044116
189	0x3dae2cff	0.08504676
190	0xbd1c7bac	-0.03820388
191	0x3ca28209	0.019837396
192	0x3c8b7d51	0.017027529
193	0xbdd06baa	-0.10176785
194	0x3de9604e	0.11395322
195	0x3da5335f	0.08066439
196	0x3e0b6cf8	0.13615787
197	0x3d502bb4	0.05082293
198	0xbd904233	-0.070438765
199	0x3dc220e5	0.094789304
200	0xbba465ca	-0.005017017
201	0x3d8838f8	0.06651491
202	0xbdb750c0	-0.08950949
203	0xbcc2d256	-0.023781937
204	0xbde94a7b	-0.11391159
205	0xbd7a3339	-0.061084006
206	0x3d240f6c	0.04005377
207	0xbde4295b	-0.111407004
208	0x3cdcb8d7	0.026943607
209	0x3d65183b	0.05593131
210	0x3c895984	0.016766317
211	0xbd9359bb	-0.07194849
212	0xbde1fcfa	-0.110345796
213	0xbd589dea	-0.052884974
214	0x3d3082c2	0.04309345
215	0x3e11ca9e	0.14237449
216	0x3d7bde70	0.06149143
217	0xb9fed74b	-0.0004860706
218	0x3d019d61	0.03164423
219	0xbde3c4e3	-0.111215375
220	0xbdbb51ce	-0.091464624
221	0x3d3259d6	0.043542705
222	0xbda94e5d	-0.082669
223	0x3d997e09	0.074947424
224	0xbd9b891a	-0.075945094
225	0xbd9ac0f1	-0.07556332
226	0xbdba7bd2	-0.09105648
227	0x3d9f7a67	0.07787018
228	0xba8d2b71	-0.0010770393
229	0x3db93a42	0.09044315
230	0x3dccc211	0.09997953
231	0x3d6836ca	0.056692876
232	0xbc07c942	-0.00828773
233	0xbd46c4cf	-0.048527535
234	0xbd367b10	-0.044550955
235	0x3cea09de	0.028569158
236	0x3d47e153	0.04879887
237	0xbd99f1e3	-0.07516839
238	0x3dbfed5d	0.09371445
239	0xbcd5b552	-0.026087437
240	0xbe0ca9a9	-0.13736595
241	0xbda731e0	-0.0816381
242	0x3dfad148	0.122469485
243	0x3dbe62dd	0.092962004
244	0xbdfd2b5d	-0.123617865
245	0x3dcdac81	0.10042668
246	0x3d901ebc	0.07037112
247	0x3db24ab3	0.08705654
248	0x3dad7819	0.084701724
249	0xbdaad3bf	-0.083411686
250	0x3d4cba19	0.049982164
251	0x3d2af1a1	0.04173434
252	0xbd4715cd	-0.048604775
253	0x3cfe3721	0.031032147
254	0xbcc4fc4e	-0.02404609
255	0x3d86d3dd	0.065833785

bias f4 [64]
0	0xbd712129	-0.058869515
1	0x3cc627d8	0.02418892
2	0x3dd7f483	0.10544684
3	0x3c03c2f1	0.008042083
4	0xbd60958d	-0.054830123
5	0x3ae0de6d	0.0017156132
6	0xbddbe562	-0.10737111
7	0xbd998d37	-0.07497638
8	0xbc8dd11b	-0.017311623
9	0xbdad27e5	-0.08454875
10	0x3de2e33a	0.11078496
11	0x3c879c84	0.016554125
12	0x3dcee556	0.10102336
13	0xbd047000	-0.032333374
14	0xbc6a0b96	-0.014284989
15	0x3d1b3959	0.037896488
16	0xbccb1a2d	-0.024792755
17	0xbd26bbdb	-0.040706497
18	0xbe0055a3	-0.12532668
19	0x3db3dc0c	0.08782205
20	0x3dd8d4fa	0.10587497
21	0xbdf64320	-0.12024522
22	0xbd3cf923	-0.046136033
23	0xbdafb3a4	-0.085791856
24	0xbd6e29c5	-0.058145303
25	0x3dd0a00f	0.10186779
26	0x3d746b6b	0.059672754
27	0xbc80ed42	-0.015738133
28	0x3d348313	0.044070315
29	0x3d2250e3	0.03962792
30	0x3d893bd0	0.067008615
31	0xbdbf7153	-0.09347787
32	0x3d146fd4	0.03623946
33	0xbdfc44ee	-0.12317835
34	0xbdbca2ec	-0.092107624
35	0xbd54b4c9	-0.051930223
36	0xbc1b9815	-0.009496708
37	0xbddacf39	-0.10684056
38	0x3c330656	0.010926804
39	0x3c6c8d02	0.014437916
40	0xbd434a34	-0.047678187
41	0x3d1b9dc4	0.037992254
42	0x3dd62d1d	0.104578234
43	0xbc8e6360	-0.01738137
44	0xbd71a65e	-0.05899655
45	0xbded6a55	-0.11592547
46	0xbdc0f022	-0.09420802
47	0xbd9f161b	-0.07767888
48	0xbdc75a3b	-0.09734007
49	0xbd378464	-0.044803992
50	0x3d763490	0.06010872
51	0x3d0b7cad	0.034054447
52	0x3dae4c54	0.08510652
53	0x3e02a505	0.12758262
54	0xbd2a1d01	-0.041531567
55	0xbd4e8177	-0.050416436
56	0x3c8f6f53	0.017509138
57	0xbdcb545f	-0.09928202
58	0x3d8a0cfb	0.06740757
59	0xbcba1609	-0.022715585
60	0xbdac1208	-0.08401877
61	0xbdbdb9e5	-0.09263972
62	0xbda3fd0f	-0.080072515
63	0x3ceb2206	0.028702747

weight f4 [64, 64]
0	0x3dd72c6f	0.10506522
1	0x3dc48e1b	0.09597417
2	0xbd3a5ce1	-0.045498732
3	0xbda8ec1f	-0.082481615
4	0xbd3f6fbb	-0.046737414
5	0xbda4b34e	-0.08042012
6	0xbcbef451	-0.023309859
7	0xbde4a6d5	-0.11164633
8	0x3d847d96	0.06469266
9	0xbe0bcfba	-0.1365346
10	0xbda682fa	-0.081304505
11	0x3da4875e	0.08033632
12	0xbdc74bac	-0.0973123
13	0x3d0d5f90	0.034514964
14	0x3dc26cff	0.094934456
15	0x3e0420c0	0.12903118
16	0x3da159ed	0.0787848
17	0xbd135db5	-0.035978038
18	0x3d9c81ee	0.076419696
19	0xbc65edda	-0.014033759
20	0xbd419be2	-0.047267802
21	0x3bc315cc	0.005953526
22	0x3cfadaa0	0.030621827
23	0x3dcd9eee	0.10040079
24	0x3d3cab16	0.046061598
25	0x3d98ef8b	0.07467564
26	0x3c3d0642	0.0115371365
27	0xbc47949e	-0.012181429
28	0x3d3c4a75	0.045969445
29	0x3ccd65fb	0.025073042
30	0xbe025133	-0.12726288
31	0x3ce4eb96	0.027944367
32	0xbd73c36e	-0.05951255
33	0xbd7c963c	-0.061666712
34	0x3d17a3ec	0.037021562
35	0x3cfa319a	0.03054123
36	0x3c9ee1d2	0.019394789
37	0xbd522d7e	-0.051312916
38	0x3d86600f	0.065612905
39	0x3df5d11a	0.120027736
40	0x3c7f619a	0.015587235
41	0x3d435274	0.047686055
42	0xbdf6deab	-0.12054189
43	0x3d96cc60	0.073632
44	0x3d4dd768	0.050254256
45	0x3d62c660	0.055364966
46	0x3d4237e9	0.0474166
47	0xbd2776b6	-0.040884696
48	0xbbbf5551	-0.005839028
49	0x3df1890e	0.11793719
50	0x3dac140a	0.0840226
51	0xbdaf7bc1	-0.08568526
52	0x3d9c9192	0.07644953
53	0x3df5ef2a	0.120085075
54	0x3c8da5e3	0.017291015
55	0xbdcf7773	-0.10130205
56	0x3ca8fc41	0.020628097
57	0xbce9106e	-0.028450217
58	0x3dae617a	0.08514686
59	0xbdff58ab	-0.12468084
60	0x3d1bf045	0.038070936
61	0xbbb7d926	-0.005610603
62	0x3cd03d5f	0.025419889
63	0x3db6b583	0.08921339
64	0xbcdc56c2	-0.026896838
65	0xbde262d8	-0.11054009
66	0xbd9b0454	-0.07569185
67	0xbd4e776c	-0.05040686
68	0x3c295797	0.010335824
69	0x3d53b318	0.05168447
70	0xbcc21e6f	-0.023696152
71	0xbd66a739	-0.05631182
72	0x3d50149a	0.050800897
73	0xbe0432d6	-0.12910017
74	0x3da8c8dd	0.08241437
75	0xbcd156d5	-0.0255541
76	0x3da93008	0.08261114
77	0x3dca9a91	0.098927625
78	0x3d19ab15	0.037516672
79	0x3d398da0	0.04530108
80	0xbd8b5011	-0.06802381
81	0x3dc015a0	0.09379125
82	0x3d9d1801	0.07670594
83	0xbc72958d	-0.0148061635
84	0x3d35cf7c	0.044387326
85	0xbb89389b	-0.004187656
86	0x3dd4b448	0.103859484
87	0x3d48a81b	0.048988443
88	0x3da05014	0.07827774
89	0xbe01e6d6	-0.12685713
90	0x3dede8d1	0.11616672
91	0x3d24ed36	0.040265284
92	0x3d677924	0.056512013
93	0x3cc99aed	0.024610007
94	0x3dcce0e5	0.10003833
95	0x3ddb2667	0.10700684
96	0xbc74e25f	-0.014946549
97	0xbdcc01e2	-0.099612966
98	0x3dec2423	0.1153033
99	0xbcbea1f0	-0.023270577
100	0xbd8fe892	-0.07026781
101	0x3dad4d70	0.08462036
102	0x3d94ec21	0.072716005
103	0x3b399418	0.002831703
104	0xbc523d25	-0.012831961
105	0xbcf41f89	-0.029800193
106	0x3dd86f9b	0.10568162
107	0x3d859e62	0.0652435
108	0x3da5d80e	0.0809785
109	0x3d9465ae	0.07245956
110	0xbd289b4d	-0.04116373
111	0x3cbab963	0.022793477
112	0xbdcd0d10	-0.10012257
113	0x3d8acc14	0.06777206
114	0xbe01e6fd	-0.12685771
115	0xbe024512	-0.1272166
116	0xbe049e5e	-0.12951037
117	0x3d905217	0.070469074
118	0x3d94a9ce	0.0725895
119	0xbbb5ee8e	-0.0055521196
120	0x3c817b58	0.015805885
121	0xbd6ae411	-0.057346407
122	0xbd284e57	-0.041090336
123	0xbdb94ea9	-0.09048206
124	0xbcc997a0	-0.024608433
125	0xbda7f51e	-0.08201049
126	0x3c912a15	0.017720262
127	0x3dd9bc28	0.10631591
128	0xbdec2319	-0.11530132
129	0x3d701382	0.058612354
130	0xbd979837	-0.074020796
131	0xbd5d2b35	-0.053996284
132	0x3c57246d	0.013131243
133	0x3c8634e1	0.016382637
134	0x3dbb8ba3	0.09157493
135	0xba184efc	-0.00058101094
136	0xbd634ffd	-0.055496205
137	0xbcd182a9	-0.025574999
138	0x3a476f2d	0.0007607814
139	0xbdbd4f78	-0.09243673
140	0xbdc9740a	-0.09836586
141	0xbd658685	-0.05603649
142	0xba836bdb	-0.001002665
143	0xbdb4cbc6	-0.08827929
144	0xbde30554	-0.11085001
145	0x3db95c37	0.09050792
146	0x3de332aa	0.11093648
147	0xbce50527	-0.027956558
148	0xbdb9c657	-0.090710334
149	0xbd4ab70c	-0.049490973
150	0x3d50b130	0.05095023
151	0x3aa28d79	0.0012401781
152	0xbd3605fb	-0.044439297
153	0xbe0e4817	-0.13894688
154	0xbd07578e	-0.033042483
155	0xbcb37ce2	-0.021910135
156	0x3d9db25f	0.07700037
157	0xbd707bdd	-0.058711875
158	0x3dc658aa	0.0968488
159	0x3bacb1c0	0.005270213
160	0xbcbc3198	-0.022972867
161	0xbdeace6e	-0.114651546
162	0x3e0f9faf	0.14025758
163	0xbccf1ec7	-0.02528323
164	0x3d97ac3d	0.07405899
165	0xbda1ebf6	-0.07906334
166	0xbe03a7ea	-0.12857023
167	0xbdd6436b	-0.10462078
168	0xbda0353b	-0.07822653
169	0xbd2cb338	-0.042163104
170	0xbc23a692	-0.009988444
171	0x3dc23765	0.09483222
172	0xbdf9f3da	-0.12204714
173	0x3d992235	0.074772276
174	0x3df3a756	0.11897151
175	0x3c3200aa	0.010864416
176	0xbd9ed3d4	-0.07755247
177	0xb9b79bb1	-0.0003502048
178	0x3d111536	0.03542062
179	0x3d60ee1d	0.054914583
180	0xbc96ee3c	-0.018424146
181	0xbd299a6f	-0.041407045
182	0xbd713332	-0.058886714
183	0xbdfc6123	-0.12323215
184	0x3d23ba34	0.0399725
185	0xbdc417c7	-0.09574848
186	0xbd6749f6	-0.05646702
187	0x3acd113b	0.0015645394
188	0x3dbdca7e	0.09267138
189	0x3de4e07b	0.11175629
190	0xbdf0075e	-0.11720155
191	0x3dde1b96	0.10845105
192	0x3de1970b	0.11015137
193	0x3ddc787f	0.1076517
194	0x3c9b7c5e	0.018980201
195	0x3de699d4	0.11259809
196	0x3d60fe66	0.054930113
197	0xbdc334b3	-0.09531536
198	0xbd95321d	-0.07284949
199	0x3abfda75	0.0014637249
200	0xbdaa6d03	-0.083215736
201	0xbce23b11	-0.027616056
202	0x3ddc2c63	0.107506536
203	0x3d8382fc	0.06421468
204	0x3deb942b	0.1150287
205	0xbb8f79a4	-0.0043785144
206	0xbd80fd07	-0.06298261
207	0x3d9b7ea3	0.075925134
208	0x3a7a12f5	0.0009539568
209	0x3caf66ef	0.021411387
210	0xbd6ba863	-0.057533633
211	0x3d7916f3	0.0608129
212	0xbdadb16a	-0.08481105
213	0x3dc06362	0.09393956
214	0x3dd4c121	0.10388399
215	0x3d15f09d	0.03660642
216	0x3ddd8c93	0.10817828
217	0x3d943582	0.07236768
218	0xbd268ab0	-0.040659606
219	0xbdd219b0	-0.10258806
220	0x3cbf592b	0.023357948
221	0x3dac7572	0.084208384
222	0xbc8870a5	-0.016655276
223	0x3c1c05c1	0.009522856
224	0x3dcb305e	0.09921335
225	0x3d3e3a3a	0.046442248
226	0x3dd04045	0.101685084
227	0x3c4c6681	0.012475611
228	0x3c957bf6	0.018247586
229	0xbd22175d	-0.039573062
230	0xbce86ab4	-0.028371193
231	0xbd862978	-0.06550878
232	0x3dbd40fe	0.09240912
233	0x3df6af2f	0.12045132
234	0x3d70d98d	0.058801223
235	0x3c2aca20	0.010424167
236	0xbd45bed7	-0.048277702
237	0xbe0227fd	-0.12710567
238	0xbcdecd86	-0.02719761
239	0xbda6c122	-0.08142306
240	0xbdc87a4c	-0.09788951
241	0xbc964516	-0.01834349
242	0xbc91ae89	-0.01778342
243	0x3caa0b65	0.020757386
244	0xbd995773	-0.07487383
245	0x3dc47a86	0.09593682
246	0xbe105579	-0.14095105
247	0xbd5bde17	-0.0536786
248	0xbd301360	-0.042987227
249	0x3c5c7f63	0.013458106
250	0x3d6634ed	0.056202818
251	0xbce32303	-0.027726656
252	0x3c4763bd	0.012169776
253	0xbcc4d525	-0.024027416
254	0xbd85db31	-0.06535948
255	0xbcc255df	-0.023722587

bias f4 [64]
0	0xbda0af6b	-0.07845958
1	0xbdb6270b	-0.088941656
2	0x3d92bc58	0.0716483
3	0x3dc850cc	0.09781036
4	0x3d5c42ee	0.053774767
5	0x3d1c2a20	0.03812611
6	0x3db7af53	0.08968987
7	0x3d992eb1	0.07479609
8	0xbcd691c4	-0.026192553
9	0xbd69eccf	-0.057110604
10	0x3d1c540f	0.038166102
11	0x3d9009c9	0.07033116
12	0x3da1dc61	0.07903362
13	0x3b8a2038	0.0042152666
14	0x3deed466	0.116616055
15	0xbdadbcc7	-0.08483272
16	0x3d681087	0.056656387
17	0x3dce7edb	0.100827895
18	0x3c4d40a1	0.012527616
19	0x3d87e167	0.06634789
20	0x3dcb2376	0.09918873
21	0xbdcdb413	-0.10044112
22	0x3da21378	0.079138696
23	0x3d86af85	0.065764464
24	0x3d8f1bfa	0.06987758
25	0x3d8b3e88	0.06799036
26	0x3db4f09b	0.08834954
27	0x3d34c612	0.044134207
28	0x3d6dbce8	0.058041483
29	0xbdd574a3	-0.10422637
30	0xbdef8199	-0.11694641
31	0x3d736ac9	0.05942801
32	0x3e054455	0.13014348
33	0xbd2d88d2	-0.04236681
34	0x3dc51e1c	0.096248835
35	0xbc163f9f	-0.009170442
36	0x3d4fbf04	0.050719276
37	0xbbad222f	-0.005283616
38	0x3d88350b	0.06650742
39	0xbd44d5f7	-0.048055615
40	0xbddc2c04	-0.10750583
41	0x3d936554	0.07197061
42	0xbd6e8442	-0.0582316
43	0x3dc585c9	0.09644658
44	0x3cb304a9	0.021852808
45	0xbd680a3a	-0.056650378
46	0x3de8fec2	0.11376716
47	0x3e008393	0.12550192
48	0xbd8dc28b	-0.06921872
49	0x3d54f557	0.051991787
50	0x3d2432f6	0.040087663
51	0xbda6994d	-0.081347086
52	0x3caed471	0.021341534
53	0xbde851f1	-0.11343754
54	0x3b5a74de	0.0033333818
55	0xbdf3d2cc	-0.11905441
56	0x3dcb63d1	0.09931148
57	0x3d6c57e5	0.05770101
58	0x3db9cb17	0.090719394
59	0x3c9afd73	0.018919682
60	0xbd500c2b	-0.050792854
61	0x3d5732a4	0.05253853
62	0x3d6fd9d5	0.05855735
63	0x3d83c925	0.0643485

weight f4 [64, 64]
0	0xbc6f0007	-0.014587409
1	0x3e0681e5	0.13135488
2	0xbd9083b0	-0.070563674
3	0xbdf36bd7	-0.11885803
4	0x3d22f8dd	0.039788116
5	0x3de1495d	0.11000321
6	0x3cd09d58	0.025465652
7	0xbcdd8a29	-0.027043419
8	0xbdcab64f	-0.09898054
9	0x3db8c9d4	0.09022871
10	0xbe03f420	-0.12886095
11	0xbd72ebfb	-0.05930708
12	0x3d9ce99a	0.076617435
13	0xbd978a57	-0.07399433
14	0xbdb64697	-0.08900183
15	0xbd674344	-0.056460634
16	0x3d744de3	0.05964459
17	0xbd774c44	-0.060375467
18	0xbd0a0174	-0.033692792
19	0xbd1c8323	-0.038211
20	0x3d780328	0.060549885
21	0x3decac4d	0.11556301
22	0x3b8ef3fc	0.0043625813
23	0x3cf76fbe	0.03020465
24	0xbc988029	-0.018615799
25	0x3d582179	0.052766297
26	0x3dc49667	0.095989995
27	0x3d47ecfc	0.04880999
28	0x3d924863	0.07142713
29	0xbd07b504	-0.033131614
30	0x3a66e4aa	0.00088078773
31	0xbde7128d	-0.11282835
32	0x3d43585f	0.0476917
33	0xbd6bd466	-0.057575606
34	0xbcd4609c	-0.025924973
35	0xbe01a9be	-0.12662408
36	0x3b6cf473	0.0036156445
37	0x3d07ee00	0.03318596
38	0x3dac21af	0.08404862
39	0xbce0f75c	-0.0274617
40	0x3c4ac721	0.012376578
41	0x3de349eb	0.11098083
42	0xbbd5f0d9	-0.0065289554
43	0x3dcb1512	0.09916128
44	0x3e04ccd6	0.12968764
45	0x3de6af6d	0.112639286
46	0x3d4c5be8	0.049892336
47	0x3d973021	0.07382227
48	0x3df773a8	0.120826066
49	0xbcc563e1	-0.024095478
50	0x3ddcf85b	0.107895575
51	0xbd370fdd	-0.044692863
52	0xbd3d3db7	-0.046201434
53	0x3d7df5da	0.06200204
54	0xbda77d1b	-0.08178159
55	0xbd416ed6	-0.047224842
56	0x3a003b99	0.0004891693
57	0x3b560a96	0.0032660118
58	0xbb4190f6	-0.0029535866
59	0xbc281f9b	-0.010261442
60	0x3d0d3437	0.034473624
61	0x3de7b1aa	0.113131836
62	0xbd44feb9	-0.048094485
63	0x3d7bb670	0.061453283
64	0x3cd1768e	0.025569227
65	0x3d9d2f40	0.07675028
66	0x3de028fc	0.10945317
67	0xbbe8d870	-0.0071058795
68	0xbcec76f4	-0.028865315
69	0xbd63dd58	-0.05563101
70	0xbd705313	-0.058672976
71	0xbd840a74	-0.06447306
72	0xbd1c246a	-0.038120665
73	0x3d90bad8	0.070668876
74	0x3d1ce89f	0.038307782
75	0xbd4ec20d	-0.05047803
76	0x3d870256	0.065922424
77	0x3c87295a	0.01649921
78	0x3c4afe36	0.01238971
79	0x3d196b89	0.03745607
80	0xbd888f0c	-0.06667909
81	0xbb9d55b3	-0.004801476
82	0x3dca4088	0.098755896
83	0x3dbdc214	0.09265533
84	0x3d9bef14	0.0761396
85	0xbcb93df1	-0.022612544
86	0x3c937fa5	0.018005202
87	0x3da58480	0.08081913
88	0x3cc28523	0.023745125
89	0x3d98e694	0.07465854
90	0x3d489fd9	0.048980568
91	0x3d268afa	0.040659882
92	0x3d81b598	0.063334644
93	0xbdcf6c65	-0.101280965
94	0xbdea93bc	-0.11453959
95	0xbdf6b44e	-0.12046109
96	0x3dd265f2	0.10273351
97	0xbd9584e6	-0.07300739
98	0xbdbc7650	-0.09202254
99	0x3ca84b4d	0.020543719
100	0xbc9137ac	-0.017726742
101	0x3d3798b8	0.04482338
102	0xbd2365e2	-0.039892085
103	0x3db918cf	0.09037935
104	0xbdfc6c15	-0.123253025
105	0xbdf39fd5	-0.1189572
106	0x3dec74f2	0.11545743
107	0xbd7dc718	-0.06195745
108	0x3caae122	0.020859305
109	0x3d2eca44	0.042673364
110	0x3ce88578	0.028383955
111	0xbd9a633d	-0.075384595
112	0x3c03d9c2	0.008047523
113	0xbd8c078a	-0.068373755
114	0x3dc849f1	0.09779728
115	0x3c62db94	0.013846297
116	0x3dc027bd	0.093825795
117	0x3daafafc	0.08348653
118	0x3d6b5860	0.057457328
119	0x3d47353b	0.04863475
120	0x3d9f491f	0.077776186
121	0xbd91d9c9	-0.07121617
122	0x3dcb2387	0.09918886
123	0xbcff1629	-0.031138496
124	0x3dcd6ba4	0.100302964
125	0xbac8de57	-0.0015325051
126	0x3d81bac5	0.063344516
127	0x3dc9e73d	0.09858558
128	0x3c6678c9	0.014066883
129	0xbcd81cf3	-0.026380992
130	0x3db8e85d	0.09028695
131	0xbe007ddf	-0.12548016
132	0xbc39d0a4	-0.011341248
133	0xbd0c1f8d	-0.034209777
134	0xbe0321fd	-0.12805934
135	0xbcd02c85	-0.025411854
136	0x3c807530	0.01568088
137	0xbdf0fc30	-0.11766851
138	0x3dcdc8ce	0.10048066
139	0x3daaf395	0.08347241
140	0x3dff323b	0.124607526
141	0xbd5ec031	-0.054382507
142	0xbda39883	-0.07988074
143	0x3d8a9f3b	0.06768652
144	0x3e0013ce	0.12507555
145	0xbd6a8869	-0.057258997
146	0xbd97ebf1	-0.07418049
147	0x3bbdc80d	0.00579167
148	0x3de36f00	0.11105156
149	0xbcc5ca2c	-0.024144255
150	0xbdebcf98	-0.11514205
151	0xbd3b7ea5	-0.045775075
152	0xbd95be2c	-0.07311663
153	0x3dc979bc	0.09837672
154	0xbde6bbbc	-0.11266276
155	0x3dce05f5	0.1005973
156	0x3d4f9f93	0.05068929
157	0xbcb50a42	-0.022099618
158	0xbd10c8b6	-0.035347663
159	0x3d95916b	0.07303127
160	0xbd8bac7e	-0.0682001
161	0xbd48724a	-0.04893712
162	0x3de7088f	0.11280929
163	0xbd442ad3	-0.047892403
164	0x3c95ebc4	0.018300898
165	0x3dd5502d	0.10415683
166	0xbdef69b8	-0.11690086
167	0x3c7e3ba4	0.015517149
168	0x3a0593d5	0.0005095576
169	0xbd84a08b	-0.06475934
170	0x3df2c5fd	0.118541695
171	0x3da88742	0.082289234
172	0xbce4aafc	-0.027913563
173	0xbc4d40c6	-0.01252765
174	0x3ddb392b	0.10704263
175	0xbd26fd5a	-0.04076896
176	0x3d893de9	0.067012616
177	0xbd9bdd48	-0.076105654
178	0xbdd79322	-0.1052611
179	0x3da36705	0.07978634
180	0x3dae209e	0.08502315
181	0xbdcfd60e	-0.101482496
182	0xbce9385a	-0.028469253
183	0x3d6426c1	0.05570102
184	0x3da46203	0.08026507
185	0x3dbfe359	0.09369535
186	0x3ddd8fc8	0.1081844
187	0xbd6b375d	-0.057425845
188	0x3ce41c8e	0.027845647
189	0x3de82f37	0.113371305
190	0xbdcce951	-0.10005439
191	0x3dbb7bc9	0.091544695
192	0x3cfdfad4	0.031003393
193	0x3c3170f5	0.010830154
194	0x3e5c2eeb	0.21502273
195	0xbd7ece48	-0.062208444
196	0xbcc7b523	-0.024378365
197	0xbdc1a88e	-0.094559774
198	0x3dcc2b34	0.09969178
199	0xbdd72fb9	-0.10507149
200	0x3dd59ad8	0.10429925
201	0xbda75358	-0.081701934
202	0x3d74e954	0.05979283
203	0xbd61e5a5	-0.055150647
204	0x3df669f5	0.120319284
205	0xbdb8eef7	-0.09029954
206	0xbd9bf392	-0.07614817
207	0xbd3a15a9	-0.045430813
208	0xbdd22350	-0.102606416
209	0x3e0c0080	0.13672066
210	0x3d14bf2a	0.03631512
211	0xbd56044a	-0.052250184
212	0xbdce31ab	-0.10068067
213	0xbd10ac22	-0.03532041
214	0x3c5f45b4	0.013627458
215	0xbd53dca8	-0.051724106
216	0x3d800e57	0.06252735
217	0xbd8d93db	-0.06912967
218	0x3cb7ee36	0.022452455
219	0x3db5f37c	0.088843316
220	0xbdc21c5b	-0.094780646
221	0xbde3df76	-0.11126606
222	0xbde075c7	-0.10959964
223	0x3c46b90f	0.012129082
224	0x3db8ce2a	0.09023698
225	0xbd8bdb02	-0.06828882
226	0xbcc502f2	-0.024049256
227	0x3d93932a	0.07205804
228	0x3dc0a4b5	0.094064154
229	0x3d6c91de	0.057756297
230	0x3ceb2442	0.028703813
231	0x3c3bfbfe	0.011473654
232	0x3c91634f	0.01774755
233	0x3dcca9c4	0.09993318
234	0x3cb101b3	0.021607256
235	0x3d76c3e1	0.0602454
236	0xbcbd9085	-0.023140201
237	0x3ddea37d	0.10871027
238	0xbddd7210	-0.10812771
239	0xbd47647b	-0.04867981
240	0xbde5f400	-0.1122818
241	0x3d112b21	0.03544152
242	0xbc507c8c	-0.012725007
243	0xbdc097e2	-0.09403969
244	0xbdd98b68	-0.10622293
245	0x3d2cbc84	0.04217197
246	0x3da8fa04	0.08250812
247	0x3decbb95	0.11559216
248	0x3dd52986	0.104083106
249	0xbda0ab49	-0.0784517
250	0x3de69016	0.11257951
251	0x3e0476d1	0.1293595
252	0xbae86132	-0.0017729162
253	0xbdfe228c	-0.12408933
254	0xbdc7ca02	-0.09755327
255	0xbde3babf	-0.11119603

bias f4 [64]
0	0x3d9f8442	0.07788898
1	0xbd9c214d	-0.07623539
2	0x3def2d01	0.11678506
3	0x3db850c1	0.089997776
4	0x3dd67292	0.10471071
5	0x3db859cb	0.09001502
6	0x3d2993ca	0.04140071
7	0xbdd6b484	-0.104836494
8	0x3db70964	0.08937338
9	0xbdf51202	-0.11966325
10	0x3ce3c651	0.027804526
11	0x3e03a670	0.1285646
12	0x3ced1092	0.028938565
13	0x3c2de6b4	0.010614086
14	0xbdadf0a0	-0.08493161
15	0xbde022d6	-0.109441444
16	0x3c9bca07	0.019017233
17	0x3d24a299	0.040194128
18	0xbd7d9d46	-0.061917566
19	0x3ca02d90	0.019552976
20	0x3b351a1b	0.0027633968
21	0xbd935ce8	-0.07195455
22	0x3cd45679	0.02592014
23	0xbde40bae	-0.1113504
24	0x3d867c55	0.06566683
25	0xbda2d34f	-0.0795046
26	0x3daccdba	0.08437677
27	0x3dd88052	0.1057135
28	0x3d86df15	0.06585518
29	0xbda0f8d7	-0.078599624
30	0x3dbf445f	0.093392126
31	0x3bdb42aa	0.0066912966
32	0xbdeb6907	-0.11494642
33	0x3dbe2ded	0.092861034
34	0x3df68ece	0.120389566
35	0x3d4e5e39	0.050382826
36	0xbdd80bdf	-0.10549139
37	0xbd05bfe0	-0.03265369
38	0xbbbbad3a	-0.0057274373
39	0x3de1a846	0.11018424
40	0xbdc768b2	-0.09736766
41	0xbdc64ccc	-0.096826166
42	0x3d696c7d	0.056988228
43	0x3d463615	0.04839142
44	0xbd2ad925	-0.04171099
45	0xbde08aa2	-0.10963942
46	0xbc4d7f5a	-0.01254257
47	0x3dac1018	0.08401507
48	0x3dd2e074	0.10296717
49	0xbc248fd3	-0.010044056
50	0xbda4fb51	-0.08055747
51	0x3d069e9b	0.0328661
52	0x3dba389e	0.0909283
53	0xbd8e545c	-0.06949684
54	0x3cc095d9	0.023508953
55	0x3d9a10a4	0.07522705
56	0xbcb8122e	-0.022469606
57	0xbdc3a9a2	-0.09553839
58	0xbd9397ae	-0.07206665
59	0xbdecf210	-0.11569607
60	0xbbd41b2f	-0.006472967
61	0x3dac504a	0.084137514
62	0xbc8ca945	-0.017170558
63	0x3da9dd43	0.082941554

weight f4 [64, 64]
0	0xbdd478d5	-0.103746094
1	0x3ddbb54c	0.10727939
2	0xbd32e137	-0.043671813
3	0xbdc02293	-0.093815945
4	0x3dbcc5f4	0.09217444
5	0xbd18e9ba	-0.037332274
6	0xbcaec8bc	-0.021335952
7	0x3d6e4f18	0.0581809
8	0xbcbedaab	-0.023297628
9	0x3a1425ba	0.00056513736
10	0x3d4b69fe	0.04966163
11	0x3ddfcf78	0.109282434
12	0xbd3700d8	-0.04467854
13	0xbb221515	-0.0024731804
14	0xbcd0ce5e	-0.025489029
15	0x3c8e3464	0.017358966
16	0x3db498c0	0.08818197
17	0x3db4a27e	0.088200554
18	0xbcb1c6fc	-0.021701328
19	0xbdac484a	-0.084122255
20	0x3d9c65f5	0.07636634
21	0xbdaeac77	-0.08528989
22	0xbe097679	-0.134241
23	0xbd2dda6e	-0.04244464
24	0xbd9a045b	-0.07520362
25	0xbd9b632b	-0.07587274
26	0x3d44df94	0.048064783
27	0x3c9f5a96	0.019452374
28	0x3d600a8a	0.05469755
29	0x3cd81312	0.026376281
30	0x3c900f78	0.017585501
31	0x3da9f025	0.08297757
32	0x3d9efd2b	0.07763132
33	0xbd953945	-0.07286314
34	0x3dd7c21e	0.10535072
35	0x3cc747f7	0.024326308
36	0x3de1bae4	0.11021975
37	0x3dbcdc27	0.09221678
38	0xbd520ac2	-0.05127979
39	0xbc8d2a5e	-0.017232116
40	0x3d363813	0.04448707
41	0xbdcf342b	-0.10117372
42	0xbd726865	-0.05918159
43	0xbdf37873	-0.11888208
44	0x3d1bd0d3	0.038040947
45	0x3cb36ce7	0.021902515
46	0x3d8a1c90	0.06743729
47	0xbdff1041	-0.12454272
48	0x3db243ae	0.08704315
49	0x3d8c57fe	0.06852721
50	0xbd024b50	-0.031810105
51	0xbe092460	-0.13392782
52	0xbc83fb69	-0.016111093
53	0xbd5d445e	-0.05402028
54	0xbd98e7ae	-0.074660644
55	0xbd733753	-0.059378933
56	0xbc91e8e8	-0.017811254
57	0xbce9e969	-0.028553681
58	0x3c058c88	0.008151181
59	0xbdb30d54	-0.087427765
60	0x3d59dba6	0.05318799
61	0xbd7fbf81	-0.06243849
62	0xbdb5f56c	-0.08884701
63	0xbc407c66	-0.011748409
64	0x3b354807	0.002766134
65	0xbdd92b39	-0.10603947
66	0x3dfe3977	0.12413304
67	0xbdc13400	-0.09433746
68	0x3de368ae	0.111039504
69	0x3c9a9e04	0.018874176
70	0xbdb4707d	-0.08810518
71	0xbdcf83ba	-0.10132547
72	0xbd2bf4bf	-0.041981455
73	0x3de44ea0	0.11147809
74	0x3df1b47d	0.118020035
75	0x3d8abb0f	0.0677396
76	0x3de4ea3d	0.1117749
77	0x3da6926b	0.08133396
78	0x3d0a75e7	0.033803847
79	0x3ddb01c6	0.10693698
80	0x3d921f5f	0.0713489
81	0x3cfdc83c	0.030979268
82	0x3cff0657	0.031130953
83	0x3c0ad7f9	0.008474343
84	0xbd34df20	-0.0441581
85	0x3d459ebc	0.048247084
86	0x3d85f0e9	0.065400906
87	0x3d926a65	0.071491994
88	0x3daafbdc	0.083488196
89	0x3df474a1	0.11936308
90	0x3d49ec99	0.049297903
91	0xbd0c2ac6	-0.03422048
92	0x3d42100a	0.047378577
93	0x3d52bc1c	0.051448926
94	0xbdaa46a3	-0.08314254
95	0xbd8dc8e7	-0.06923085
96	0xbdd25cab	-0.10271581
97	0xbd851f7d	-0.065001465
98	0x3df94a6a	0.121723965
99	0x3d7c96ba	0.06166718
100	0x3b2cb159	0.0026350825
101	0xbdad31e2	-0.0845678
102	0x3d2a78b0	0.041619003
103	0x3ce99d2d	0.02851733
104	0xbbcaae2c	-0.0061853137
105	0xbdb366dc	-0.08759853
106	0x3e03fa49	0.12888445
107	0x3ca6ff93	0.02038554
108	0xbdcd5cd2	-0.1002747
109	0x3d856594	0.06513515
110	0xbcba5cb2	-0.022749279
111	0xbda3c11d	-0.07995818
112	0xbd9ea8e6	-0.077470586
113	0xba2e4872	-0.00066483684
114	0xbd623619	-0.055227373
115	0xbda29a30	-0.07939565
116	0x3d80d455	0.06290499
117	0xbba515fb	-0.0050380207
118	0xbd955d7c	-0.07293221
119	0x3c17d147	0.009266204
120	0xbdfd7663	-0.12376096
121	0x3db44420	0.08802056
122	0xbdee74f4	-0.11643401
123	0xbda8eb1d	-0.08247969
124	0xbd03f490	-0.032215655
125	0xbde26a3f	-0.11055421
126	0xbdc55831	-0.09635962
127	0xbdb8ab15	-0.09017006
128	0xbdb39d8e	-0.087702855
129	0x3cfd585d	0.030925924
130	0x3d7ae8ca	0.06125716
131	0xbdbeea4d	-0.09322033
132	0x3d4d18e9	0.050072584
133	0xbd83482f	-0.06410252
134	0x3da95460	0.082680464
135	0xbce8764b	-0.028376719
136	0x3d42bc75	0.047543008
137	0x3d259c96	0.040432535
138	0xbd4e3863	-0.050346743
139	0x3bb455bd	0.005503385
140	0x3d8bbb2f	0.06822812
141	0x3d970cfa	0.07375522
142	0x3d089154	0.03334172
143	0x3d8aaef5	0.06771652
144	0x3d397854	0.04528077
145	0x3dbf0909	0.09327895
146	0xbd9db6ad	-0.07700858
147	0xbd7a8ecc	-0.061171338
148	0xbbe75b64	-0.007060455
149	0x3da8472c	0.082167
150	0xbe05bd7f	-0.13060568
151	0x3d81bed0	0.06335223
152	0x3e04979c	0.1294846
153	0x3da3740b	0.07981118
154	0x3dcfb466	0.1014183
155	0xbd542307	-0.051791217
156	0x3b9a4d5b	0.0047089285
157	0x3df1863f	0.117931835
158	0xbdacabc1	-0.08431197
159	0xbd0a01f3	-0.033693265
160	0xbd420a86	-0.047373317
161	0x3dcaa7bd	0.09895275
162	0x3c959564	0.018259712
163	0xbdec3dd7	-0.115352325
164	0x3dabf0ab	0.08395513
165	0x3dbe0db3	0.09279957
166	0xbc6b1282	-0.014347674
167	0x3ddb0f03	0.10696223
168	0xbdd5ceba	-0.104398206
169	0x3c971be9	0.018445926
170	0x3bf9fae7	0.007628787
171	0x3cbd3bb7	0.023099763
172	0x3d8bdc6c	0.068291515
173	0x3d4d6bc2	0.050151594
174	0x3de24887	0.1104899
175	0xbda0efff	-0.078582756
176	0x3c72f9b1	0.014830039
177	0x3d4191b8	0.04725811
178	0xbdddcf3f	-0.10830545
179	0xbd5e7926	-0.054314755
180	0xbddb8387	-0.10718446
181	0xbd593228	-0.05302635
182	0xbd997607	-0.07493215
183	0x3db3c435	0.08777658
184	0xbd5f969b	-0.054586988
185	0x3d2f99e8	0.042871386
186	0xbd412b2f	-0.047160324
187	0x3db0ed53	0.08639016
188	0x3be23445	0.0069032037
189	0xbdbe599b	-0.09294435
190	0xbd481cff	-0.048855778
191	0xbdb0c3cd	-0.08631096
192	0x3cf95ff3	0.03044126
193	0x3dd36487	0.103219084
194	0x3d028035	0.03186055
195	0x3ccb4d8e	0.024817254
196	0xbddb5776	-0.10710041
197	0x3ba195be	0.0049311807
198	0x3d426131	0.04745597
199	0x3c4f9e86	0.012672072
200	0xbe0546e5	-0.13015325
201	0xbd8f6643	-0.07001927
202	0xbe0294ba	-0.12752047
203	0x3c5710ab	0.013126533
204	0x3d3fc4cc	0.04681854
205	0x3d65e79b	0.05612908
206	0x3da5e5ec	0.08100495
207	0xbd9b4ef8	-0.075834215
208	0x3d321050	0.043472588
209	0x3de71458	0.11283177
210	0xbd275417	-0.04085168
211	0xbe0419ed	-0.12900515
212	0xbd3b6e56	-0.04575952
213	0xbd441b6b	-0.04787771
214	0x3da94cca	0.082665995
215	0x3dd15b40	0.10222483
216	0x3dfd50d1	0.1236893
217	0x3da231f2	0.079196826
218	0xbb2e9d95	-0.002664422
219	0xbd9527ed	-0.07283006
220	0x3c687497	0.014187953
221	0xbc13c0c4	-0.009018127
222	0xbd814af0	-0.06313121
223	0xbde8a7bf	-0.1136012
224	0x3dea5f4c	0.11443958
225	0xbde6612d	-0.112490036
226	0xbd291ae1	-0.0412854
227	0x3d1602b4	0.03662367
228	0xbda91929	-0.08256752
229	0xbd2a0c0c	-0.041515395
230	0xbde62a42	-0.11238529
231	0x3ca893aa	0.020578224
232	0x3dfb4493	0.12268939
233	0x3d466d7a	0.04844425
234	0xbcc3c2c7	-0.023896588
235	0x3da90791	0.08253396
236	0x3ddddb5f	0.10832857
237	0x3de716fc	0.11283681
238	0xbd582413	-0.052768778
239	0x3d146914	0.036233023
240	0x3caab60e	0.020838764
241	0x3ca1b746	0.019740712
242	0x3da6390a	0.08116348
243	0xbd6c36d8	-0.05766949
244	0xbdc1f9c7	-0.09471469
245	0x3d3ba0d3	0.04580767
246	0x3ca36b4e	0.019948628
247	0xbd8d44ef	-0.06897914
248	0x3db1a3c9	0.08673818
249	0xbb77cd11	-0.0037811438
250	0x3df36de9	0.11886198
251	0xbdbb5360	-0.09146762
252	0xbd382d93	-0.044965338
253	0x3d47883b	0.048713904
254	0xbda0dca7	-0.07854586
255	0xbc2ff73f	-0.0107401

bias f4 [64]
0	0x3d904fac	0.07046446
1	0xba293140	-0.0006454177
2	0x3da79a94	0.0818378
3	0x3d62c9a4	0.05536808
4	0xbda65b16	-0.08122842
5	0xbdb76c6b	-0.08956226
6	0x3d7a8cfc	0.06116961
7	0xbd4efcdf	-0.050534125
8	0x3b96ac11	0.0045981486
9	0x3c86d857	0.01646058
10	0xbdc70f39	-0.097197
11	0xbc54ced5	-0.012988766
12	0x3dbf42e9	0.09338934
13	0xbb231caa	-0.0024888911
14	0xbdada036	-0.084778234
15	0x3dc5e283	0.09662344
16	0x3dba128a	0.09085567
17	0x3d09c562	0.033635505
18	0xbd8c81b5	-0.06860677
19	0x3d4d7428	0.050159603
20	0x3d267b9f	0.040645238
21	0xbda71d75	-0.08159915
22	0xbdc7e7a4	-0.09760979
23	0xbd58a850	-0.05289489
24	0x3dd082d0	0.101812005
25	0x3bcce9a7	0.0062534395
26	0x3b9bf580	0.0047594905
27	0x3d70d3c4	0.058795705
28	0xbd8acc98	-0.067773044
29	0xbd043e99	-0.03228626
30	0x3ce16cf5	0.027517775
31	0x3dd277f2	0.10276784
32	0xba0f1aea	-0.00054590276
33	0x3cc62b7e	0.02419066
34	0xbde21d8b	-0.11040791
35	0xbdfd7be5	-0.12377147
36	0x3caf30ac	0.021385513
37	0x3bc8e3c3	0.006130667
38	0x3dcced7f	0.10006236
39	0x3d04d242	0.03242708
40	0x3dd5faf9	0.1044826
41	0xbd00f567	-0.031484034
42	0xbce619ff	-0.028088568
43	0xbc9596e9	-0.018260436
44	0xbd4a925f	-0.049455997
45	0x3c789dd5	0.015174349
46	0xbde366df	-0.111036055
47	0x3ca6ff83	0.02038551
48	0xbc98cc12	-0.018651996
49	0x3d3628ed	0.044472624
50	0x3dfb7d9f	0.1227982
51	0x3d547248	0.0518668
52	0x3cd45374	0.0259187
53	0xbdb632e5	-0.08896426
54	0xbd3d3eba	-0.0462024
55	0xbd2d7e6f	-0.042356905
56	0xbde3772b	-0.11106714
57	0x3d8a9d5c	0.06768295
58	0x3df34caf	0.118798606
59	0x3db95cec	0.090509266
60	0x3dd5f5ad	0.104472496
61	0xbd91a446	-0.07111411
62	0xbd54688b	-0.051857512
63	0xbd3e65d6	-0.046483837

weight f4 [64, 64]
0	0xbd859fcb	-0.06524619
1	0xbdc8f3f4	-0.09812155
2	0xbde96b4f	-0.113974206
3	0xbaaa896f	-0.0013010929
4	0xbd881937	-0.06645434
5	0xbdb2c3b1	-0.087287314
6	0x3ded8ecc	0.11599502
7	0xbddac554	-0.106821686
8	0xbd45864f	-0.04822379
9	0x3d915c6c	0.07097706
10	0xbd62b706	-0.055350326
11	0x3d4cf6af	0.050039943
12	0xbdc5f9fe	-0.09666823
13	0xbc0431eb	-0.008068542
14	0x3d4eb78c	0.050468013
15	0xbd423586	-0.047414325
16	0xbdc8df69	-0.09808237
17	0x3ca7b52a	0.020472128
18	0xbc4177c2	-0.011808338
19	0x3dc6e8fc	0.09712407
20	0xbcc9275b	-0.024554899
21	0x3dd2bce7	0.102899365
22	0xbd397aab	-0.045283
23	0xbd5fbddb	-0.05462442
24	0xbc1af00f	-0.0094566485
25	0x3d81af1f	0.0633223
26	0x3df9c586	0.12195878
27	0x3d8631d8	0.06552476
28	0xbd3b6d8a	-0.04575876
29	0x3c9b814f	0.018982558
30	0x3db3fa7e	0.08788012
31	0x3dbcc83f	0.092178814
32	0x3dae6256	0.0851485
33	0x3d0f7db4	0.03503199
34	0xbc20f801	-0.009824754
35	0x3dbd7f29	0.092527695
36	0x3d0c3ae7	0.03423586
37	0xbdc5a6f3	-0.09650984
38	0x3deb51b2	0.114901915
39	0xbc6365dd	-0.013879267
40	0x3de7ba54	0.11314836
41	0x3da4e05f	0.08050608
42	0xbb91e4d3	-0.004452327
43	0xbdeb12a4	-0.11478165
44	0xbde07bda	-0.10961123
45	0xbd826c94	-0.06368366
46	0x3d718008	0.05895999
47	0x3ca1163a	0.019663919
48	0x3bab480e	0.0052270954
49	0xbdde7129	-0.10861427
50	0x3d799275	0.060930688
51	0xbcc543ab	-0.024080118
52	0x3d989328	0.07449943
53	0xbdc68f5d	-0.09695313
54	0xbb2b3cf5	-0.0026128863
55	0x3d824781	0.063612945
56	0x3d31944b	0.043354314
57	0xbe05ad4a	-0.13054386
58	0x3dc8bcb3	0.098016165
59	0xbdca265d	-0.098705985
60	0xbdf8d04c	-0.121491045
61	0xbda49f43	-0.08038189
62	0xbde20108	-0.11035353
63	0x3d51ab1c	0.051188573
64	0x3db72a39	0.089436
65	0x3de289f0	0.11061466
66	0x3d0b5103	0.034012806
67	0xbd19b1ad	-0.03752296
68	0x3cf298b4	0.02961383
69	0x3d23d0e8	0.03999415
70	0xbdf9ef43	-0.12203839
71	0x3be8be06	0.0071027307
72	0x3cdd9e7c	0.02705311
73	0x3dbdb723	0.09263446
74	0x3da10099	0.07861442
75	0xbd220644	-0.039556757
76	0xbc033696	-0.00800862
77	0x3da002db	0.07813045
78	0x3ddf55ab	0.10905012
79	0xbd89c6c4	-0.06727365
80	0x3df54ab2	0.119771376
81	0xbc8f119c	-0.017464451
82	0xbd481faa	-0.048858322
83	0xbc49265b	-0.012277211
84	0x3dce51a0	0.100741625
85	0xbd909cec	-0.070611805
86	0x3c01312b	0.007885258
87	0xbd924a39	-0.07143063
88	0xbc21a0ef	-0.00986503
89	0x3dbf07d3	0.09327664
90	0xbd58d447	-0.05293682
91	0xbd5a6859	-0.05332217
92	0x3d4ec3a0	0.05047953
93	0x3d95d459	0.07315893
94	0xbc43ad73	-0.011943209
95	0xbcf99ca8	-0.030470207
96	0xbc0d3363	-0.008618209
97	0x3d0a3496	0.033741556
98	0x3ddfa880	0.10920811
99	0x3d6b8011	0.05749518
100	0x3c6938ee	0.0142347645
101	0x3d6faefc	0.058516487
102	0x3d1107fc	0.035408005
103	0xbb2fa031	-0.0026798362
104	0xbdab5aa9	-0.083669014
105	0xbd6f2955	-0.058389027
106	0x3cd2879e	0.025699433
107	0x3d1fe7a5	0.039039273
108	0xbd380ba1	-0.044932965
109	0xbd8096b1	-0.06278742
110	0x3d9cf3d9	0.07663698
111	0xbbcd565d	-0.006266399
112	0x3d9c533e	0.07633065
113	0x3d0447c8	0.03229502
114	0x3c9fcc88	0.019506708
115	0xbc044770	-0.008073673
116	0xbd2d0ea2	-0.042250283
117	0x3ce6c819	0.028171586
118	0xbdce8b02	-0.100851074
119	0xbd369cec	-0.044583246
120	0xbdb7a79a	-0.08967514
121	0xbafc7ead	-0.0019263827
122	0xbd8c1c03	-0.0684128
123	0xbd37a76d	-0.044837404
124	0xbd2baa75	-0.041910607
125	0x3d6319c9	0.055444513
126	0x3d9405c1	0.0722766
127	0x3dab8433	0.083748244
128	0xbcafa0df	-0.021439014
129	0x3dfc3572	0.123148814
130	0xbd963a5b	-0.07335349
131	0x3ca039d7	0.01955883
132	0x3d26154a	0.040547647
133	0xbddceaf5	-0.10787002
134	0x3d919045	0.07107595
135	0x3dc58110	0.09643757
136	0x3da6b74e	0.08140431
137	0x3d9da2f4	0.076970965
138	0x3da0d33f	0.07852792
139	0xbda92e3d	-0.082607724
140	0x3da74e09	0.08169181
141	0xbd5f350e	-0.054493956
142	0x3d301c7a	0.042995907
143	0xbdf800b1	-0.12109507
144	0xbcafd024	-0.021461554
145	0xbd830204	-0.06396869
146	0xbd595c56	-0.053066574
147	0xbdd5f27c	-0.10446641
148	0xbc91655f	-0.017748533
149	0xbd92893f	-0.07155084
150	0xbd91106f	-0.070832126
151	0xbdfd972b	-0.123823486
152	0x3d974c7f	0.07387637
153	0x3da77bc9	0.08177907
154	0xbbfc0a8c	-0.007691687
155	0x3da289eb	0.07936462
156	0x3d1ec82a	0.03876511
157	0xbd82ab9b	-0.063803874
158	0xbc2b84e7	-0.010468698
159	0x3d437dde	0.04772746
160	0xbb936d73	-0.0044991313
161	0xbc3bb9d3	-0.011457878
162	0xbc4be209	-0.012444028
163	0x3dbfb5bc	0.09360835
164	0xbdc66c8e	-0.09688674
165	0x3c935cf0	0.017988652
166	0xbdb34e1d	-0.08755133
167	0x3d862ea7	0.06551867
168	0xbc8abb8e	-0.016935136
169	0xbd8aab0a	-0.06770904
170	0xbdcc380c	-0.099716276
171	0xbcbf31cd	-0.023339177
172	0x3ca5646c	0.020189486
173	0x3d8d855b	0.06910201
174	0xbc8b6451	-0.017015608
175	0xbd64d9bd	-0.055871714
176	0xbe049eb0	-0.1295116
177	0xbc5614d0	-0.0130664855
178	0x3dc85f6d	0.09783826
179	0xbddeedbb	-0.10885187
180	0xbc8c90a7	-0.01715882
181	0x3dced2d8	0.10098809
182	0x3dff4bf5	0.124656595
183	0xbdaf9e6a	-0.08575137
184	0xbdd36699	-0.10322303
185	0x3deeb005	0.11654667
186	0xbd86cb2e	-0.06581722
187	0x3ce778e4	0.028255887
188	0xbe05c349	-0.13062777
189	0x3d7fb952	0.062432595
190	0x3bc5b549	0.0060335738
191	0xbc9698d3	-0.01838342
192	0xbd6ba8f5	-0.057534177
193	0x3d91b721	0.07115007
194	0xbd849594	-0.06473842
195	0xbd8f4ddd	-0.06997273
196	0xbdb418e1	-0.08793808
197	0x3dba0777	0.09083455
198	0x3c8b3f47	0.016997946
199	0xbc52993e	-0.012853919
200	0x3c9ee065	0.019394109
201	0x3d8fcfc0	0.07022047
202	0xbde6ca81	-0.11269093
203	0x3dbb0118	0.09131068
204	0x3d831bde	0.064017996
205	0x3d9eb25f	0.07748865
206	0xbcf00026	-0.029296946
207	0xbd8551fe	-0.065097794
208	0xbb555e2f	-0.0032557358
209	0x3e0acc02	0.13554385
210	0xbd8b5778	-0.06803793
211	0xbdee8cf1	-0.11647976
212	0xbc8530b1	-0.01625857
213	0x3d206e47	0.03916767
214	0xbdd69cc7	-0.10479122
215	0x3ac84009	0.0015277873
216	0x3c9f91c3	0.019478684
217	0xbc9e9f01	-0.019362928
218	0xbde0eea0	-0.10983014
219	0xbd5169c5	-0.05112626
220	0xbc52b074	-0.0128594525
221	0x3d880a20	0.06642556
222	0xbe0bc9a8	-0.13651145
223	0x3d1a127b	0.03761528
224	0xbb8743ef	-0.0041279714
225	0x3dbb12ba	0.09134431
226	0xbda0f8d1	-0.07859958
227	0x3d6db1d6	0.058030926
228	0xbb1c3723	-0.0023836575
229	0x3d735140	0.059403658
230	0xbddb9117	-0.10721033
231	0xbb85c626	-0.004082459
232	0xbd863e95	-0.06554905
233	0x3d6b5e88	0.0574632
234	0xbe0790d4	-0.13238841
235	0x3da8f9ff	0.08250808
236	0xbdb6326c	-0.08896336
237	0x3dc22e91	0.09481538
238	0xbcc94398	-0.024568364
239	0xbdafe94e	-0.08589421
240	0x3cc0c731	0.023532482
241	0xbdc33ee8	-0.09533483
242	0x3d3277e1	0.043571357
243	0x3e04479b	0.1291794
244	0x3c03ba23	0.008039984
245	0xbdb0f572	-0.08640565
246	0x3da2fb23	0.07958057
247	0x3cfc7d58	0.030821487
248	0xbb9d3df6	-0.004798646
249	0x3d8ec1a8	0.06970531
250	0xbdd8cf63	-0.10586431
251	0xbd3a552c	-0.045491382
252	0x3d5047ac	0.0508496
253	0xbbdb820d	-0.006698853
254	0xbd70c900	-0.05878544
255	0xbdd47feb	-0.10375961

bias f4 [64]
0	0xbdce9201	-0.10086442
1	0x3ca75c18	0.020429656
2	0xbd913786	-0.070906684
3	0xbda8b39f	-0.08237385
4	0xbc688c09	-0.014193543
5	0x3d47844e	0.04871016
6	0x3d26ad3a	0.040692545
7	0xbda38c2a	-0.079857185
8	0xbdc684e1	-0.096933134
9	0x3de30d12	0.11086477
10	0x3d83392a	0.064073876
11	0xbca3d071	-0.019996854
12	0x3ddc672f	0.10761868
13	0xbd8360fb	-0.06414982
14	0xba29c144	-0.0006475637
15	0x3d7093e2	0.058734782
16	0xbdd60f15	-0.104520954
17	0x3db6669d	0.08906291
18	0x3dc762a6	0.097356126
19	0xbd5c8314	-0.053835943
20	0xbbcb6fda	-0.006208402
21	0x3a7bf83e	0.0009611881
22	0x3d17ba39	0.03704283
23	0xbd49f270	-0.049303472
24	0xbdbded4e	-0.09273778
25	0x3b8f0e0c	0.004365688
26	0x3cb6bdcd	0.022307301
27	0xbd69703b	-0.056991797
28	0x3dcc7519	0.09983272
29	0xbcbf9073	-0.023384308
30	0x3dd921fb	0.106021844
31	0xbc32d3de	-0.010914771
32	0xbd35fa01	-0.044427875
33	0xbc5e48b9	-0.013567143
34	0x3db2801f	0.087158434
35	0x3d120213	0.03564651
36	0x3dbad319	0.09122295
37	0x3db5a533	0.088694
38	0xbde0a072	-0.109681025
39	0x3da92501	0.08259011
40	0xbd84d47b	-0.0648584
41	0x3d07e6fd	0.033179272
42	0xbd9c5924	-0.0763419
43	0x3d2d618e	0.042329364
44	0xbcd10417	-0.025514646
45	0x3ddc89a5	0.10768441
46	0x3de73944	0.112902194
47	0x3c917b51	0.017758997
48	0xbdb31efb	-0.087461434
49	0xbc66c583	-0.014085176
50	0x3bca0e10	0.006166227
51	0xbd20a075	-0.039215524
52	0x3c528fd7	0.012851677
53	0xbde9a3b8	-0.1140818
54	0x3dbf61b1	0.09344805
55	0xbdb34c2b	-0.08754762
56	0xbda6ba30	-0.08140981
57	0x3ceece44	0.02915109
58	0x3db37c45	0.08763937
59	0x3cf0766e	0.029353347
60	0xbddb07e9	-0.10694868
61	0x3deee47b	0.11664673
62	0x3d86ca96	0.06581609
63	0x3ddc98cb	0.107713304
