tests/python/kaolin/physics/simplicits/regression_test_data/cube_weights_fcn_32_handles.pth (torch, 190816 bytes, 26 tensors)

weight f4 [64, 3]
00000000: add3 2b3e 6a64 a83e f314 d23c 7e12 19bf
00000010: 3c4d 0cbe 3357 183f 8be5 c53e 01d8 2ebf
00000020: b72e 463e e336 533e 2e88 893e 7a9e af3d
00000030: f24d b1be 5ff8 45be 479c 3abe 506c 83be
00000040: 4033 21bf e496 1bbe 816c b53e 8c4d febe
00000050: 5b4f 19bf 7a18 003e 6bd2 b8be d628 aa3e
00000060: 7a5e e43e 7d94 80be 1ee4 9a3e 39e1 0cbf
00000070: c385 e7be a1a4 d03e e10e 463e 7103 9bbe
00000080: 7e15 0c3f 16de e63e 39e4 b03e 2bdb b53e
00000090: 5618 dd3d 6fcd 353e 9864 eebe 7c79 9a3e
000000a0: a02c db3e 4a5c f33d 842f 3a3e 2b6e fe3e
000000b0: 960f 0ebf 79b4 49be 19bb 7c3e 095f 833d
000000c0: db08 40be 7c95 5d3e b4f5 04bf 25a7 f33d
000000d0: f589 833d 8a79 c0be 2e0c 0e3f fd0e a5be
000000e0: a21a efbe cc2d 47be d481 053e a6f7 6ebe
000000f0: 8387 923e 26a4 4a3e ad35 843e bab2 9bbe
00000100: 73dc 99bd 7fb0 603d 82fd 29bc 8ab8 ecbe
00000110: 1c20 d03e 4603 2dbe 1140 22bc 27f4 a3be
00000120: 4e6e f5be a39b cfbe 9876 34be 31e8 893e
00000130: 94fb 253e df81 93be 009f e2be bec4 293e
00000140: 6c53 e4bc 6c0f f3be 0cfe 0cbf dbf4 8d3e
00000150: edd4 5b3e b314 ce3e 5316 18bf ff28 2c3d
00000160: ccfd d1bd 003a 7d3d f7c2 16be 9098 7dbe
00000170: 803c 8e3e c9a6 cd3d 3cc1 00bf ac18 febe
00000180: 8d3d 183f 3333 d1be ac44 863e efe5 0dbf
00000190: 9a8b 28bd 5568 9b3e 5545 ba3e ec2a f9be
000001a0: d82f f0bd d396 813e f26d 183f 6953 a4be
000001b0: 14b1 0fbf e32f a3be 70ed 033f dca4 003f
000001c0: c762 cc3e 6056 09bf 3a66 883e 32d9 34bd
000001d0: b931 b8be b968 80be b396 e2be a370 42be
000001e0: 8294 803e 98a4 a6be cd08 d53e c97b 973e
000001f0: 4f31 01bf a714 c6be cfec 1fbe 57fa fcbe
00000200: 017b 82be eae5 a43e c810 a53d 3e01 f3be
00000210: 1399 9cbd 4b84 983e dbad 08bf 77a5 20bf
00000220: dc8d 823e 998c 113f d959 dabe e7c7 1d3f
00000230: e6a2 00bf 16db 4f3e 0572 933c 2515 d9be
00000240: 9a87 a13e c8fe e0be 0d86 47be 39e5 2e3e
00000250: 1b3a 91be e372 493e b97f e2bd 5447 60be
00000260: fa4a d0bd 5745 a8be 57d1 023f aca0 dd3d
00000270: 2b4a 1c3f cf88 cb3e 3d85 e03e ba13 6b3e
00000280: afd5 0dbf 9391 f2be 801e bebe e5cc 1f3f
00000290: 20f9 b43c 1300 3bbe ab1c 1dbe c166 16bf
000002a0: 5257 a93e e04d 0e3d f238 0a3f f152 87be
000002b0: 0a2d ad3d 7266 023f 990f 213f 302f 05bf
000002c0: 93ee 96be a629 003f 6cec 82be 5cba ec3d
000002d0: e9a4 d7be 95bd a23e 9c37 1ebe 67d1 6dbd
000002e0: f085 22bd 304f 793d 7069 c73e d8ba 9cbd
000002f0: 71db 07bf a0cf 16bf 85ab caba 28a9 e73e
0.16779967 0.3288911 0.025644755 -0.5979384 -0.13701338 0.59508055 0.3865169 -0.68298346
0.19353758 0.20626406 0.2686171 0.08575149 -0.3462978 -0.19333027 -0.18223678 -0.25668573
-0.62968826 -0.15194279 0.35434344 -0.4966854 -0.5988671 0.12509337 -0.36098036 0.3323428
0.4460333 -0.25113288 0.30252165 -0.5503116 -0.4521924 0.40750602 0.19341613 -0.30276063
0.54720294 0.45091313 0.3454912 0.35518774 0.10795657 0.17754148 -0.46561122 0.3017081
0.42807484 0.11882837 0.18182188 0.49693426 -0.5549253 -0.19697751 0.24680747 0.06414611
-0.18753378 0.21639055 -0.51937413 0.11897115 0.064227976 -0.37592727 0.55487335 -0.32237998
-0.46700007 -0.19451064 0.13037807 -0.23336658 0.28619012 0.1978918 0.258222 -0.30409795
-0.075127505 0.05485582 -0.010375382 -0.46234542 0.40649498 -0.1689578 -0.00990297 -0.3202221
-0.47935718 -0.4054843 -0.17623365 0.2693496 0.1620925 -0.2881002 -0.44261932 0.16578957
-0.02787181 -0.47472703 -0.55075145 0.27725872 0.21467943 0.40250167 -0.59409064 0.042031284
-0.10253486 0.06182289 -0.1472281 -0.24765229 0.27780533 0.10041577 -0.5029485 -0.49628198
0.5946892 -0.40859374 0.26224267 -0.55428976 -0.04114876 0.30353037 0.3638102 -0.4866556
-0.117278755 0.25310382 0.59542763 -0.32094887 -0.56129575 -0.31872472 0.51534176 0.50251555
0.3991911 -0.5364742 0.26640493 -0.044152446 -0.35975435 -0.25079897 -0.442556 -0.1898828
0.25113302 -0.3254745 0.41608277 0.29586628 -0.50465864 -0.3868763 -0.15617679 -0.49409744
-0.2548447 0.3220666 0.080598414 -0.47461885 -0.07646384 0.29788432 -0.5339028 -0.6275248
0.25498855 0.5685516 -0.42646673 0.6163315 -0.50248563 0.20298418 0.017998705 -0.42398944
0.31548768 -0.43944383 -0.1948473 0.17079629 -0.28364643 0.19672732 -0.110595174 -0.2190221
-0.10170551 -0.32865402 0.5110068 0.10821661 0.6105067 0.39752814 0.43851653 0.22956744
-0.5540418 -0.4737669 -0.37132645 0.6242202 0.022091448 -0.18261747 -0.15342967 -0.5875054
0.33074433 0.034742236 0.5399314 -0.26430467 0.08455856 0.5093757 0.62914425 -0.5202513
-0.29478893 0.5006355 -0.25571 0.11558983 -0.42118004 0.31785265 -0.15450901 -0.05806103
-0.039678514 0.060866535 0.3894763 -0.07652825 -0.53069216 -0.5891056 -0.0015462494 0.45246243

bias f4 [64]
00000000: 3868 4abe 06d4 043f 6f75 e33e 3b33 92be
00000010: bbcb 6b3e c5c9 e63e 288d 013f 89da e93d
00000020: fc80 a1be 7d81 a9be 6f45 a7be 0014 8abe
00000030: ef36 123d 165f 273e 0925 fe3e d024 283e
00000040: 28b2 d43d 03e3 3f3e 2520 343c 3b53 dabe
00000050: e917 6d3c 6682 903e 8fc3 373e 805d fc3e
00000060: 8a6c 003f 66f8 333d 3493 7abe a49a c7bc
00000070: 2ba2 6b3c 8a29 74be dc3a b23e c512 763e
00000080: 7f54 0f3d eaef 1ebe c5a3 d73e 47b0 9cbe
00000090: cbf4 0abe 50ff 443e d84c 693e e88b 38bd
000000a0: 8ce1 88be 07f8 623d 8131 6b3c 1703 8fbe
000000b0: f061 9abe 9899 86be 9d1a d1be d4b7 81be
000000c0: b74c 1b3d 112e c03e afc1 15bd ef8c 8a3d
000000d0: a3fc e5be d3b0 47be fe1a 8dbe bd3f f73e
000000e0: 0297 efbe db55 1a3e 15f7 d0be 9295 9abc
000000f0: 041e 8c3e ea23 cf3c 65ce c13e 2393 653e
-0.19766319 0.5188602 0.44425532 -0.2855471 0.23026936 0.45075813 0.5060601 0.114186354
-0.3154372 -0.33106604 -0.3267016 -0.26968384 0.03569692 0.16344866 0.4963763 0.16420293
0.10385543 0.18738942 0.010993992 -0.42641625 0.014471033 0.28224486 0.17945693 0.49290085
0.5016562 0.043938063 -0.24470216 -0.02436573 0.014381926 -0.23843971 0.3481053 0.24030598
0.03499269 -0.15521207 0.42117134 -0.3060324 -0.13569944 0.19238019 0.2278322 -0.0450553
-0.2673458 0.05541232 0.014355064 -0.27932045 -0.30152845 -0.26289058 -0.40840617 -0.25335562
0.037914958 0.37535146 -0.036561664 0.06765162 -0.4491931 -0.19501047 -0.27559656 0.48290816
-0.46794897 0.15071814 -0.4081351 -0.018870149 0.2736665 0.02528568 0.3785278 0.2241941

weight f4 [64, 64]
00000000: cc0b 9b3e c166 3b3c ec4f 69bd e138 663e
00000010: 41a6 373c b3d2 68be b37b a7bd 3ede 473d
00000020: 6f97 c93d 5df8 24bd 0ad9 0a3d a2b0 533d
00000030: d164 3f3d ee63 083e 10c9 0f3d f549 a03a
00000040: 7b68 cbbc 0167 13be f34a b4bc ab31 0a3e
00000050: 6827 943c e298 60bc d7b1 3b3d ece5 7abd
00000060: ecb2 53be b547 033e 6750 9e3d 719c a5bd
00000070: 64ef f93d 2231 643d 2cbc 7abd 2102 adbd
00000080: 9f0a 093e 9afe debd 3c43 19bd 376f 923e
00000090: b37f c53d 1f6b 0d3e 3dd6 9bbd 1666 d9bd
000000a0: 4e5c adbb 6945 c5bc 2078 a7bd 43e2 af3b
000000b0: 6e88 873a e0a1 fd3d 8060 90bc 1fc8 a6bd
000000c0: 646c c9bd fb6f debd 5c2d f1bd f0c4 943d
000000d0: defe e93d 1183 9e3d f0ee b23d 9248 f7be
000000e0: 40cc da3e 0612 2cbd 4475 293d ccc4 a93d
000000f0: 801d 24be 339a 733d cfa1 14be bdcc 31bc
00000100: d0a2 35be 5e38 ae3d 7dbb 5abd 5169 5bbe
00000110: d6a1 d63c bcf8 243e 6198 4b3d abf0 cd3d
00000120: 4697 9ebe bd21 0c3d 2f91 42bd 295d e7bd
00000130: bec3 28be 9410 e23d a28c c63d 0b1e 173e
00000140: 3510 d6bd 7f04 a33d 9ffa 71be 6b3b 72bd
00000150: 87d6 913d 7c6b 153e 36c9 07bc 84ed 503e
00000160: 9006 b83e da8c ec3c e7ff d93d 0890 81bd
00000170: bece 6fbe 7f60 1dbd ec55 443e 3f82 d0bd
00000180: 9a81 26be bb33 cb3d a2b8 9dbd 2ae0 d6bd
00000190: b5fc db3d 36e2 ecbd e564 cd3c bba5 a5bd
000001a0: 7b45 55ba 84d9 08be 9dca 40bc 904c 01be
000001b0: 6297 35be d63d 593e 6da0 77bc 77ee 303d
000001c0: 5cda 4fbe 1a1a 1dbd 2806 b03a 8fcc 363e
000001d0: 7319 64be 974a 313d 3d86 bc3d 66e8 a13d
000001e0: 82aa 2cbe 6c9b c33d 91b8 24be b55e 6abe
000001f0: 08ac 5d3e 16e6 34bd ba11 6abc 638c 963e
00000200: f5d9 dd3d e979 09be fd13 85bd 7050 393b
00000210: 94d2 37be 588a bfbd 0924 443e 8046 723d
00000220: 1692 953d 78f1 00be e3d3 84bc 48ce ff3d
00000230: 801f 723e ebe6 063e 5a9a ef3d 1176 80bd
00000240: c9a9 b3bd 9e9c a43d 5ffd 3f3e 3c05 02be
00000250: 8949 d33c 1dee 02be 6545 12bc 241f a53d
00000260: ca2a 5cbe 40e6 583e 4b97 fe3c 4613 66bd
00000270: 3bab c83d d418 ac3c 216b b3bd 21db 41bd
00000280: 4206 23bd 23b5 c33c e845 b3bb f4af 983c
00000290: f847 46bc 171a 423d 55e9 43bd 5499 1ebe
000002a0: bcb0 8d3c ac99 ec3d 4f6f aebd bf9e 90bd
000002b0: ea06 87bd cf5a 7fbe 6b56 1a3c ac9d d43d
000002c0: 5635 9bbd 8df9 85bd c50d b5bd 1395 65bd
000002d0: 7b03 2f3d ac57 663d 8cfa 3abe 7e33 08bc
000002e0: 3080 dfbd 6661 583d 9349 553b db56 d33d
000002f0: 366f f73c bc39 22bd 82ad 363e 040c bfbd
00000300: 708c 02be 5622 d23d a281 b73d d0be cbbd
00000310: 726b dfbc c206 04bd b211 1d3c f411 9e3d
00000320: cbb8 d33d 51d3 ff3d e756 f13c 1ca8 f3bd
00000330: c336 0a3d d95b ffbd b613 efbc ad2a 1dbd
00000340: ddcf 1d3c ea89 d03d ccea 803c 505b 883c
00000350: 011e e43d 11d6 07be 816a 90bd 89ac 04bc
00000360: 0753 cebd b9d0 413c bec5 73bd 42e8 c53d
00000370: 0bbe 15be 50d3 94bd a797 a53d 75e2 d93c
00000380: 9646 8f3c 1301 993d fde4 113d d518 b737
00000390: 9a9e 6fbd c5b7 ce3d 11e0 e3bc 499f 6fbd
000003a0: 1c98 e33c aefb 8dbd 59b7 e6bd 9b52 a03b
000003b0: 94a0 68bd 3cf5 cebd 1a5c 7ebc fd50 403d
000003c0: 00a3 123e df3b 4ebd c08a acbc c290 dabd
000003d0: b5be 37bb 6f22 0e3d b6cd 07be 205b 11bd
000003e0: a79b 703d 9f51 c43d 08bb 11bd f9e1 acbd
000003f0: be76 eb3b 2954 393d 1671 53bd 0dc9 17bc
0.30282438 0.011438073 -0.056960985 0.22482635 0.011209072 -0.22736625 -0.08177891 0.04879593
0.09843337 -0.04027592 0.03389839 0.051682122 0.046727005 0.1331937 0.035103858 0.0012229072
-0.024830094 -0.14394762 -0.022008395 0.1349551 0.018085197 -0.013708325 0.0458239 -0.061254427
-0.20673722 0.12820323 0.07730179 -0.080864795 0.12203863 0.05571092 -0.06121461 -0.08447672
0.13382958 -0.10888405 -0.037417635 0.28600475 0.09643497 0.13810395 -0.07609222 -0.106151745
-0.0052905446 -0.024080949 -0.08177209 0.0053675487 0.0010340342 0.12384391 -0.01762414 -0.08143639
-0.09835127 -0.10861202 -0.1177623 0.07264125 0.11425565 0.07739843 0.0873698 -0.48297554
0.42733955 -0.042009376 0.0413716 0.08289489 -0.16026878 0.059473228 -0.1451485 -0.010852036
-0.1773789 0.08506845 -0.05340146 -0.21426894 0.026200216 0.1611051 0.049705867 0.100556694
-0.30974787 0.034211863 -0.04750174 -0.11297066 -0.1648092 0.11038318 0.09694792 0.14757554
-0.1045231 0.07959842 -0.2363076 -0.059138697 0.07120996 0.14591783 -0.0082877185 0.20403105
0.35942507 0.028875757 0.106445126 -0.063263 -0.2341871 -0.038422104 0.19173402 -0.101810925
-0.16260377 0.09921976 -0.077012315 -0.10491975 0.107415594 -0.11566584 0.025072524 -0.08088251
-0.00081356586 -0.13364226 -0.011767057 -0.12626863 -0.17733529 0.21214995 -0.015113932 0.043196168
-0.20298141 -0.03835497 0.0013429569 0.1785147 -0.22275333 0.043284025 0.092052914 0.079056546
-0.16861919 0.09551129 -0.16086031 -0.2288769 0.21647656 -0.04416474 -0.014286453 0.29403982
0.10832588 -0.13425411 -0.06497953 0.0028276704 -0.17951423 -0.09352559 0.19154371 0.059149265
0.07303254 -0.12592113 -0.016214317 0.12490517 0.23644829 0.13174026 0.11699362 -0.062725194
-0.08772618 0.08037685 0.18748997 -0.1269731 0.0257919 -0.12786146 -0.008927678 0.0806258
-0.21500698 0.21181583 0.031078001 -0.056170724 0.097982846 0.021007933 -0.087606676 -0.04732812
-0.03980089 0.023890084 -0.00547098 0.018638588 -0.01210212 0.047388162 -0.047829945 -0.15488178
0.017296188 0.11552748 -0.08517324 -0.070615284 -0.06593116 -0.24936984 0.009420018 0.10381636
-0.075785324 -0.06541739 -0.08840517 -0.05605037 0.04272793 0.056235954 -0.18259639 -0.008313058
-0.10913122 0.05282726 0.0032545074 0.10319301 0.030204397 -0.03960584 0.17839625 -0.09328464
-0.12748885 0.10260455 0.08960272 -0.09948504 -0.027272914 -0.032233007 0.009586738 0.07718268
0.10337981 0.12491477 0.029460384 -0.11897299 0.03374363 -0.124686904 -0.029184204 -0.038370777
0.009632078 0.10182555 0.01573696 0.016645104 0.11138535 -0.13265254 -0.07051564 -0.008097776
-0.1007443 0.0118295485 -0.059514754 0.0966344 -0.14623277 -0.07266867 0.08085566 0.026597241
0.017489713 0.07470908 0.03561877 2.1826863e-05 -0.058500864 0.10093645 -0.027816804 -0.058501516
0.027782492 -0.0693277 -0.112654395 0.00489266 -0.056793764 -0.101053685 -0.015524888 0.046952236
0.14319992 -0.050350066 -0.021062255 -0.106721416 -0.0028037254 0.034700807 -0.13262066 -0.035487294
0.05874219 0.095858805 -0.035578758 -0.08441538 0.007185786 0.045246277 -0.05162152 -0.009264243

bias f4 [64]
00000000: 8440 cbbd c6e1 323e 88a5 a9bd c5c8 63bd
00000010: e091 afbd 9978 86bc 5c32 273c c67c 03be
00000020: e5e0 863d 6ec8 5f3c 50df 03bc fafe cb3c
00000030: 8805 eabd 3da0 2c3d b02e 1abd 2026 0b3d
00000040: d4a6 603d 3d1a 4ebd 264c c8bc 2f9e e5bd
00000050: daf6 d6bd 02bd 123c c738 92bd 44fc 9bbd
00000060: 696c 35bc 60a9 5dbd e26b 4fbd 73a6 edbd
00000070: 7812 e83d 0c27 293d 7133 c6bc cd97 8f3b
00000080: 0d36 a1bd 4461 a2bd 7e65 933b c69a e13d
00000090: 539e 313e 56d7 e8bd c203 f73d 6af0 2bbd
000000a0: a7b5 adbd e0e1 ea3d 3c2a b23d 1c5e e63d
000000b0: f937 b138 216e 42bd 4d00 19bd e90d 703c
000000c0: 6513 dc3d 007f 783d 0a32 9b3d 0024 953c
000000d0: bfed ba3d f8a5 22bd 1400 92bd 728f fa3d
000000e0: a2b1 22be c12f 06bc 9086 8ebc a3f4 bf3b
000000f0: 19db 58bd 725b f33b a162 07bc 8ee5 b33d
-0.09924415 0.17468938 -0.08283526 -0.05561139 -0.08572745 -0.016414927 0.010204878 -0.12840566
0.06585864 0.013658626 -0.008048847 0.024901856 -0.11426836 0.042145003 -0.03764218 0.033971906
0.0548466 -0.05031799 -0.024450373 -0.11211812 -0.10496302 0.008956196 -0.07139736 -0.07616475
-0.01107321 -0.054116607 -0.050639994 -0.11604013 0.11331648 0.041297004 -0.024194451 0.0043821097
-0.078716375 -0.07928708 0.004498183 0.11015849 0.17345552 -0.11369197 0.120612636 -0.041977324
-0.08481913 0.114688635 0.08699462 0.11248419 8.4504434e-05 -0.04746831 -0.037353802 0.014651754
0.10745887 0.06066799 0.075779036 0.018205643 0.09127378 -0.03970906 -0.07128921 0.12234391
-0.15888074 -0.008190096 -0.017398149 0.0058580204 -0.052943323 0.0074266726 -0.008263261 0.087840185

weight f4 [64, 64]
00000000: 288e f7bc 12ef eabd 7f99 203b 8659 e53c
00000010: d8c6 883d dcfd 24bc 78f6 8cbd 2126 d53d
00000020: 8fcf 29bd ceaa 943c f2a2 b73d 4bf2 c2bd
00000030: a534 863d fa28 6dbd 9c5e b9bd 6e30 933d
00000040: c384 a5bb a078 913d 78d2 88bd 5506 a73c
00000050: 9efc 92bd 9381 043e 45c4 04be bd4f b4bd
00000060: 9f38 9b3d b580 c83d 9454 983d 36a6 973c
00000070: 000c dcbd f233 c03d f20a 4bbc 1e2d d43d
00000080: ce5d 82bd a4d2 9c3d 34ee 2e3d 6f2a 8fbd
00000090: 1ee3 34b9 de49 50bc 6e14 343d 84a9 98bc
000000a0: be0d 5b3d 19b7 86bd 6d6b 7e3d 4f59 503d
000000b0: 1d18 c3bd cab3 86bd 9293 1f3d f393 b3bc
000000c0: 4703 db3d cf72 a13d 4216 ce3d f4f5 be3d
000000d0: 7483 c6bc 3c37 4f3d 9881 aa3a 86a0 82bc
000000e0: de04 d03d 6ea5 5cbd 8ef2 953d 2b13 ff3d
000000f0: 39e2 b73d dbfc e8bb 51e4 d63b 0a16 fb3c
00000100: 873e a9bc 4f6b a43c 90b3 6cbc 5b4d 683d
00000110: 7ab5 153e fb8e b7bd dbc0 913d 990f 85bd
00000120: 43b0 32be 59ea b73d a45b 36be 5687 583d
00000130: 81a6 f93a 2a25 f03d eff2 253e 2cf9 b9bd
00000140: 7885 e1bc b205 d43d 6855 f33d 4fe4 c7bd
00000150: 7b66 be3d 345b 043e d48e 64be dfb3 e1bd
00000160: b69b 01bd 27a4 f63a 0c3e 293e bddd ae3d
00000170: f262 78bd e860 c73c ed41 143e 95d7 3ebc
00000180: 92ec a03b 694d dbbd 857a 66be 1e43 2c3e
00000190: 7316 94bc dec0 e6bb ef7b 29bd ade8 b13d
000001a0: 4fc5 523d 5e2e febc 168c edbc a04c 343e
000001b0: 9403 a03d d56f 3c3d cb30 973d 67fd 17be
000001c0: edab 2bbe bdad 3b3d 7fdf d33b 793a 673e
000001d0: 0c97 cb3d 6d80 c539 811c 1bbe 65b6 28bd
000001e0: 228f dd3d b13d eb3c 40b1 19be 37f1 50be
000001f0: 98ba b73d fb6b 863e 0c15 31bd bcef 58bd
00000200: cbd2 243e 8c54 8d3e 3a04 e1bd b6e8 a9bd
00000210: e2f7 263e 5d09 f6bc 9022 04be ce02 223e
00000220: a145 d1bb 8a26 e53d 2ed1 8abd 6cda 583d
00000230: 338f 88bc bff5 a1be 6092 76bc f77a 823c
00000240: 86bf d73c e258 b63d 3cae d33d e935 923d
00000250: b7e5 3c3d 769d 313d 6fc9 41be 9d71 e1bd
00000260: 3fa4 753d d73c 6d3e 1edc 333e e0ac 9e3d
00000270: a038 ac3d d928 95bd ae56 1c3e 6758 f0bc
00000280: 24e1 fbbd fcea c2bd 416b 2f3d b91a 5a3d
00000290: 5d0c eebd 36b6 4fbe 4ba3 aebc d302 86bd
000002a0: ed50 02bc 7d98 2e3c 8c63 a73d 12b0 ae3d
000002b0: deb2 1f3e 14e2 8b3b fd5e 153d fd8f 9cbc
000002c0: df24 5abe dd84 2a3e 5a2a 04be 7fe7 eb3d
000002d0: 5a5a c83c 28b3 973d daab a83d 88be 563e
000002e0: f42f f7bb d9f2 343c 37fc b5bc 720d 103e
000002f0: 75f6 0dbe 08a0 243e 3505 fa3c 01f2 79bc
00000300: 4bd3 cc3c 57d0 1f3e 0007 80bd 487e 963d
00000310: 7d16 ffbd bfa1 1d3e dc68 923d 7da2 573d
00000320: 3044 663e d842 f1bd 4d1e 003e 4e31 213e
00000330: 62e0 043e c068 5cbe a307 3dbe 90d0 f2bc
00000340: 4462 12be fb04 92bd cafb 2ebe 3803 263e
00000350: c625 0bbd 8ec9 d0bd 01ac 353e ba48 b03d
00000360: a649 f63d c901 983c b0d5 41bc 2344 d1bb
00000370: 7346 82bd 3631 393e abf2 bfbd 58ef e5bc
00000380: 8ef8 283e f829 153e 0473 233e dade 3fbd
00000390: 0061 08be 9366 43bd 3571 1bbd 008a 0fbe
000003a0: 6222 25bd de62 963d a4ff 3cbe 3770 49bd
000003b0: d856 f1bd 6772 a3bd 2e43 a53c 9c65 bd3c
000003c0: 7e99 693b f701 453e 37ed 833d 167a 5fbe
000003d0: fce2 273e 2188 713d 3853 3e3e fcb2 9dbb
000003e0: 5e60 acbc ebdf 4bbd 9384 723e ca87 633e
000003f0: e316 b13d f171 d1bd 6773 c2bd b2fd febc
-0.030219153 -0.1147138 0.0024505553 0.02799679 0.066785514 -0.01007029 -0.06882948 0.10407663
-0.04145771 0.018147852 0.08966626 -0.0951887 0.0655301 -0.057900406 -0.090512484 0.071869716
-0.005051227 0.071030855 -0.06680769 0.020388762 -0.07177089 0.12940054 -0.12965496 -0.08804271
0.07579159 0.09790174 0.07438007 0.018511873 -0.10744476 0.09384908 -0.012392746 0.10360168
-0.06365548 0.07657364 0.042707637 -0.069905154 -0.00017250745 -0.012712924 0.043964796 -0.018635519
0.053479902 -0.06577892 0.062114168 0.05086642 -0.095260836 -0.06577261 0.038959093 -0.021921134
0.106939845 0.07883226 0.10062839 0.093242556 -0.024232604 0.050589785 0.0013008593 -0.015945684
0.10157178 -0.053868704 0.07321654 0.12454828 0.089786954 -0.007110221 0.006557979 0.030650157
-0.020659698 0.0200707 -0.014447108 0.056714397 0.14620009 -0.08962818 0.071168624 -0.06497116
-0.17450051 0.08980245 -0.17808396 0.05286344 0.0019046814 0.117258385 0.16205953 -0.09080729
-0.027529463 0.10352649 0.11881524 -0.09760343 0.0929689 0.12925416 -0.2232011 -0.11020636
-0.03164264 0.0018817232 0.16527575 0.08538387 -0.060641237 0.0243382 0.14478274 -0.011648078
0.004911014 -0.10708124 -0.22507675 0.16822478 -0.01807711 -0.0070420345 -0.041377958 0.086869575
0.0514577 -0.031027969 -0.028997462 0.17607355 0.078131825 0.04600509 0.073823534 -0.14842759
-0.16764803 0.045819987 0.006465852 0.225809 0.09940919 0.00037670453 -0.15147592 -0.04118957
0.10818316 0.02871594 -0.15009022 -0.20404516 0.08971137 0.26254258 -0.043232962 -0.052963004
0.16096036 0.27603567 -0.10987134 -0.08296339 0.16305497 -0.030033762 -0.1290381 0.15821382
-0.0063864742 0.11188991 -0.06778179 0.05294268 -0.016669845 -0.31632802 -0.015049547 0.015927775
0.026336443 0.08903672 0.10335967 0.07139189 0.04611751 0.043363057 -0.18924497 -0.11007998
0.05997109 0.2316774 0.17564437 0.07747817 0.08409238 -0.07283182 0.1526744 -0.029339029
-0.122988015 -0.09517476 0.042826895 0.05324814 -0.11623452 -0.20284352 -0.021318099 -0.065435074
-0.0079538645 0.010656473 0.08173284 0.085296765 0.15595576 0.004268894 0.03646754 -0.019111628
-0.21303128 0.16652246 -0.12906781 0.11518764 0.024457145 0.07407218 0.08235903 0.2097112
-0.0075435583 0.0110442275 -0.022214992 0.14067629 -0.13863547 0.16076672 0.030520061 -0.015255452
0.025003096 0.15606819 -0.06251335 0.07348305 -0.12455461 0.15393732 0.071489066 0.052645195
0.22486949 -0.117803276 0.12511559 0.15741464 0.1297622 -0.21524334 -0.18459944 -0.029640466
-0.14295298 -0.07129856 -0.17088237 0.16212165 -0.03397157 -0.101946935 0.17741396 0.086076215
0.12025766 0.018555539 -0.011830732 -0.0063862964 -0.06361093 0.18085179 -0.09372457 -0.02806823
0.16501066 0.14566791 0.15961844 -0.046843387 -0.13318253 -0.047705244 -0.03794976 -0.14017487
-0.040315993 0.07343076 -0.18456894 -0.049179282 -0.11784142 -0.07980805 0.020173635 0.02311974
0.0035644467 0.19239031 0.064417295 -0.21823916 0.16395181 0.058967713 0.18586433 -0.0048125964
-0.021042045 -0.04977409 0.23683386 0.22219768 0.086469434 -0.10226811 -0.094946675 -0.03112683

bias f4 [64]
00000000: 21e7 873d fea2 0d3e 8195 383d 454a 8f3c
00000010: 183f 06be 48ca 08be 3736 853d 3df3 f33c
00000020: db42 9abd 7f24 62bd 7090 69bd 2c8b 76bd
00000030: 6ca3 98bb 55a1 713c 2c43 93bd 7358 b4bd
00000040: ad6b 43bd 0ba8 cdbc 5976 b23d 0c0e 8b3d
00000050: 420a c3bd 83d6 c7bd c76f 02be 49b1 083e
00000060: c9bf d0bd de9e 00bd 369a d63d 6451 423e
00000070: d2eb a53d 2810 d33d 60d9 503d 1212 d9bd
00000080: 79de 2b3e d307 0abe 3d22 acbd 16b1 ebbd
00000090: c2fa ee3d 0848 b53d 4db5 3dbb 7758 fe3c
000000a0: ea16 97bd a6af 95bc 9f39 1e3c 8bc7 25bd
000000b0: 91e2 aa3a 57c0 edbd 90ba 183d 055c c4bd
000000c0: 0817 fabd 451b 2e3d d8ee 253d 77d1 fbbd
000000d0: 13d1 f43c e8a7 b83d eb2c 033e 2f9c 043e
000000e0: ba16 703d 3016 0b3e c541 c43b 10a8 c63c
000000f0: 561a 90bd f80f 4cbc ffb4 53bd 63f1 1c3e
0.06635881 0.13831708 0.045064453 0.01749147 -0.13110006 -0.13358414 0.06504481 0.029779071
-0.07532283 -0.055210587 -0.057022512 -0.06019132 -0.0046581533 0.014747937 -0.071905464 -0.08805933
-0.04771011 -0.025104543 0.08713979 0.067897886 -0.09523441 -0.09757712 -0.12737952 0.13348879
-0.1019283 -0.031401508 0.10478632 0.1897636 0.0810162 0.10305816 0.050988555 -0.1059915
0.16784085 -0.13479547 -0.08404968 -0.11508386 0.11668922 0.088516295 -0.0028947175 0.031048043
-0.073774174 -0.018272232 0.009657293 -0.040473502 0.0013037493 -0.116089515 0.037287295 -0.09587864
-0.12211424 0.042506475 0.040510982 -0.122958116 0.02988485 0.090164006 0.12810104 0.12950204
0.058615424 0.13582683 0.0059892857 0.02425006 -0.07036273 -0.012454979 -0.051686283 0.15326457

weight f4 [64, 64]
00000000: 5563 18bc d05b 343e ae7e ea3d 615c 31be
00000010: 252a a1bd 4ed6 56bd 7c7f e5bd 8bd1 223e
00000020: 8b8d c9bd e56f c63d c023 0b3c c9e6 7fbd
00000030: 69f6 efbd 38e3 d53d 8da3 17be e4a8 81bd
00000040: f6e0 bd3d ff46 a0bc 16bd e83d 4e5e 9d3b
00000050: 2bf4 2bbe b34c 27be 6bcd 0cbd 4e2f cebd
00000060: b6f8 c2bd 2bf9 5c3d 5322 ef3d 0550 94bd
00000070: e8e7 703d 9938 a8bc 0e67 6bbd a757 38bd
00000080: 0722 6cbc ff44 c8bd 3aaa ad3d 1120 1ebc
00000090: 194a 223d fe46 04bd 306a f7bd a626 fabd
000000a0: c24e e3bc 2e44 ab3d 4308 92bd 99d9 0dbe
000000b0: 449d 1b3c ee79 0ebd 21b0 ae3d 4455 31be
000000c0: c4e3 54bd 73b7 be3c 46b2 85bc 06fb 03be
000000d0: e460 043e 073e 0e3e 65d4 273e 1eae 0e3e
000000e0: 9dd0 9d3d c602 603d a362 e23d 6f0e ca3d
000000f0: f8b4 853c ebe0 083c 47ef edbd 79bb 173e
00000100: 3cbc b73d d7f7 4f3d 4cc6 523c 041b 8e3b
00000110: 80dc dc3c 00a4 1a3e e34b 9b3d ca51 d5ba
00000120: 0c47 8abd bae7 7cbd e552 203c dbe2 7c3c
00000130: b18a aa3c da03 f2bd 1e80 0cbe a4a7 0c3e
00000140: 5714 f63d 4584 8f3d 8825 f9bd 556b 06be
00000150: aa5f 97bb 5464 e73d 6d50 0f3e a545 57be
00000160: 9386 213e a753 6fbd 3831 7cbd 8887 0f3c
00000170: 706b ce3d c3d7 80bc c503 e23d de1c 063e
00000180: 1fb8 dfbd 3a30 ce3d fd57 bdbd 5f44 73bc
00000190: d544 893d 9871 a5bd be4b bbbd 103a 8fbe
000001a0: 1d8c 053e 2745 c63c be5c 00be 084a 04bd
000001b0: 405d 223d 551a 8f3d 44ac c93d 29b5 6c3d
000001c0: 0fd7 a03d e9ee 8fbd 5a86 453d 85dc ae3d
000001d0: 6a48 193c a893 f9bd 17ca 133d ad9e c33c
000001e0: f6cb b3bd 7b91 083d d91f 45bd 5647 4cbd
000001f0: 6d03 523d 133e bfbd 8593 f03d bd7d 913d
00000200: 48e3 223d 170c 8c3d 037f 143e a0c8 2abb
00000210: 6351 ef3b ffb7 14bd e423 f43d e45b b63d
00000220: e21f babc a459 7c3d 9552 c1bd 7bbf f4bc
00000230: fe57 3b3d f638 a9bd 56c4 08be 5b6d 193e
00000240: 6e95 493d 3687 dd3d b461 273c a654 623d
00000250: a642 79bb a20a e93d 479b 463e 4679 40bd
00000260: d2d5 343e 3774 843c 1a12 1dbe c87d adbd
00000270: 10e3 c33d 6993 c0bd 278a a23c e4be dc3d
00000280: 0d1b 923c 7fe7 f83d 4e22 cb3d 4a6e b7bb
00000290: a70d 413e 3445 c33d 7a7f ae3d 44f0 6fbe
000002a0: 38ef 153b 6cbd 25bd 171e af3d f9b9 f8bc
000002b0: 011e 063e 26b3 b9bc dca5 96bd ddb7 adbd
000002c0: e042 513c 494d ec3d 4752 11be 0449 1c3d
000002d0: 6fc0 9e3e b8f2 6bbc d831 93bd 64df 8d3d
000002e0: 2d9d e03c a465 6abd ff0b 853d 9eae b0bd
000002f0: 2503 623d e5af b0bd b2d3 8ebd 918c 913d
00000300: 583e a5bd fac8 71be fe40 d63d f205 593e
00000310: 22d2 3a3e 0e0a 363e 2a3e e53d 57a8 06be
00000320: 2efb 42bc 6c29 a4bd f9cc c0bd 2b61 2c3e
00000330: 53dd e93c 5ca0 8fbd 5095 c9bc ef0d 0a3d
00000340: c879 86bd a5d4 353d faf8 193d c544 70be
00000350: fab2 103e 36ca ab3d 994b ac3d 2723 33bc
00000360: c2f0 823e 5859 873d ef85 363d cb48 0f3e
00000370: f5bb 25be a258 21bd 4872 343e 5adb 0e3e
00000380: 58b9 e8bc c5c9 b4bd 9632 a4be 29b6 7c3d
00000390: a603 04be a79e eebd 9469 10be 4445 9e3c
000003a0: 2af6 833d 887c e03d 55d0 a6bc a5b8 ff3c
000003b0: 45a9 483e da21 b2bc 3633 4e3e 66b1 c33d
000003c0: cdf7 d53b 8d1d 66bd 76f1 2ebe 2d16 3a3e
000003d0: ab02 083c 22e2 0abd 9792 82bc 03ee 17be
000003e0: bb83 a8bc c838 583d d290 423d fb24 e2bc
000003f0: 7578 a1bc 4352 b4bd c44a 1b3e b2ef 21be
-0.009301026 0.17613149 0.114499435 -0.17320396 -0.078693666 -0.05245047 -0.11205956 0.15900247
-0.0984145 0.09689311 0.00849241 -0.062475953 -0.11716921 0.10443729 -0.14808483 -0.063310415
0.092714235 -0.019565104 0.1136419 0.0048025018 -0.16792361 -0.16337852 -0.03437559 -0.100676164
-0.09520094 0.053948563 0.11676469 -0.07241825 0.058814913 -0.0205348 -0.057471327 -0.045005467
-0.01441241 -0.09778785 0.08479734 -0.0096512 0.039621446 -0.032294266 -0.120808005 -0.12214403
-0.027747516 0.083626136 -0.07130482 -0.13852538 0.009497944 -0.03478425 0.08529688 -0.17317683
-0.051975027 0.023280835 -0.016320359 -0.12888727 0.12927586 0.13890849 0.16389616 0.13933608
0.077058055 0.054690145 0.1105397 0.09866034 0.016321644 0.008354406 -0.11617904 0.14817609
0.0897145 0.050773468 0.0128646605 0.0043367166 0.026960611 0.15101624 0.075828336 -0.0016274985
-0.06751832 -0.06174443 0.009785389 0.015434946 0.020818086 -0.11817141 -0.13720748 0.13735825
0.12015598 0.0700765 -0.12165362 -0.13126881 -0.0046195583 0.11298433 0.13995524 -0.21022661
0.15773992 -0.058429386 -0.061570376 0.0087603405 0.10079086 -0.015727883 0.11035875 0.1309695
-0.1092379 0.10067792 -0.09245298 -0.014847844 0.06702582 -0.08078307 -0.09145306 -0.27973986
0.1304173 0.024202896 -0.12535378 -0.032297164 0.03963971 0.06987444 0.0984731 0.057789955
0.07853519 -0.0702799 0.04822383 0.085381545 0.009355644 -0.12186366 0.0360814 0.023879373
-0.08779137 0.033341866 -0.048126075 -0.04987272 0.0512728 -0.093380116 0.11746887 0.07104061
0.039767534 0.068382435 0.14501576 -0.0026059523 0.007303403 -0.036308285 0.11920908 0.089042455
-0.022720281 0.061608925 -0.094395794 -0.029876461 0.045738213 -0.082628176 -0.13356146 0.14983122
0.049214773 0.10816805 0.010216165 0.05525651 -0.003803411 0.11378981 0.19395171 -0.046990655
0.17659691 0.016168697 -0.15338936 -0.084712565 0.09564793 -0.09403116 0.019841267 0.10778597
0.017835164 0.121535294 0.099186525 -0.0055978643 0.18852864 0.09534684 0.08520408 -0.23431498
0.0022878181 -0.04046385 0.08550661 -0.030362116 0.13097383 -0.022668432 -0.07355854 -0.08482335
0.012772292 0.115381785 -0.14191543 0.03815557 0.3100619 -0.01440113 -0.07187241 0.06927374
0.027418697 -0.05722584 0.06496429 -0.086270556 0.05517878 -0.08627299 -0.069739714 0.07106889
-0.08068532 -0.23611823 0.10461615 0.21193674 0.18244222 0.17777273 0.111934975 -0.13150154
-0.011900706 -0.08015713 -0.094140954 0.16833942 0.028547918 -0.07013008 -0.02460733 0.033704694
-0.06566197 0.044392247 0.03759096 -0.23463733 0.14130774 0.08388178 0.084128566 -0.010933674
0.2557431 0.06608838 0.044561323 0.13992612 -0.16184981 -0.039391167 0.1762172 0.13950863
-0.028408691 -0.08827547 -0.32069844 0.06169716 -0.12892017 -0.11651354 -0.14102775 0.019320138
0.064434364 0.109612525 -0.020363012 0.031215975 0.19595821 -0.021744657 0.20136723 0.095553204
0.0065297843 -0.056180526 -0.17084298 0.18172522 0.008301417 -0.033907063 -0.01593904 -0.14836888
-0.020570626 0.052788526 0.047501393 -0.027605524 -0.019710759 -0.08804753 0.1516524 -0.15814093

bias f4 [64]
00000000: 70a9 41bd bd78 abbc 18d8 a9bd d045 90bd
00000010: 646a 03bc 9457 02be bc30 04be eaeb 533d
00000020: 21c5 243c a443 02bd 68bd 0f3a 0f0e 5a3c
00000030: 2889 e9bd d244 6bbd e960 67bd 81a7 15be
00000040: f8bc ffba 63cd 613d 9036 923d d2e1 783d
00000050: b035 a93c 8d19 c43c 9df4 7cbd c7b9 db3b
00000060: d69b dfbd 8296 8d3c 5865 173d 2cba 823d
00000070: dc35 e43d 7028 e3bd 3b2e 923d dac7 9e3d
00000080: a718 98bd a98c 16bd e533 0f3d ab5c 3c3d
00000090: ed0a 173c 68f2 083e 2f8c e93d 6a4f dbbc
000000a0: 7c58 f3bd 337e 2abe 1f01 3f3d 0fae 4f3d
000000b0: 5aea 5cbd 0c5b 01be a43a c3bc e832 efbb
000000c0: 14f5 c03d bd54 82bd 11a9 2fbd 5127 763d
000000d0: f4e0 fbbd f000 c93b 6b4f 343d adca bf3d
000000e0: fe91 f33d c49b 11be 7f60 3ebd b7b7 4fbd
000000f0: d61d a33d 79d7 febd 9b65 c73c 6999 e6bd
-0.04728073 -0.020931596 -0.0829317 -0.07044566 -0.008020971 -0.12728721 -0.12909216 0.051738657
0.010056765 -0.03180279 0.0005483241 0.013309016 -0.114031136 -0.05743868 -0.056488905 -0.14614679
-0.0019511273 0.055127513 0.07139313 0.060762234 0.020655483 0.023937965 -0.06175672 0.006705496
-0.10918395 0.017283682 0.036961883 0.06383166 0.11143085 -0.11091697 0.07137724 0.077529624
-0.07426577 -0.036755238 0.0349616 0.045986813 0.0092189135 0.1337372 0.11403691 -0.026771266
-0.118821114 -0.16649704 0.04663193 0.050703105 -0.053934433 -0.12632388 -0.023831673 -0.0072997697
0.09421745 -0.06363819 -0.042885844 0.06009609 -0.12298766 0.006134145 0.04402105 0.09364829
0.1189308 -0.14219576 -0.046478745 -0.050712314 0.07964675 -0.12443442 0.024340441 -0.112597294

weight f4 [64, 64]
00000000: 96ee a2bd 0f96 c53d 9fcc a13d d578 f53c
00000010: 6991 043d c8e0 d43d 3a2b e43d 061d 8a3d
00000020: 6ce1 c63c 5cee b3bd a6f8 913d c191 c6bd
00000030: 1f7e c93d 6dac b73c 0249 0f3e 04d4 653d
00000040: e65e 01bd b7ed efbd 1c94 02be f35d 573d
00000050: 3b7f f8bd 9c73 c93a 07d6 6d3d feb5 79bc
00000060: 1a09 203d 1119 383d c4d2 d4bd 97d1 3d3d
00000070: 2a2c c4bd 2dbf d3bb 6559 3a3d edae be3d
00000080: 9e7a 9d3d 1d59 9fbd 9398 f33d 9ca6 91bc
00000090: 6c65 443d 5206 d43d b4d5 05be 1322 58bd
000000a0: 6c8a 87bd f952 a23c a8c7 25bd 824a 97bd
000000b0: 82ce ccbc 506f 733d 7183 003e 7249 39bd
000000c0: 31e2 043d 0d1a f83c 368d 91bd 4ae7 f13d
000000d0: 03ce db3d e7e0 123e c209 71bd 8690 273d
000000e0: d869 d2bd 19ef 92bd 8665 d6bc f0fd 673b
000000f0: 9154 efbd 9858 87bd 7406 0b3d bc0a 023e
00000100: 1a78 80bd d6e9 5c3d 62e8 2abe d08e d73b
00000110: 8b8c edbd 70f6 31bd 37c6 113e 2f8d 14bd
00000120: fd65 4fbe 382f 303e 08bd 513e 9402 eb3c
00000130: 7daf 7b3e a4ab 45be 473a 4e3d 8506 5dbd
00000140: a879 09be a6a0 173e 7e06 643d 233c 81bc
00000150: dd2a a6bd a8f9 4dbe d559 3a39 b9de 36bb
00000160: bef9 d13d 33a8 7bbd 8cc1 a23d 9e22 9fbd
00000170: feda f73d ef5a 643d 44eb 2dbe 52b0 c63d
00000180: fa9e 67bd d2cc eebd b796 7abd a1f8 513e
00000190: d8a6 19bd 73b8 0f3e 336c d4bd ece5 493e
000001a0: 6fa9 c0bc 9ebe 0ebd 5f11 013e d718 1fbc
000001b0: 0ebd 56be 674f cd3d fb84 83be 9c7d 4fbd
000001c0: 1459 fd3c a548 133e 320b 363d e317 38be
000001d0: a270 e8bd 0087 693d 0438 9b3d bd87 283d
000001e0: 1889 5abc 00f3 0ebd a0de 1c3d f1e7 b03d
000001f0: b8bf 133e 651a 8c3d 4f5c b13d e441 1d3d
00000200: 331b 6a3c fdc4 15bc d855 03be 04ac 0f3d
00000210: 0a45 7ebc a28c fc3d bf49 a83d 2c01 e5bd
00000220: 7ef9 8b3d 8841 a3bd 3dfe 313d 1f9f 7cbd
00000230: f0d4 0d3e 2b83 643d c743 a5bd 0356 393c
00000240: 3cc7 4a3b 9b90 98bd d151 27bc 7f5e 583e
00000250: 3020 fcbd e83f d63d 63f5 d9bd 1536 25be
00000260: 6bd9 883c 4937 61be e2cd b3bd 30a3 0dbe
00000270: 07c9 9c3d 4366 b4bd ba68 afbd ad2f aa3d
00000280: 684d 5ebd ca3f a53c daa6 04be 37b3 ee3d
00000290: 8a1f 9abb 8c3f 143c 64f2 1dbe 505e bd3c
000002a0: 340a 4a3e de15 753d 4f1c ec3c 41ce 1abe
000002b0: eeb1 11be 41fb 51bd 360f ba3d 72e4 88bd
000002c0: 796f 743c 4c7c 013e 56d3 94bd a24c 4cbb
000002d0: 46fd b0bd 8ca9 293e b0e2 5ebe d9b1 adbb
000002e0: abbb 3a3d 161f 003e 5ab8 a2bd 685a a83d
000002f0: 385d 363d 4a7b 7fbd d546 ae3d 782e a4bd
00000300: b2b2 50be a7a3 1b3e 0aeb 09be ffa1 593e
00000310: 8823 d93d 69b2 fb3d 0d12 793c 862a e83c
00000320: 85f1 5abe 3486 eb3d 5ddf 903d 7117 883e
00000330: 5dc4 953d 7b05 063e d0c5 7fbc f909 0b3c
00000340: 8e8b 603b 3252 f13d 48c8 81bb 26c4 683e
00000350: 1f76 69bc 32e4 9bbd 15e9 de3c 74ac 903d
00000360: 59b5 503e eb81 91be 63c1 20bd e2b9 cebd
00000370: f9b2 b03d e5d7 073d 2b85 3dbe 8dd6 3abd
00000380: 347d 11be f305 853c 717b 0a3d 9b8b 2a3d
00000390: cbba 353e e6fc cabd 672a 0fbe 376e 203d
000003a0: 0054 fd3d 3bf5 8abd 4d8e adbd 568c a83d
000003b0: c11f 41be 7969 6dbc 2f73 0e3e 5070 e6bc
000003c0: 7ebc d5bd d597 a83e ac85 043d b781 213e
000003d0: a7bc 51be fed0 3abd 2b62 abbd 9ccb db3d
000003e0: 745b 0e3e 94da f33d 652e 943d 7352 583d
000003f0: a5d3 653c 2636 1c3e 22d4 40bc 37ca 2fbe
-0.07955663 0.09647762 0.079003565 0.029964844 0.032365236 0.10394436 0.11141057 0.06743817
0.024277411 -0.08785698 0.07127504 -0.09695769 0.09838509 0.022421086 0.13992694 0.056110397
-0.031584643 -0.117152624 -0.12751812 0.05257983 -0.12133642 0.0015369537 0.05806544 -0.015241144
0.03907118 0.04494578 -0.10391763 0.04634246 -0.09578736 -0.006461999 0.04549541 0.09310708
0.07689403 -0.07780669 0.118943356 -0.01777964 0.047948286 0.10352768 -0.13069803 -0.05276687
-0.06618199 0.019814955 -0.04047361 -0.07387258 -0.025000814 0.059432328 0.12550141 -0.04523606
0.032442275 0.03028586 -0.07107012 0.11811693 0.10732653 0.14343606 -0.058847196 0.040909313
-0.10274094 -0.071745105 -0.026171457 0.0035399161 -0.11686052 -0.06608695 0.0339417 0.12699407
-0.062729076 0.05393394 -0.1669021 0.006578304 -0.11599072 -0.04344791 0.14235769 -0.036267456
-0.20253749 0.17205513 0.20482266 0.028687753 0.24578662 -0.19303757 0.050348546 -0.053961296
-0.13425314 0.14807376 0.055670254 -0.015775746 -0.08113644 -0.20114768 0.00017771807 -0.002790375
0.10252713 -0.061439704 0.079470724 -0.077702746 0.12102316 0.055750784 -0.16984278 0.09701599
-0.056548096 -0.1166016 -0.06117889 0.20505 -0.03751263 0.14035206 -0.103722 0.19716614
-0.023518292 -0.034849755 0.12604283 -0.009710512 -0.20970556 0.100249104 -0.25687394 -0.0506569
0.030926265 0.1438318 0.04444427 -0.17977862 -0.11349608 0.05701351 0.075790435 0.041145075
-0.01333835 -0.03489971 0.03829825 0.08637989 0.14428604 0.06840972 0.086601846 0.038392916
0.014288711 -0.009141204 -0.12825716 0.035076156 -0.01551939 0.12331511 0.08217191 -0.11181864
0.06834696 -0.079714835 0.04345535 -0.061675187 0.1385076 0.055789154 -0.08069568 0.011312011
0.0030941507 -0.07449456 -0.010212378 0.21129797 -0.12310827 0.10461408 -0.10642507 -0.16133912
0.016705235 -0.21993746 -0.087795034 -0.13831782 0.076555304 -0.088085674 -0.08564897 0.08309875
-0.05427304 0.020172019 -0.12954274 0.11655276 -0.004703467 0.009048354 -0.15424496 0.02311626
0.19730455 0.059835307 0.028822092 -0.15117742 -0.14228031 -0.051265005 0.090849325 -0.066841975
0.014919155 0.12645072 -0.07266872 -0.0031173606 -0.08642058 0.16568583 -0.21766162 -0.005300742
0.04558913 0.12511858 -0.079453185 0.082203686 0.044522494 -0.062373437 0.08509604 -0.08016676
-0.20380667 0.15199147 -0.13468567 0.21253203 0.1060248 0.122898884 0.015202058 0.02834059
-0.21381195 0.115002066 0.07073853 0.26580384 0.07312844 0.13088028 -0.015611127 0.008486264
0.0034262869 0.11783256 -0.003960643 0.22731075 -0.014249354 -0.07611884 0.027210752 0.07064143
0.20381679 -0.28419432 -0.039246928 -0.10094048 0.08627886 0.033164877 -0.18507831 -0.045614768
-0.14207917 0.016238188 0.03380913 0.041637044 0.17747037 -0.09911518 -0.13981019 0.03916761
0.12369537 -0.06785055 -0.08474407 0.08229892 -0.1885977 -0.014490479 0.13911127 -0.028129727
-0.10436343 0.3292834 0.032354042 0.15772139 -0.20482121 -0.045609467 -0.083683334 0.10732195
0.13902074 0.11906925 0.072354116 0.052813005 0.014027511 0.15255031 -0.011769326 -0.17166983

bias f4 [64]
00000000: 81fc 533b 76b6 09bd 1c42 90bd 17cd b23c
00000010: 3eb7 dc3d 4f4b 573c 7d12 1c3e b26f 413d
00000020: 5452 cdbd 38c7 62bd da50 bc3d 7fe4 60bd
00000030: 1a6a 9abc 9b27 013e efbd 003e a313 c7bd
00000040: 14bd 80bc 7c08 a4bd 6ef9 cbbc 762d ab3d
00000050: 6fed c13c e0b3 bebd 1248 8fbd d0dc 893b
00000060: a756 e9bc 2d96 fabd 28ca 8ebc c61e c7bc
00000070: 67dc 1d3d cb87 713d c00f 743d 5866 e3bd
00000080: 5f73 033d 8e66 673c 3c27 763d 09df 433d
00000090: 59ef 5b3d e99c 053e d21b 923c 2ab1 e1bd
000000a0: a0aa 203d c5d8 2cbd 38d9 aebd 4acb f6bd
000000b0: 86ce bcbc a754 673c d91e ab3c e75c 3cbd
000000c0: c615 293d b9d2 0abe 4979 733d 650d bd3d
000000d0: 0268 07bd be14 a93a 406d 0ebe bf29 49bd
000000e0: 005f edbd e586 293d 43b1 473d ee2a 17be
000000f0: 3b1a c03d 8892 adbd 5cbe 593c 161d 523b
0.003234655 -0.033621274 -0.07043859 0.02182631 0.10777138 0.013140514 0.15241428 0.04722566
-0.100254685 -0.05536577 0.09195109 -0.05490541 -0.018849421 0.12612765 0.12572454 -0.09720542
-0.01571516 -0.08009431 -0.02489921 0.0835828 0.023672787 -0.09311652 -0.06996168 0.004207231
-0.028483702 -0.12235675 -0.01743038 -0.024306666 0.03854027 0.058967393 0.059585333 -0.11103505
0.03209245 0.014123572 0.06009601 0.047820125 0.053695057 0.13048138 0.017835531 -0.110201195
0.03922522 -0.042198915 -0.08537525 -0.12050493 -0.023047697 0.014119304 0.020888733 -0.045987036
0.04128053 -0.13556947 0.05944184 0.092310704 -0.033058174 0.0012899858 -0.13908863 -0.049112078
-0.115903854 0.04138841 0.048753034 -0.1476247 0.09380003 -0.08475214 0.013290014 0.0032060794

weight f4 [64, 64]
00000000: 6ee8 fbbd 7b94 cf3c 389c 1d3d 3daf 1fbe
00000010: 1e96 7fbd 9bf0 a7bd 31cd 813d 47cd e23d
00000020: 349b c73d 0426 d13d 7659 0bbe 50a9 2fbd
00000030: c75d fbbd 2d8d c2bc f282 ebbc a357 8c3d
00000040: a2ac c3bd 8872 0b3e 0173 46be 1ff7 1c3d
00000050: a6c8 aabc e355 33bd a02a 2abd 2e9e c63b
00000060: 6638 a53d 5d93 2dbe 24ce 88bd bc90 bfbd
00000070: cd70 14be 0e53 c43d 145b 9abd 21fd 043d
00000080: 9996 9e3c 4fbe 55bd 4f11 33bd 834c 10bd
00000090: 91cb d53d 1d61 52bc a551 16be b154 093c
000000a0: 607f 7dbd 3ecd 84bd 7dbb 3c3d 5deb 823d
000000b0: 696f 103e b9cd c13d 7350 0cbd 3f7a 92bd
000000c0: 7cb9 7dbe 7323 9c3d 26bd 2d3d 0750 88bd
000000d0: 997c 003d 5150 07be dfe4 b23c 5bca ebbd
000000e0: cd01 0c3d 046a 21be 384b 39be 6179 31be
000000f0: bd77 0fbe ec98 12be b958 c2bb 3958 41bd
00000100: 5ab0 f8bd 5a5a ddbb 7588 0b3e 41e4 803e
00000110: 66bf dfbc c7ac 17be 066d 6d3d f141 603c
00000120: 06ce c13d cd44 a5be 4615 263e 5618 57be
00000130: 2569 fc3d b971 2fbe 68c8 a53d 8b98 aa3d
00000140: e5b3 6b3e d7b0 453c b11b 833e 700e 9ebd
00000150: a660 053e 6c75 363d 069e eebd 4920 543e
00000160: 48e7 44be 049b 2cbe fc3a 37bd 8cab 953d
00000170: a724 c53c 6efa 56be ccce 543d 9bfb 85be
00000180: 041f 05be dc9f 593e 9b95 5fbe c89a 333d
00000190: 2915 133e 62e1 12be 93a0 073e aff7 be3d
000001a0: c652 a33d 246c 4abd e747 cebd e758 0f3d
000001b0: b296 bf3d e529 f43d c080 9dbd d3f4 2f3e
000001c0: 0c6a 743e 10ac 7fbc 3e8a df3d 10e5 983c
000001d0: 3207 a6be ea7b 2a3e 9c40 5cbe a9d7 87bc
000001e0: 3950 9dbe 6dbb c9bc 97d7 893d be1d b6bd
000001f0: a5c2 1a3e dff4 89be 3244 12be 465b 48bd
00000200: 8f1c 6bbd 691a fd3d a81c 693d c719 5e3d
00000210: 35f3 89bd b503 f23c d8ec 93bd c750 29be
00000220: 1e89 8c3d ce0d 153e 9e27 ad3d 9805 303d
00000230: 04e6 873d 2e8e 5dbd 345a b23b 08b1 423e
00000240: 4847 9a3d e533 283d f8ef b33d 922c 493d
00000250: f100 613d 3fb1 e43b 2964 313d 13b4 d6bc
00000260: 50ce d3bd 7285 eb3d 3565 3b3e 0d07 2c3e
00000270: 525f 8d3d d90b fc3d 18fb 7bbd 762a a43b
00000280: 1b56 983d 737e a03c 5f43 79bd cb8c 553c
00000290: fd04 973d dfaf a1bb e567 e33d ebe3 e4bc
000002a0: c601 203d 0cd8 b7bd 4ae2 913d f05a 423c
000002b0: fbf9 4bbd 235f c0bd 1f5e cc3c 1862 5e3d
000002c0: 33af 0a3e bf85 123e 3bec 2b3e 936e a5bc
000002d0: 093e cf3d 863a 043e 259a dc3d 1a3a 043e
000002e0: 4347 a23d bcb8 ec3b 8d01 2e3e b127 f2bc
000002f0: 7bff 193d 9cd6 873e ee4c 37bd 02ec 4c3e
00000300: 5bad a93d c170 b8bd 7a44 823d 94ec 993d
00000310: 8622 223e 0410 783d b485 8abe d46a 54bd
00000320: 1df9 273e f17f 9b3e 8e82 0abb 0b97 263e
00000330: 4d9a 533e 52d8 153c ba1f 10be eafb 193e
00000340: 10bb 0bbe de1d be3c fd6a 1b3e 3631 edbd
00000350: 8088 4c3e f388 693c 3a5a b83d c907 c7be
00000360: e28d dcbd 0e11 343e 0019 423e 629d a93d
00000370: 765e b7bd e8ca 213e a65e 24bc a2bf 3a3e
00000380: 8069 853e 0018 403d d1c3 5f3e 4ac4 323e
00000390: 8f0d 133e f71a 003d 2e39 09be 6ac8 5f3d
000003a0: a74f 493d bdab a33d 9ca2 a4bc deb8 243e
000003b0: 14cb 0fbd 9759 91bc f181 1dbd 070e e83d
000003c0: 7206 373d 2951 69bd e71d 6e3c 3889 753b
000003d0: 13c9 a4bc 7dcb 1bbd 23d6 ce3d 9c67 143e
000003e0: 1b1c 013e 7e73 d0bc b981 653d 3e2e 8f3d
000003f0: d9a2 8abd 1918 0a3d 1224 04bd fb91 2dbe
-0.12300192 0.025339356 0.03847906 -0.15594192 -0.062399022 -0.08200189 0.06337965 0.1107431
0.097463995 0.10212329 -0.13608345 -0.04288608 -0.12273746 -0.023748958 -0.028748963 0.06852653
-0.095544115 0.13617909 -0.19379808 0.03832161 -0.02084763 -0.04378308 -0.041544557 0.006061337
0.08067398 -0.16950746 -0.06679943 -0.09353778 -0.14496155 0.09586154 -0.07536903 0.032467965
0.01935892 -0.052183446 -0.04371768 -0.035229217 0.10439218 -0.012840536 -0.14679582 0.008382008
-0.061889052 -0.06484459 0.04607724 0.06392548 0.14105 0.094630666 -0.03425641 -0.07152223
-0.24777788 0.07623949 0.042416714 -0.06655889 0.031368826 -0.13214232 0.02183765 -0.115132056
0.034181405 -0.15763098 -0.180951 -0.17331459 -0.1401052 -0.14316148 -0.0059309867 -0.047203276
-0.121430114 -0.0067551555 0.13626273 0.25174144 -0.027312946 -0.14812003 0.0579653 0.013687597
0.09463124 -0.32279053 0.16219053 -0.21005377 0.12324742 -0.17133226 0.08094865 0.083298765
0.23017843 0.012066088 0.25607064 -0.077175975 0.1302515 0.044545576 -0.11651234 0.20715441
-0.19228852 -0.16856009 -0.044733986 0.073081106 0.024065329 -0.20993969 0.05195503 -0.26168522
-0.13000113 0.21252388 -0.21834414 0.043848783 0.1436354 -0.14343789 0.13244848 0.09324586
0.07974772 -0.049419537 -0.10072308 0.034996893 0.09354915 0.11922053 -0.07690573 0.17183237
0.23868579 -0.015604988 0.109150395 0.018663913 -0.32427365 0.16648832 -0.21509022 -0.016582327
-0.30725268 -0.024625504 0.067305736 -0.088923916 0.15113313 -0.26944634 -0.14283827 -0.04891517
-0.057400282 0.12358553 0.056912094 0.054223802 -0.06735841 0.029542783 -0.07222909 -0.1653472
0.068620905 0.14556047 0.08454822 0.042974085 0.06635669 -0.05409067 0.005442882 0.19012845
0.07533127 0.041065115 0.08786005 0.04911477 0.05493254 0.006979137 0.04330841 -0.026208913
-0.10342085 0.11500062 0.18300326 0.16799565 0.069029465 0.12306947 -0.06151876 0.0050099446
0.07438298 0.019591546 -0.060855266 0.013034056 0.07373998 -0.0049342955 0.11103801 -0.027940711
0.03906419 -0.089767545 0.07123239 0.0118625015 -0.049798947 -0.09393146 0.024947224 0.05429277
0.13543396 0.14308833 0.16789334 -0.020194327 0.10119254 0.1291295 0.10771588 0.12912789
0.07923748 0.0072241705 0.16992779 -0.029559942 0.03759716 0.2653092 -0.0447511 0.20011905
0.08285018 -0.09005881 0.06360717 0.07515827 0.15833482 0.06056215 -0.27055132 -0.05185969
0.16403623 0.3037105 -0.0021134946 0.16268556 0.2066433 0.009145813 -0.14074603 0.15037504
-0.13645577 0.023207601 0.15177532 -0.11581652 0.19973946 0.014253843 0.09001584 -0.38873127
-0.107692495 0.17584631 0.18954849 0.082819715 -0.08953564 0.15800059 -0.010032332 0.18237165
0.26057053 0.04689789 0.21852042 0.17457691 0.14360641 0.031275716 -0.13400719 0.05463449
0.049148228 0.07991741 -0.02009707 0.16086146 -0.03510578 -0.017742915 -0.038454 0.113308005
0.04468388 -0.056962166 0.014533496 0.0037465822 -0.02011541 -0.03803586 0.10099437 0.14492649
0.12608378 -0.025445696 0.056031916 0.06991242 -0.06769342 0.033714388 -0.03226096 -0.16950218

bias f4 [64]
00000000: 7523 5dbd 823a 12bd 7a44 04be 5758 873c
00000010: e70e 2dbc f262 c43d 1135 edbd 2259 cfbd
00000020: 8369 d2bd 9d28 9cbd 007e edbd 624e 83bc
00000030: 4057 54bd c18f a0bd 3274 e4bd c636 e2bc
00000040: 65cb 823d d6a3 18be 6e67 fa3c c899 033d
00000050: 1827 df3d d237 82bc 3f1e e73d 99e5 85bd
00000060: e9d9 6dbd 96f5 e8bd 5131 f03c 2161 a83d
00000070: 6cc1 e4bc 7eb4 09bd 1645 85bc 4822 15bd
00000080: 527b d03d 466e abbd ca89 c4bd e2d8 8ebc
00000090: 0d2d 59bd 672c e33d 8f2a 8a3d 8deb d13d
000000a0: 7de2 adbd ab7c ad3c 30ce 88bd 48db dcbd
000000b0: 15ae b2bd 1313 d7bd 43b6 3bbd 9ec0 f8bc
000000c0: 53e9 82bd 1900 84bd 29b8 84ba a0c1 313d
000000d0: 9e41 eb3d 9d71 2bbd 1707 d73d 0755 88bd
000000e0: 2f7b 6a3d 9586 d5bd f61c 9fbd f6b6 6cbd
000000f0: 1b1c 80bd ad2d dcbd dde4 bb3c b653 0bbe
-0.053988893 -0.03570033 -0.12916747 0.016521616 -0.010562635 0.09589185 -0.11582387 -0.101244226
-0.10274031 -0.07624934 -0.11596298 -0.016028587 -0.05184102 -0.07839919 -0.11154975 -0.027614009
0.06386451 -0.14906248 0.030566897 0.03212908 0.108961284 -0.015895758 0.11285066 -0.06537933
-0.058069143 -0.11374967 0.02932039 0.08221651 -0.027924262 -0.033619396 -0.016268294 -0.036409646
0.101797715 -0.08370642 -0.09596594 -0.017437402 -0.05302148 0.110924534 0.06746399 0.10250006
-0.08490465 0.02117761 -0.06679952 -0.10784012 -0.0872461 -0.10501685 -0.045828115 -0.030365285
-0.06392159 -0.06445331 -0.0010125685 0.043397546 0.11487125 -0.041856397 0.10499399 -0.06656843
0.057246383 -0.1042606 -0.07769196 -0.057791673 -0.06255361 -0.107508995 0.022936279 -0.13606152
