tests/python/kaolin/physics/simplicits/regression_test_data/fox_mesh_model_10k_steps.pt (torch, 112679 bytes, 16 tensors)

weight f4 [64, 3]
000000 de cc 04 bf 86 c6 cf 3e 30 cc 42 bf e6 f5 cc bf
       -0.518751 0.4058115 -0.76092815 -1.6012542
000010 29 74 30 be 58 d7 78 3e e1 2e 99 3e 40 6a bb 3e
       -0.17231812 0.24300897 0.29918578 0.366045
000020 be 73 9b 3d 45 3a 8b bd 0b ef 04 be 95 7e 08 bf
       0.075904354 -0.067982234 -0.12981813 -0.5331815
000030 f3 d4 0c 3f 73 bc e6 be 0f b0 1d bf 10 44 8e 3e
       0.55012435 -0.4506565 -0.6159677 0.27786303
000040 47 e9 9b 3e 04 e7 d6 3e 01 87 6a bf 61 f2 8f be
       0.30451414 0.41973126 -0.9161225 -0.28114608
000050 58 f8 c2 3e bc d0 b8 3f fc ef a4 be d0 4b 0f 3f
       0.38080096 1.4438701 -0.32214344 0.55975056
000060 6a db 75 bd 0b 2e 8d bb 1e 2f 47 3f 69 6c 85 bf
       -0.060023703 -0.0043084673 0.7780627 -1.0423709
000070 08 be 1e bf 28 e2 16 be e1 3a bd be 96 c8 04 3f
       -0.62008715 -0.1473471 -0.36958984 0.5186857
000080 0b 08 a0 be a2 90 8c bf 31 6f d6 be 4e e4 64 bf
       -0.31256136 -1.0981638 -0.41881707 -0.89410865
000090 e6 d0 bb be bc b8 57 3f 2c 51 f8 3e b0 df 3f 3f
       -0.36682814 0.8426626 0.4849943 0.74950695
0000a0 3a bd 0e be 5d 00 9b be 46 7e c3 be b5 eb 6b bf
       -0.13939372 -0.30273715 -0.38182276 -0.92156535
0000b0 09 1c 00 bf ca bf 4d bf d3 79 0c 3f ec d0 ae 3e
       -0.5004278 -0.8037077 0.5487339 0.3414377
0000c0 16 2d 56 bf 0f 03 61 be 10 45 04 3f 04 8d 7e 3f
       -0.83662546 -0.21973823 0.5166788 0.9943392
0000d0 be 55 9b 3e 1f d1 49 3e 13 a1 19 3f 5a 36 19 bf
       0.30338854 0.1970868 0.60011405 -0.5984856
0000e0 c0 93 0e 3e 24 25 ad bf 76 a4 22 bf a9 8e 8a be
       0.1392355 -1.352696 -0.635322 -0.27061966
0000f0 6c 81 58 3e fe c1 e1 3e 08 d4 1f bf f8 99 79 3f
       0.2114312 0.44093317 -0.6243291 0.9750056
000100 7b 5a 9a 3d f9 12 c1 be a5 fa 26 be f0 27 82 3e
       0.07536789 -0.37709787 -0.16306551 0.25421095
000110 42 ab 05 3f 1b de bd 3f 34 28 42 bf dd 5c 75 be
       0.52214444 1.4833406 -0.75842595 -0.23961206
000120 ef 2e 71 bc ac c6 0d 3f 15 90 19 3f eb 89 85 3f
       -0.0147206625 0.55381274 0.59985477 1.0432714
000130 59 ce 9f 3e 5b c8 33 bf 31 1b 10 3e 61 2a d7 be
       0.31212118 -0.70227593 0.14072873 -0.4202452
000140 05 1a 1c bf a0 f4 b2 be 34 b0 15 3f bf 45 4c bf
       -0.609772 -0.3495226 0.5847199 -0.79793924
000150 36 2d 29 3f 7c b7 10 bc 85 6b c7 be 5e 88 e0 be
       0.6608461 -0.008832809 -0.38949218 -0.4385404
000160 e9 6f c3 3e 30 2e b8 be da b6 96 3f 78 9f c5 3e
       0.38171318 -0.35972738 1.1774552 0.38598228
000170 c0 f2 dc 3e a2 20 95 be 94 23 80 bf ae 60 fe be
       0.43153954 -0.2912646 -1.0010858 -0.49683136
000180 2a 05 28 3e af 69 a0 3d c5 1c d9 be 91 0d 98 be
       0.1640822 0.078326575 -0.42404762 -0.2969785
000190 aa 66 56 3f b0 3a fb 3e be 44 f6 be 92 80 5c be
       0.837504 0.49068213 -0.4809932 -0.2153342
0001a0 df 86 ea be eb 4b 57 bd 50 ca 46 bf c3 53 1a bf
       -0.45806023 -0.052562635 -0.77652454 -0.6028406
0001b0 fc 81 3a bf c7 fa b3 3e 4d 46 cf be 6d b0 1c 3f
       -0.7285459 0.35152265 -0.40483323 0.61206704
0001c0 5d 21 0c bf 9b de 35 3f cd f4 0e 3f e2 1a 8a bf
       -0.5473841 0.71042794 0.55842286 -1.0789454
0001d0 69 d7 bc be 42 cb 05 3b 14 48 36 bc bc dc d3 3d
       -0.36883095 0.002041534 -0.011125583 0.10344836
0001e0 ad 0a 88 3e 28 bf 55 3e aa cf 8d be 7c 33 87 be
       0.26570645 0.20873702 -0.27697498 -0.26406467
0001f0 0b 20 37 bf a6 7c 09 bf 6c e1 54 bf fa 72 08 bf
       -0.7153327 -0.53705823 -0.83156466 -0.5330044
000200 69 de 4c be 4d 8d 55 bf 83 64 f6 3d 9e 6d 41 3e
       -0.20006718 -0.8341873 0.1203089 0.18889472
000210 dc f7 13 bf 12 c7 c6 be 4d 7a 18 3f d4 21 41 bf
       -0.5780008 -0.38823754 0.59561616 -0.7544224
000220 bc 83 b3 3e 22 9a 9a bd e9 b7 01 3f 39 f2 09 3f
       0.35061443 -0.0754893 0.5067125 0.5388523
000230 a4 b8 16 3f 70 7c 73 bf 19 4a 09 3f d6 3a 71 3d
       0.5887549 -0.9511175 0.5362869 0.058894
000240 9c f6 38 bf 8a 8d e3 be db fa e4 3e d1 4f 85 3d
       -0.72251296 -0.44443923 0.44722638 0.065093644
000250 7d be b1 be 3c 98 3a bf 72 a8 b7 bf 07 80 16 bf
       -0.34715644 -0.7288854 -1.434828 -0.58789104
000260 9d 91 8d bd 45 e7 5c 3f b6 fc 11 3f 9d 8f 4c bf
       -0.06912539 0.8629039 0.5702623 -0.79906636
000270 69 72 0b 3f 7f 99 05 bf ac 12 a9 be 86 14 40 bd
       0.5447145 -0.5218734 -0.33022058 -0.046894573
000280 42 bc a7 bd 66 e7 73 3b 19 5e 37 bf f6 02 27 bf
       -0.08190204 0.0037216782 -0.71627957 -0.65238893
000290 f3 5e 1b be 6d 77 d5 3d 8f bb 22 bf 1e 94 a4 3d
       -0.15172939 0.10423169 -0.6356744 0.080360636
0002a0 5f 92 70 bf cf ed b9 3c 7b ad 30 3f 77 b0 ba be
       -0.93973345 0.022696404 0.6901471 -0.36462757
0002b0 11 ff 57 3f a5 81 9c 3e ad 0e 59 3c 9f 6e 2b 3f
       0.84373575 0.3056766 0.013248128 0.6696567
0002c0 90 4e a6 bc 62 97 0b bf 9b 64 62 3f 4c dc 05 bf
       -0.020301133 -0.54527867 0.8843476 -0.5228927
0002d0 72 9c 24 bf 25 22 d7 be bb f2 0c 3f d0 2c 72 3f
       -0.64301217 -0.42018238 0.5505788 0.9459963
0002e0 10 3b c8 3e 4b 91 5e 3e 11 51 4f bf ba 2b 8f 3d
       0.3910756 0.21735112 -0.8098307 0.06990762
0002f0 a0 3b 35 bf 49 78 74 3e 11 57 16 3f 78 12 ff 3e
       -0.70794106 0.2387401 0.587266 0.49818778

bias f4 [64]
000000 4e fd ce be c0 bc 5d 3b 2f e8 d2 be 97 b3 96 be
       -0.4042763 0.0033834428 -0.41192767 -0.2943389
000010 7e 52 82 be d7 0e 29 3e 98 79 a3 be 02 44 ca bc
       -0.25453562 0.16509567 -0.31928706 -0.024690632
000020 67 f7 cd bb 13 bd a1 3e db 14 b7 be 08 8f b1 be
       -0.006285596 0.31589565 -0.357581 -0.34679437
000030 64 e8 92 be c3 82 c7 3e 32 0b 11 be 89 96 eb 3e
       -0.28692925 0.3896695 -0.14164427 0.46013287
000040 70 3e 32 3e ce f1 20 3d 5d a8 f2 bb a8 22 df bd
       0.1740663 0.039293103 -0.0074053244 -0.10895282
000050 72 91 e1 3d 4a 82 39 bd 83 d2 c7 bc d3 86 a9 3d
       0.110140696 -0.04529027 -0.024392372 0.08277669
000060 9f 9b d2 be 99 a6 87 be 32 53 df 3e 98 79 e4 be
       -0.41134354 -0.2649429 0.4361816 -0.4462402
000070 0c 9a 62 bc 7e 1d 08 3f 78 c2 2f 3e 79 ce 31 3c
       -0.013830673 0.5317 0.17164028 0.01085245
000080 19 f9 d9 be db c3 8d 3e bc 7d bf be 9c 9b 0b be
       -0.4257286 0.27688488 -0.37400615 -0.13633579
000090 df a1 3c be 5d e4 b1 bd c4 35 f5 3c f2 59 e2 3e
       -0.18421124 -0.08686135 0.029932864 0.44209248
0000a0 c8 5f 9f 3d 04 3c 02 3f 66 52 a3 3e c8 78 9b be
       0.07781941 0.50872827 0.31898803 -0.30365586
0000b0 56 12 30 3e 17 d4 c2 be 60 52 6b be a2 74 f1 3d
       0.17194495 -0.38052437 -0.22980642 0.11789824
0000c0 6e 13 30 3e 88 43 d3 3e cf f4 0f be 8b b8 c4 3c
       0.17194912 0.4126246 -0.14058231 0.024013778
0000d0 4d 30 9a 3e f0 4c f1 be ba c7 c2 3e 21 03 d0 be
       0.30114976 -0.4712901 0.38043004 -0.40627387
0000e0 fe 66 99 bb 7b 8c a5 bd dd 5a 8e be f2 48 68 3d
       -0.004681467 -0.08083435 -0.27803698 0.05671019
0000f0 b6 17 da 3e 09 c0 3b be c0 d2 9b be 0a 46 4f be
       0.42596215 -0.18334974 -0.30434227 -0.20241562

weight f4 [64, 64]
000000 f3 35 00 be 16 24 14 be 8f 26 8c bd 45 f8 cd bd
       -0.1252058 -0.1446689 -0.06843292 -0.10057119
000010 6c 3a c3 bd 37 c9 cc 3d 11 2a b6 3c 89 e6 86 3d
       -0.095326275 0.09999316 0.022236856 0.0658694
000020 da cc 1b 3d 15 f6 30 bd e9 64 17 bd 89 30 41 3c
       0.03803716 -0.043203432 -0.03696147 0.011791357
000030 be 2a c6 3d be d2 80 3d 00 14 de bd 2e 76 03 bd
       0.09676121 0.06290196 -0.108436584 -0.032095127
000040 4a 43 03 be 83 ed d0 3d 51 f9 99 be 18 44 3f be
       -0.12818637 0.10201552 -0.30073026 -0.1867832
000050 0c 8b 69 3e ca 0f 4c bd 1f 4e 12 3d f8 3d bb bc
       0.22806948 -0.049819745 0.035719033 -0.022856697
000060 bd 31 7a bc 2a 4b 9d bd ff 10 9e bd b5 a0 cf 3d
       -0.015270648 -0.07680352 -0.077180855 0.10138074
000070 35 27 fe 3c 01 67 0d 3e 0e 9b 21 bb da 10 29 be
       0.031024555 0.13808824 -0.002465907 -0.16510335
000080 6a 56 29 bd 45 80 07 3d bc c7 c6 bd 41 f3 9f 37
       -0.041342176 0.03308131 -0.09706065 1.9067551e-05
000090 d2 e9 2f 3d 11 d3 c9 bd 4f 1c 67 be 1b 6f 64 bd
       0.042947598 -0.09854711 -0.22569393 -0.05577002
0000a0 48 db 31 3e 08 3f a6 bd 4a 0a 69 3d 47 78 93 bd
       0.17368805 -0.08117491 0.056894578 -0.072006755
0000b0 ea 64 99 bd 4b 81 d9 3b 69 02 9a bd f5 79 ad 3d
       -0.07489951 0.0066377274 -0.07519991 0.08470527
0000c0 54 04 42 bb dd ae 7d bd cb 02 34 bd 49 e2 04 3f
       -0.002960463 -0.06193434 -0.043947976 0.51907784
0000d0 3d 4e 72 3d f7 5b 25 bd 4f 9b d1 bd e2 14 5c bd
       0.059156645 -0.040370908 -0.10234701 -0.053730853
0000e0 a5 e8 dc bc 01 5c b3 3c 1f 6d 56 3d 85 a7 73 3e
       -0.026966402 0.021894457 0.05235016 0.23794372
0000f0 6a 1c 81 bd c3 e9 88 3b 71 89 1e 3d 1e 72 ed 3b
       -0.06304248 0.004178257 0.038705293 0.00724627
000100 73 ae 99 3c fc 3a 61 3c 80 69 ab bd 84 ed 00 3c
       0.018759942 0.013746973 -0.08369732 0.007869128
000110 eb ac a1 3d 09 0f 00 3e 5a ce 97 3d 98 08 d5 bd
       0.078943096 0.12505735 0.07412405 -0.1040203
000120 d5 bb d3 3d 1c 75 b0 bd 6d e8 bb bd 94 65 df bd
       0.103385605 -0.08616087 -0.09175191 -0.10908046
000130 51 26 2d 3e ff 57 8c 3d 24 dc da bd d1 9a 67 3d
       0.16909148 0.068527214 -0.1068652 0.05654413
000140 c2 73 c4 3d 99 e8 12 3e 11 c3 d2 bd 7c 9a 98 3d
       0.095923916 0.14346541 -0.10291112 0.074513406
000150 0c cf 6a bb 54 42 1a bd 3d f4 4e 3e 72 31 87 bd
       -0.0035828976 -0.03766091 0.20210357 -0.06601228
000160 14 6f 3a bd 62 f8 ed 3d 55 98 20 3d dc 53 9e 3d
       -0.04551609 0.11619641 0.039207775 0.07730839
000170 a1 e4 cc bd 77 35 09 3d 8b 28 ec bc 4e dc 32 bd
       -0.10004545 0.033498254 -0.028827926 -0.04366713
000180 25 79 94 bc 4c f4 8f 3d 96 04 ba 3c 12 d5 f2 3c
       -0.018124172 0.07029018 0.022707265 0.029642615
000190 39 b9 07 bd f6 39 09 3d 66 3d 91 be 02 ff cd 3c
       -0.033135626 0.03350254 -0.28367156 0.025146011
0001a0 7d b0 8e bd 5e 0b 19 be 71 15 fe bd 01 b6 d7 3d
       -0.06967256 -0.14945742 -0.124064334 0.10532761
0001b0 c8 7f 85 3d 9e 26 00 3e d1 a9 1c 3e 17 c9 ae bd
       0.06518513 0.12514731 0.15299155 -0.085344486
0001c0 45 2d be bd 24 0f 28 bd a2 6a c9 bd 17 40 9f 3d
       -0.09285978 -0.041030064 -0.09834792 0.07775896
0001d0 4a c8 fe bd 6c db 6b bd 5c 6b 12 be 98 1a 95 bd
       -0.12440546 -0.057582304 -0.14298767 -0.07280463
0001e0 b8 73 35 3e 56 59 69 3e fd 01 e5 3d f9 3d 2a 3e
       0.17719924 0.22787985 0.1118202 0.16625203
0001f0 3a f9 d9 3d e6 9a 35 3c 81 91 6a 3d 43 dc 2c 3e
       0.10643239 0.011084294 0.05726767 0.16880898
000200 a2 b7 b2 3d 2c 03 31 3e c2 18 e8 3d d1 0b c8 3d
       0.087264314 0.17286366 0.11332847 0.09767879
000210 3c 48 32 bd c0 c3 89 3d 3f fe 4c 3d 72 cc 9b be
       -0.04352592 0.067267895 0.050047155 -0.30429417
000220 db 54 0b be 36 9a e5 bd a4 de 09 bd 7a b2 ae 3d
       -0.13606589 -0.11211054 -0.033659592 0.085301355
000230 d7 d5 11 3e c5 e9 68 bd fe b5 ca bd 0a 41 8c 3d
       0.1424173 -0.056863565 -0.098979935 0.06848343
000240 bf 39 95 3d a3 e7 80 bb 2b 1c b6 be 0f d8 ef 3d
       0.07286405 -0.0039338632 -0.35568365 0.11711132
000250 cb 5c a8 3d 65 f2 dc bd 50 88 a6 3d d8 45 66 bd
       0.08220824 -0.107884206 0.08131468 -0.056218952
000260 00 ac c8 ba fe 21 9f 3d d0 7f e0 bd 96 04 08 3d
       -0.0015310049 0.07770155 -0.10961878 0.0332075
000270 cc 66 d4 3d 73 af bf bc 11 89 b7 bd c7 be 58 bd
       0.103711694 -0.02339909 -0.0896169 -0.052916314
000280 20 6e 4b 3c e7 2a 24 bc c7 42 68 3d 17 b2 c1 3d
       0.012416393 -0.010019994 0.05670431 0.09457796
000290 f4 15 21 3d 80 46 01 be cc ac 37 be 6d 08 96 3c
       0.039327577 -0.1262455 -0.1793701 0.018314565
0002a0 ec 26 53 3d c9 58 21 be 54 0a 80 bd d8 03 46 bd
       0.05155079 -0.15756525 -0.0625197 -0.04834351
0002b0 31 4d 82 bd 3d a0 c7 3d 4e 23 51 bd 36 25 75 3d
       -0.06362379 0.0974736 -0.05105906 0.05984994
0002c0 18 cf 7f 3d b9 71 de bc 26 cc 96 bd ee 8b 08 3e
       0.06245336 -0.027153837 -0.07363157 0.13334629
0002d0 bb 7d e9 bc 32 b4 5b bd cb 18 7d 3c ea 81 a7 bd
       -0.028502336 -0.053638645 0.015447806 -0.08179076
0002e0 f0 3d 27 be 3e c8 ee bc ea 5d 0f 3d 8b aa 2e 3e
       -0.16332221 -0.029148217 0.035001673 0.17057244
0002f0 4f 48 2a be 83 ad 0c 3e 0b ee 0f bd 89 56 a5 3d
       -0.16629146 0.13738064 -0.035139125 0.08073146
000300 ba 27 a9 3c 5c 4a a0 be c9 88 ec 3d 16 db c6 3d
       0.020648826 -0.31306732 0.11549527 0.09709756
000310 5c 49 25 3e 41 84 27 3d a0 41 90 bd 51 a9 20 3f
       0.16141266 0.04089761 -0.07043767 0.62758356
000320 a1 04 33 3d c0 d0 b3 3d 2a a8 b0 bd 43 c6 48 bc
       0.043705586 0.0878005 -0.08625825 -0.0122543005
000330 bd 43 31 be e2 ce 60 bd 00 dd 8c 3d 82 55 0d be
       -0.17310996 -0.0548848 0.0687809 -0.1380215
000340 dd 52 17 3c 0b 56 ab 3d df fb 96 3e 5a 07 a3 bd
       0.009236065 0.08366021 0.29489037 -0.079603866
000350 0a 69 14 be 56 c6 6b 3a 27 56 b8 3d 3e e2 a4 3e
       -0.14493194 0.0008994093 0.09000807 0.3220386
000360 c7 c0 0c 3d 0e ce 7b 3c 12 fb aa 3d fe 07 da bd
       0.034363534 0.0153689515 0.08348669 -0.10646056
000370 0f 4c 77 bd b5 74 0c 3d 16 7c 9c bd 9c a4 d0 3d
       -0.06037527 0.034290988 -0.07640855 0.10187647
000380 41 3c 7a bd d6 f6 d6 bd 7a a2 9f bd 78 a1 da 3d
       -0.06109262 -0.10496299 -0.07794662 0.10675329
000390 93 59 6d bc 6d 65 5f 3e d1 6c 8c 3e ec bc 2c 3d
       -0.014486688 0.21816035 0.2742677 0.042172357
0003a0 7a 4f a3 3a 51 53 0b 3c 23 a5 95 3b 49 d1 03 3d
       0.0012459599 0.008503751 0.004566805 0.03218201
0003b0 61 26 2a 3d 93 8d 94 bd ea 2f dc 3d 8c 4d b8 bd
       0.041540507 -0.07253566 0.107513264 -0.08999166
0003c0 b0 69 01 be 09 c2 1c bd 51 3c 02 3e f1 41 35 3e
       -0.12637973 -0.038270984 0.12718321 0.17700936
0003d0 17 d5 51 bd 5e 50 ea 3d 36 b0 98 3d cf 5c e1 3d
       -0.05122861 0.1144111 0.074554846 0.1100403
0003e0 62 a4 96 3d 1c 8c 23 be fd bc 0d 3d d6 e3 95 bd
       0.07355572 -0.15971416 0.03460406 -0.07318847
0003f0 04 9c 7b bd 4b 79 05 3d 4e e2 a9 bc fd 55 82 3d
       -0.061428085 0.032586377 -0.020737793 0.06364057

bias f4 [64]
000000 1b 5a 29 bd 93 c7 8c 3c 70 f1 97 3d 9d 50 bb bb
       -0.041345697 0.017185008 0.074190974 -0.005716397
000010 22 a8 88 bd c0 75 25 3a 36 f2 d1 bd d5 48 6d bd
       -0.06672694 0.00063117966 -0.10251276 -0.057930786
000020 d0 01 43 bc 85 c3 cc bd d5 b6 d0 3d 30 f9 20 bc
       -0.011902288 -0.0999823 0.101911224 -0.009825036
000030 e3 db da 3d 1b 33 e0 bc 93 33 88 bc d7 5c 95 3c
       0.10686471 -0.027368119 -0.016626155 0.018232746
000040 ad 0d 16 bc 85 dd 99 bd 45 7e 14 be d3 63 a9 3d
       -0.009158534 -0.075129546 -0.14501293 0.08270993
000050 31 c6 a2 3d 00 68 0a be e5 d8 78 bd d6 16 94 bd
       0.07947958 -0.13516235 -0.06075372 -0.07230918
000060 87 8e 98 bd 2c b9 c3 3d ef 86 9b 3d c3 99 a7 bb
       -0.0744906 0.09556803 0.07594096 -0.0051147654
000070 4c 1c ce 3c 4a f9 dd 3c 85 f4 3e 3d 18 82 c5 bd
       0.025159977 0.02709641 0.04661991 -0.09643954
000080 25 20 6a 3c 0f 1e ea bd 6e ee ed bd fa be f8 bc
       0.01428989 -0.114315145 -0.116177425 -0.030364502
000090 3f 72 2e bd 61 bb ef bd 87 47 3f 3b e2 ff 08 bb
       -0.042589422 -0.117056616 0.002918692 -0.0020904471
0000a0 7a b2 81 bd 1b 2c c1 3c dc 84 ca 3d 56 3e 2f bd
       -0.0633287 0.023580601 0.09888622 -0.042784058
0000b0 41 6e 7b bd 97 43 03 be 5b 6d c2 bd ff f4 e2 bd
       -0.061384443 -0.12818752 -0.09493514 -0.110818855
0000c0 6f d9 ce bd 3d 1a d7 bc 69 eb 9a 3d 9d cc 2d 3d
       -0.10100066 -0.026257629 0.07564432 0.042431463
0000d0 ae 9e f8 3d d1 d0 c5 3d 95 5e 1d bd e2 48 20 bd
       0.12139641 0.09658969 -0.03842028 -0.039132006
0000e0 85 c3 28 bb 18 4f a0 bd 9e ca 77 3d 50 58 7a bc
       -0.0025751304 -0.07827586 0.060495965 -0.015279844
0000f0 3c b0 e8 bd f6 48 b0 bd 93 45 c3 bd 03 dc 2a 3b
       -0.11361739 -0.08607666 -0.095347546 0.0026071079

weight f4 [64, 64]
000000 95 7f bb 3d f3 f5 07 3e fc e0 cb bc 16 6e d8 bd
       0.09155194 0.13277416 -0.024887554 -0.10567872
000010 22 b2 8a bd c3 2e 86 bd f4 34 54 bd e2 03 ab bd
       -0.067722574 -0.06551888 -0.051808313 -0.0835035
000020 09 be 96 3b 24 2a ca bd 65 69 b5 bd c3 dd df 3d
       0.0046002907 -0.09871319 -0.08857993 0.109309696
000030 40 0c e0 bd 48 5d a1 3c c1 5b 91 3d 5f 6e 13 3e
       -0.109398365 0.0196978 0.07097579 0.14397572
000040 74 4e 2a 3d ba fb 82 bc 06 21 0e 3d 37 8a 07 bd
       0.041578725 -0.015989173 0.034699462 -0.033090796
000050 c1 8b a5 bd cd 0f a9 3c 0f 91 de 3c 25 08 96 3d
       -0.080832966 0.020637417 0.027168779 0.07325772
000060 2e d6 6b 3d d0 99 60 3d a6 3d 21 bd 14 a5 bb 3c
       0.057577305 0.054834187 -0.039365433 0.022905864
000070 96 3e 7e 3c be 13 d0 3b 59 dc be bd 3d 0e 28 3d
       0.015517851 0.0063500097 -0.09319372 0.041029204
000080 ca 56 8e bd 9b e1 4a bd 64 40 ed bc 7b b7 09 3d
       -0.069501474 -0.04953156 -0.028961368 0.033622246
000090 99 33 df bb 52 7e 0c bd fc 35 88 3d 5b ae b6 3d
       -0.006811571 -0.034300156 0.06650922 0.089199744
0000a0 b7 60 08 3d cb f3 2d 3d e5 cf a8 bd b6 d4 38 3d
       0.03329536 0.042468827 -0.08242778 0.045124732
0000b0 f7 78 98 3d b5 1f 8e 3d b3 35 83 3d 56 90 66 bd
       0.07444947 0.069396414 0.06406727 -0.056289993
0000c0 d9 51 67 bc 68 91 c6 3d 48 f4 e4 3d aa 63 cf bd
       -0.014118635 0.09695703 0.111794055 -0.10126431
0000d0 73 70 a6 3d 29 9c e0 3d 4a 8a 04 3d 84 a3 02 be
       0.08126917 0.10967285 0.032358445 -0.12757689
0000e0 11 76 f8 3c a1 d3 b9 bc 6c bd be 3d 4e 1e 10 be
       0.030329736 -0.02268392 0.09313473 -0.1407406
0000f0 8d 36 8f 3d c6 83 01 bd db aa 0a 3d a0 92 a1 3d
       0.069928266 -0.03161981 0.033854347 0.078892946
000100 d5 6c 12 bd 4f 1e c4 bd 9a cd 06 be 5a 06 b7 bb
       -0.03574832 -0.095760934 -0.13164368 -0.005585474
000110 92 b9 85 3d 3b 7b fd 3b 83 18 98 3b 41 e8 b1 bd
       0.06529535 0.0077356375 0.004641594 -0.08686877
000120 c9 cf 3c bc 3e 1a 19 be 0f d7 d8 3d aa ae 44 3d
       -0.011524149 -0.14951417 0.10587894 0.048018135
000130 6e 9f 87 3d ed 20 04 3e 4a b2 6b 3c f0 aa 60 3c
       0.06622206 0.12903185 0.014385769 0.01371263
000140 97 4b f2 bc bb f7 c7 3d e3 be f6 3d 16 16 ad 3c
       -0.02957706 0.09764048 0.120481275 0.021128695
000150 04 6c b7 3d 17 de f2 bc 97 47 de 3d 53 bc e1 3c
       0.08956149 -0.029646916 0.108534984 0.02755562
000160 cd 2b 23 3d 55 4a 68 bd d6 89 be bb d1 e1 35 bc
       0.039836694 -0.056711514 -0.005814771 -0.011101202
000170 48 e6 3e 3d ba 35 74 3a 34 55 40 3d 77 e1 e9 3d
       0.046606332 0.0009315867 0.046956256 0.11419957
000180 2f 9c 80 3c a9 e6 91 bd 05 bb 15 3e 60 b3 ed ba
       0.015699474 -0.07124073 0.14622124 -0.0018135123
000190 f1 72 66 bd e9 4b 35 3d de 5d 81 3d 5b 94 5e 3d
       -0.05626196 0.044261847 0.06316732 0.0543407
0001a0 db 82 8e 3d 9c 05 1c 3c 4d cc 1b 3e 7a e1 db 3d
       0.069585524 0.009522822 0.15214653 0.107363656
0001b0 83 13 55 3d f3 58 a4 3c a5 8b f3 bc 33 94 67 3c
       0.05202056 0.020061946 -0.029729674 0.014134455
0001c0 3f 07 9b bd 6b ef 81 3d f1 0a 46 be 32 53 c9 bd
       -0.075697415 0.063444935 -0.19340111 -0.09830321
0001d0 65 ab ec bd 06 31 23 3d 7b ff 0a bd 80 b7 f8 3c
       -0.115561284 0.039841674 -0.03393505 0.030360937
0001e0 dd 11 29 bd e2 68 cc bd f6 8f aa bc 14 f1 ee bd
       -0.0412768 -0.09980942 -0.020820599 -0.11667076
0001f0 f0 33 55 bd 3e 19 b2 bd cc 31 d6 3b 4b cc 1b 3e
       -0.052051485 -0.08696221 0.006536698 0.1521465
000200 dc ab 96 bd 99 e9 1a bc 46 5c 98 bd 94 b3 7a bd
       -0.07356998 -0.009455108 -0.07439475 -0.061206415
000210 a2 26 31 3d f4 5d 0d 3d c1 75 03 3e 19 82 79 bc
       0.043249734 0.03451343 0.12837888 -0.015228772
000220 eb 3b dc bd 34 e9 ae bc e9 3d 03 bd 30 a5 12 be
       -0.10753616 -0.021351434 -0.032041464 -0.14320827
000230 bc 31 0a be 75 00 ae bc ce 64 b5 bd 40 d0 ac bd
       -0.13495535 -0.021240452 -0.088571176 -0.08438158
000240 7a bc a1 bd f1 37 98 3d ac 95 18 3e fe c9 d4 bd
       -0.07897277 0.07432545 0.14900845 -0.103900895
000250 c6 b7 d4 bd a5 f7 dd bc 10 5e a9 3d e2 60 c2 bc
       -0.103866145 -0.027095625 0.08269894 -0.023727838
000260 a5 14 e6 bc 1e 31 ea bd ba a2 6b 3a a6 eb 41 bd
       -0.028086016 -0.114351496 0.0008988787 -0.047343872
000270 e6 4e 9b 3d 8b 18 00 be a1 6b 72 3d b0 5f 8c bd
       0.07583408 -0.12509362 0.059184674 -0.068541884
000280 e7 8f 51 bd de 28 7c bd 71 bc 0a 3e ce 80 da 3c
       -0.051162627 -0.06156241 0.13548447 0.026672747
000290 a6 94 7c 3d b6 14 b2 bd 83 91 88 be e7 1e 74 bd
       0.0616652 -0.086953565 -0.26673517 -0.059599783
0002a0 e7 5c e8 bd 3a 22 ad bd c8 26 7c 3b 6e b4 f2 3d
       -0.11345845 -0.08453794 0.0038475264 0.118508205
0002b0 9e c4 13 be d3 0e e9 3d 40 a9 6f 3d 0b 79 e6 3a
       -0.14430472 0.113797806 0.05851102 0.0017583681
0002c0 ca ae 67 bd 62 67 ec bc e6 cc 52 3d fa b3 d0 3d
       -0.056563176 -0.02885789 0.051464938 0.10190578
0002d0 7d 37 38 bd b2 ce 00 bd 7b 81 b2 bd e6 21 1d be
       -0.044974793 -0.03144712 -0.08716103 -0.15344962
0002e0 e9 e4 16 3d f8 f3 ca bd b6 23 9e bd bb 6c 9a bc
       0.0368394 -0.099098146 -0.07721655 -0.018850675
0002f0 d0 f8 79 3d fc 4e 00 3e e4 75 ec bd 15 77 e6 3d
       0.0610283 0.1253013 -0.11545923 0.11253182
000300 e3 f6 79 3d ab d5 8e 3d 81 49 09 3d bd 6e f2 3d
       0.061026465 0.06974348 0.033517364 0.11837528
000310 1f 39 e1 3c 01 10 8f bd 9d 29 ef bd 8f ce bc 3c
       0.027493058 -0.069854744 -0.11677859 0.023047714
000320 73 3c 03 be b9 6e 3e 3c aa 55 bf 3d 7e 4b 94 3d
       -0.12816028 0.011623078 0.09342511 0.072409615
000330 f2 85 ba 3d ad 72 bb bc 81 3c 71 bd 92 3e c2 3d
       0.09107579 -0.02288183 -0.05889559 0.094845906
000340 58 e3 25 bc 64 a2 44 3d 45 ff 9d bd 1b 5b 63 3d
       -0.010125004 0.04800643 -0.077147044 0.055506807
000350 37 57 d4 bd 67 d0 dd 3d 81 93 dd 3d c7 7d ea bb
       -0.103681974 0.10830765 0.1081915 -0.007156107
000360 db 2e dd 3d 07 f0 2f 3d c1 2c e4 bd 8a 16 b6 bd
       0.107999526 0.042953517 -0.11141349 -0.08891018
000370 43 f2 94 3b 12 fb 8c 3d fa 9b 9d 3c 1c cf 38 3d
       0.0045454814 0.06883825 0.019239414 0.04511939
000380 cc 7d af 3d 07 58 80 3d 25 82 a8 3d db 6b 3f 3c
       0.08568916 0.0626679 0.08227948 0.01168343
000390 3b a1 0a bd 01 79 bf bc 3b cd ec ba f4 47 d3 bd
       -0.033845168 -0.023373129 -0.0018066535 -0.10316458
0003a0 41 f6 af 3d ce 33 e8 3d ae f1 8b 3d 6d 0d 1d bd
       0.08591891 0.11338006 0.06833206 -0.038342882
0003b0 60 0d 9f bc b1 a2 fa bd 89 28 f8 3c ea 94 c8 bd
       -0.019415557 -0.12238062 0.030292766 -0.09794028
0003c0 72 b3 b8 bd e3 c1 19 bd 31 78 00 3c 60 be 37 3b
       -0.090186015 -0.03753842 0.007841156 0.0028037056
0003d0 97 97 d7 bd ba d6 8c 3d 91 22 b1 bd f2 e1 6a bd
       -0.1052696 0.06876893 -0.08649171 -0.057344384
0003e0 be 5b 2a bd 5e 8b 84 bd 8e 22 4d 3d d4 5b 80 bd
       -0.0415914 -0.06471895 0.050081782 -0.06267515
0003f0 84 76 fb 3c e7 28 81 bd 5c 35 21 bd 86 73 96 3b
       0.030696161 -0.0630663 -0.039357528 0.004591408

bias f4 [64]
000000 3a d2 b9 bd 91 ff ff bd f5 b9 ba 3c 26 28 aa 3d
       -0.09073301 -0.12499917 0.02279375 0.08308439
000010 7d 35 1b 3d 68 40 6f 3d 23 1f ce 3d cf 9d 7d 3d
       0.037892807 0.058411032 0.100645326 0.061918076
000020 78 69 38 bd ff ca a1 bd 0e bb 40 3b 21 17 23 3d
       -0.045022458 -0.079000466 0.0029408368 0.03981698
000030 0f 24 74 3d 01 f8 8f bc e2 a2 f3 3d 31 66 92 bd
       0.0596047 -0.017574312 0.11896302 -0.07148398
000040 a5 64 62 3d e9 c3 bb 3d 62 93 45 3c d2 38 46 3d
       0.055271763 0.09168226 0.012059065 0.04839403
000050 67 b6 b7 3d b9 15 df bd 4a 21 73 3d d6 53 9d 3d
       0.08970337 -0.10892815 0.05935792 0.07682006
000060 7d 60 87 3d 86 a7 0b 3d e4 a4 e7 3d 34 15 fe 3c
       0.066102006 0.03409531 0.11310747 0.03101597
000070 e1 f6 90 3d dd da bc bd 7f 04 11 be b7 05 9d 3d
       0.070783384 -0.09221432 -0.14161871 0.07667106
000080 b3 08 03 3e 47 fc 6d bd 75 80 85 3d 00 6e 8a bc
       0.12796287 -0.05810192 0.06518642 -0.016898155
000090 02 28 df 3c af 8c 98 39 93 1b 94 3d a9 cb 7d bd
       0.027240757 0.00029096517 0.07231822 -0.061961804
0000a0 4c a5 df bd d1 86 c4 3d 9c 95 85 bd b8 49 80 3d
       -0.109202 0.09596027 -0.06522676 0.06264061
0000b0 1e ef 3c 3d de 66 89 bd d3 e7 c8 3d 0d 0f 06 3e
       0.046126477 -0.067090735 0.09809842 0.13091679
0000c0 df 5c 88 bd 37 5b 1e 3c c2 31 45 3c c6 31 ba bd
       -0.06658339 0.009665302 0.012035789 -0.09091525
0000d0 c5 5c 04 3c 38 d4 f4 bd 82 d1 f4 3b 3e 85 ed bd
       0.008078759 -0.1195454 0.0074712643 -0.115976796
0000e0 85 2e a4 3d 1c 23 47 3d db e8 82 3d b1 88 00 3b
       0.080166854 0.048617467 0.0639207 0.0019612724
0000f0 44 ed 93 bd 4e 71 b8 ba e5 c4 96 3d 5e 5a 62 3d
       -0.07222989 -0.0014071853 0.073617734 0.055261962

weight f4 [64, 64]
000000 75 b7 8b bc fa 48 0b 3e 32 a1 88 bd d5 17 06 be
       -0.017055253 0.13602057 -0.066713706 -0.13095029
000010 d3 7a e3 3c 76 25 e8 3d ca 52 44 3d 75 bd 09 bc
       0.027768528 0.1133527 0.047930516 -0.0084069865
000020 ff a4 8e bd 33 af 9c 3d ec cd 06 be 7e 0d 95 bd
       -0.06965064 0.07650604 -0.1316449 -0.07277964
000030 1d fa d5 3d 65 0b 3a bd fd fa 9a bd c7 20 45 bd
       0.10448096 -0.045421023 -0.075674035 -0.048126962
000040 6f 5a 8a 3d 0d 6e b0 bd 9a 5f 66 bd 83 98 60 bd
       0.0675553 -0.086147405 -0.056243517 -0.054832947
000050 67 2a 43 3d 90 9f cf 3d 16 aa 23 3c 6d e3 ad bc
       0.04764786 0.10137856 0.009989282 -0.02122661
000060 60 78 1d bc 0c 84 e3 3c 7a 65 cc 3d e6 38 08 3d
       -0.009611219 0.027772926 0.099802926 0.033257388
000070 4c 34 69 3d f6 75 1f bc 1a c2 95 3c 35 32 1f be
       0.05693464 -0.009732714 0.018281031 -0.15546496
000080 f1 f0 98 3d c7 22 86 bd 84 cd 2d bd da 34 1d be
       0.07467831 -0.06549602 -0.042432323 -0.15352193
000090 d1 11 ab bc 91 0e bf 3c 1f 6d ce 3d 66 3f 27 bd
       -0.020882519 0.023322375 0.10079407 -0.040831946
0000a0 9b 08 ac 3b fa 2c d0 3d fd 0c f9 bd 9e 17 de 3d
       0.0052500493 0.101648286 -0.121606804 0.10844348
0000b0 61 a1 e8 3d 1b f7 fe 3d 89 53 fa 3c 5b 84 5d 3d
       0.113589056 0.124494754 0.03055741 0.054081302
0000c0 30 97 f6 3d 92 d6 ad 3c 60 0d 15 3e 42 92 1b bd
       0.120405555 0.02122048 0.14555883 -0.03798128
0000d0 c5 c3 4b bd 3f e1 db 3d 75 a3 03 bd 4b a7 d1 bc
       -0.049747247 0.10736322 -0.032138307 -0.025592467
0000e0 d5 52 5f 3c 75 14 c0 3c 7d 12 9f bc 52 35 c3 3a
       0.013630589 0.023447255 -0.019417996 0.001489321
0000f0 e2 9b 66 3d 24 ca 01 3e 50 4a 16 bd 44 b1 05 3c
       0.056301005 0.12674767 -0.036691964 0.008159939
000100 47 43 fb 3c a4 e2 c9 3d 34 0f cb 3d 9a ba 77 bb
       0.030671729 0.098576814 0.09915009 -0.0037800432
000110 e8 bd 92 bc 6d 6e 39 bd b1 ef ad bd 1c 8c 3c bd
       -0.01791282 -0.045271326 -0.08492983 -0.046032056
000120 10 cc d7 bc 53 8e a4 3d b2 99 ac 3c 95 50 45 bd
       -0.026342422 0.08034959 0.021069381 -0.048172552
000130 30 c9 88 3d 93 03 04 3d f1 83 ce 3c 66 c5 ce 3b
       0.066789985 0.03222997 0.025209399 0.006310153
000140 9e bb 94 bd 60 d0 a5 bb 57 5f cc 3d be 9f c0 3d
       -0.07262348 -0.0050602406 0.09979122 0.094054684
000150 1d f3 d3 3d b0 dd 98 bc 7e b1 ac 3c 5e f3 ad 3d
       0.103491046 -0.018660396 0.021080729 0.08493684
000160 e1 66 77 3c 41 bb 9f 3d 79 7c 6e 3d b4 d4 16 3d
       0.015100212 0.07799388 0.058224175 0.036823943
000170 c0 05 7e 3d 50 6a bc bd fd 60 e6 bd 1d 88 6a be
       0.062017202 -0.09199965 -0.11248968 -0.22903486
000180 04 06 c6 3d 11 36 77 3c df 4c b6 bd ca bd e8 3c
       0.09669116 0.015088574 -0.08901381 0.028410811
000190 dd 9e ed bc fa a7 4a 3d c9 be 5f bc 57 74 d2 3d
       -0.029006416 0.0494766 -0.013656327 0.10276096
0001a0 86 20 d0 bd 25 4b fd bd 96 4f c0 3d b7 35 8c bd
       -0.10162453 -0.12367848 0.0939018 -0.06846183
0001b0 24 11 5f bc 7d c5 03 3d 94 59 db 3c 29 08 90 bd
       -0.0136149265 0.03217076 0.026776113 -0.070328064
0001c0 62 2c 6b 3c 84 a2 80 bd 45 ee 3d 3e eb 67 0a ba
       0.014353843 -0.062809974 0.18547924 -0.0005279767
0001d0 90 4c a1 3d bf 67 d8 3d 9b 4d 6f 3c 6b 72 1a 3d
       0.07875931 0.10566663 0.014605905 0.037706774
0001e0 21 94 62 3d ae 72 9f bd 4c bf 0c 3e 4b 8c 4e bd
       0.055317048 -0.07785545 0.13744849 -0.050426763
0001f0 82 23 d0 3d 54 14 c5 3b a9 d5 8d 3d c2 92 b5 3d
       0.101630226 0.006014386 0.06925518 0.088658825
000200 fa 43 9d 3c 4f 06 d5 3b fa 0d 86 3d 64 27 26 be
       0.019197453 0.006500996 0.065456346 -0.16225964
000210 ad 8e 55 3b fa 26 6a bd 34 45 62 be 24 9e 54 bc
       0.0032586262 -0.057166077 -0.22096711 -0.012977157
000220 53 c5 d0 3b 35 59 30 bd a1 fb ae 3d 78 cf b7 3d
       0.006371179 -0.043053824 0.08544088 0.089751184
000230 51 9c 1f 3e 6b 43 69 bd 8e af 09 be 37 e4 b5 3c
       0.15586974 -0.05694906 -0.13445875 0.022203548
000240 0b 82 00 3e d4 d2 ce bd 81 07 f7 bd b1 9a 4f bd
       0.12549607 -0.10098806 -0.12061978 -0.050684635
000250 2d 21 bd 3d d9 de 14 bd bf e0 95 bd 71 b9 d4 bc
       0.092348434 -0.036345337 -0.073182575 -0.025967332
000260 46 c4 c4 bd be 65 ce 3d 81 58 0a be fe 60 08 3e
       -0.09607749 0.100779995 -0.13510324 0.1331825
000270 2b 0a 31 3d 09 5e 26 3d a7 5d b7 bc c6 fb 82 3d
       0.043222588 0.040617023 -0.022383524 0.06395678
000280 67 e1 b9 bd 8b dd 25 3c d8 d0 c4 3d fe 37 b9 bd
       -0.09076195 0.010123621 0.09610146 -0.09043883
000290 58 1d 8e bb 8a d7 dd 3d 3d 31 02 be 1c cb 08 3d
       -0.004336994 0.108321264 -0.12714095 0.033396825
0002a0 8f c7 7a 3d 78 b0 ed bd 7b 5d c8 3d ec 21 cb 3d
       0.06122547 -0.11605924 0.09783455 0.099185795
0002b0 96 39 8f bd 17 60 d0 3c f2 a7 bd 3d 7f c7 9a bd
       -0.069934055 0.025436444 0.09260549 -0.07557582
0002c0 de 20 86 3d a7 cb b6 bd 08 97 64 be 57 f3 a7 3d
       0.06549238 -0.08925562 -0.22323239 0.0820071
0002d0 ac 14 29 3d 9c b7 91 bd e1 03 37 bd 55 44 e5 3d
       0.04127948 -0.07115099 -0.044681434 0.11194674
0002e0 2c f0 96 3d 03 53 9e 3d f2 9b b5 3d 96 52 4c bd
       0.07370028 0.07730677 0.08867635 -0.049883448
0002f0 9f 59 48 3d 3f 18 17 3e df 1e 0c be c7 ef c9 3d
       0.048913594 0.14755343 -0.13683651 0.09860187
000300 f7 d7 22 3c af 9f 59 3c b2 ce 32 3e ff db ef bd
       0.009939185 0.0132827 0.1746166 -0.11711883
000310 4a 04 8c 3d d1 3f 4b bd 20 9e 74 3e 6a 16 0d be
       0.068367556 -0.049621407 0.23888445 -0.13778082
000320 a8 ca 18 3e 2f 47 f6 bd 73 03 1b 3d b3 fb e9 bd
       0.14921057 -0.12025296 0.037845086 -0.11424961
000330 9e 21 2a 3e d3 c1 95 bd 8a 8f af bc f1 5e 9d 3d
       0.16614386 -0.0731236 -0.02143075 0.07684124
000340 1a b1 c1 bd 08 13 a0 3d 60 45 90 3b 12 c1 b7 bd
       -0.094576076 0.0781613 0.0044028014 -0.08972372
000350 a5 c8 b5 bd 43 82 01 bd 0c cd b5 bc 96 e5 f7 bd
       -0.088761605 -0.031618368 -0.0221925 -0.12104337
000360 b6 38 d9 3b 60 9f 12 be 67 88 3d 3d 02 00 bc 3d
       0.006629075 -0.14318609 0.04627266 0.09179689
000370 b1 68 18 be a2 dc 2b be 12 2a ac bc a8 1c 9f 3d
       -0.14883687 -0.16783383 -0.021016154 0.077691376
000380 a1 02 bf 3d fb aa 99 bd 49 4b 87 bd 8b eb 57 3d
       0.09326673 -0.07503315 -0.066061564 0.052714866
000390 1f f8 b3 3d c2 a5 2a 3d 98 97 b4 3c 18 84 80 bd
       0.0878756 0.041661985 0.022044942 -0.06275195
0003a0 53 d5 82 ba ed 23 c1 3d 17 55 e8 bd c3 99 34 3e
       -0.0009981788 0.094306804 -0.113443546 0.1763678
0003b0 2f c2 01 3d 9f 40 05 3e 18 de 43 be d9 57 a0 bd
       0.03167933 0.13012932 -0.19127691 -0.078292556
0003c0 f5 dc bb bd 60 90 d2 bc 05 14 7d 3e 3b f3 94 bc
       -0.091730036 -0.025703609 0.24714668 -0.018182388
0003d0 6c b5 24 be f3 a8 8d 3d 43 34 54 3d 88 af be 3d
       -0.16084832 0.0691699 0.051807653 0.09310824
0003e0 47 94 ce 3d ea 3f 4a bd 0b 7c 33 3e c5 7b 32 3e
       0.100868754 -0.04937736 0.17527787 0.17430027
0003f0 83 9d 12 bd 8c b8 13 be 43 8c a0 bd 61 df 2f be
       -0.035794746 -0.14425868 -0.07839253 -0.17175056

bias f4 [64]
000000 db f8 bc 3d 89 0e ad bd 5b f0 9c 3d 9e db 8c 3d
       0.09227153 -0.08450038 0.07663032 0.06877826
000010 de 77 81 3d 33 a3 a1 3d fc d9 c4 3c 41 9d d3 bd
       0.06321691 0.07892456 0.024029724 -0.10332728
000020 4b c1 8b 3d 81 37 eb bd af f2 1d 3d 5a 8e fd 3d
       0.06823977 -0.11485196 0.03856152 0.12380667
000030 c1 86 b4 3c d0 08 10 ba cc aa 9f bd 51 24 da bd
       0.022036912 -0.0005494477 -0.07796249 -0.10651458
000040 4d 98 21 3b d2 82 c2 3c 4b 3f 82 bd 34 4f d4 3b
       0.0024657429 0.02374402 -0.063597284 0.0064791683
000050 e8 42 84 bc 8a 63 ca bd 56 00 14 bd d3 af cb bd
       -0.016145185 -0.09882267 -0.036133133 -0.09945645
000060 f3 80 a2 3c 54 c1 a2 bd 52 cb af 3d 05 9a be 3d
       0.019836878 -0.07947031 0.08583702 0.09306721
000070 10 82 94 3d 90 2d d3 bd 76 21 a7 3d d3 f6 9c 3c
       0.0725137 -0.10311425 0.08160679 0.019160664
000080 aa ff 02 be 03 d4 c5 3d 51 46 fb 3d 03 fe c4 3c
       -0.1279284 0.09659579 0.12269271 0.024046903
000090 3a 03 e2 bd 9c dd 94 bd e1 26 ee bc 4e 5f 9a 3d
       -0.11035772 -0.07268831 -0.029071273 0.07537709
0000a0 07 0d 03 be 99 57 05 be d6 9c 15 3d f7 81 10 3d
       -0.12797938 -0.13021697 0.036526524 0.035280194
0000b0 1a 8a 36 bd 32 3d e1 bd 34 49 be bc ce f9 8b 3d
       -0.044565298 -0.10998 -0.023228265 0.06834756
0000c0 94 94 d5 3d f1 9a 51 bc 75 34 e0 bd 7e 2d dd 3c
       0.1042873 -0.012793289 -0.109475054 0.026999231
0000d0 ba 06 c4 3d 68 13 95 bd 2b a9 c4 bc d1 00 6b 3d
       0.095715955 -0.07279092 -0.024006447 0.057373825
0000e0 80 65 dd bc 1e 5c db bd 53 ea a4 bd 2b f7 eb bd
       -0.027025938 -0.10710929 -0.08052506 -0.11521753
0000f0 0b d3 d5 bb 9c 19 9f 3d 2f 5b 01 bc aa f5 5c 3d
       -0.0065254024 0.077685565 -0.007895275 0.05394522

weight f4 [64, 64]
000000 7b de 14 be d3 6a 14 3e da 5c a7 bd 60 8e c5 bd
       -0.14537995 0.14493875 -0.08172007 -0.096462965
000010 de 1d 17 3e c3 3d 9f bd ff c6 c0 ba fe 05 c1 3d
       0.14757487 -0.07775452 -0.0014707743 0.09424971
000020 88 be 2f 3b 70 1d 0f bd 41 cb 65 3d f8 36 8d 3d
       0.0026816446 -0.034940183 0.05610204 0.0689525
000030 52 aa 20 bc 95 04 98 3c e8 3d b9 3b db d4 50 bc
       -0.0098062325 0.018556872 0.0056531318 -0.012746061
000040 1b a7 cd 3d 1c 14 f5 3d d1 9c 1b bd bf bf c8 bd
       0.100416385 0.11966726 -0.03799135 -0.09802198
000050 86 39 06 3e 3c 35 ed bd 44 91 4d be 5b 50 ef bc
       0.13107881 -0.11582419 -0.20074946 -0.029213121
000060 80 05 71 bd 91 fd ab bd 18 cf 85 3d 72 32 0d 3d
       -0.058843136 -0.08397973 0.065336406 0.034471937
000070 54 98 4b 3c 4b 01 0b 3d f7 b3 04 3d af a4 80 3d
       0.012426455 0.03393678 0.03239819 0.06281411
000080 72 1c d4 3d 50 5a 23 bd 88 77 9c 3d a6 77 2c 3d
       0.10356988 -0.03988105 0.07639986 0.042106293
000090 fb e4 bf 3d d7 46 a3 3d 6c 42 5b bd a2 28 bf bb
       0.093698464 0.07972496 -0.05353014 -0.005833701
0000a0 01 d9 2f 3c 85 42 8f bd ea 83 86 bd 69 93 04 be
       0.01073289 -0.069951095 -0.06568129 -0.12946858
0000b0 1e fc 80 3d 0f d4 25 3d 16 b5 1d 3d 7a 4e 0f be
       0.062980875 0.040485438 0.038502775 -0.1399478
0000c0 cd 5d f5 3d f9 84 90 3d c6 35 ad 3c b5 ac 06 be
       0.11980782 0.070566125 0.021143805 -0.1315182
0000d0 b9 37 4c bd e0 2c 91 bb b4 76 09 be 98 24 07 bd
       -0.04985783 -0.0044303983 -0.13424188 -0.032993883
0000e0 e5 bb 4d bc 01 2c cd bb 46 74 72 3d 71 5a 0c be
       -0.012557005 -0.006261349 0.05919292 -0.13706376
0000f0 e2 3a 4c 3d 4a 96 58 bd bc 5b 20 be ec 65 38 3c
       0.049860843 -0.0528777 -0.15659994 0.011254769
000100 b8 e9 d6 bc ec 15 e0 bd a5 c3 13 3e 9f 5a e1 bd
       -0.026234493 -0.10941681 0.14430101 -0.11003613
000110 8c 22 a6 3d 4c e9 7b b9 ce 93 89 bd 02 d0 90 bd
       0.08112058 -0.00024024135 -0.06717645 -0.07070924
000120 31 2f e0 bc 27 be ae 3d 6c aa 0a 3e 45 02 2d 3d
       -0.027366253 0.085323624 0.13541573 0.042238493
000130 32 95 0b 3e b3 b9 d8 3d ce 75 4a 3d f8 ca 95 3d
       0.13631132 0.10582294 0.049428754 0.07314104
000140 d0 61 96 3d 3f 4a 16 3d 34 9b 50 3c 55 ee 86 bc
       0.07342875 0.0366919 0.012732316 -0.016471067
000150 ad 3d ed bc 3a 2a 37 3d f7 fb 12 3d 7d 04 88 3d
       -0.028960073 0.044718005 0.035884824 0.06641481
000160 a9 d3 ea 3d 87 52 00 3e 84 6e 9f 3c d5 49 89 bc
       0.11466152 0.12531482 0.019461878 -0.016758839
000170 64 8a f6 3c 57 5f 64 3d bb 33 87 bd 62 45 ac bd
       0.030095287 0.055754986 -0.06601664 -0.08411671
000180 44 55 99 bd 8b 96 fe bc ba a8 d3 3d 06 1d 55 3d
       -0.07486966 -0.031077644 0.103349164 0.052029632
000190 9b 36 ac bc 2f 74 e8 bd 71 25 51 3d e9 50 2f 3d
       -0.021022132 -0.11350285 0.051061098 0.04280177
0001a0 a1 8d b4 bc bf 63 94 bd c8 74 17 3e 3d 58 0f 3c
       -0.02204019 -0.072455876 0.14790642 0.008749065
0001b0 94 6d ce bd 29 dd 87 3d 93 42 ca bc 21 8d bf bd
       -0.10079494 0.0663398 -0.024689948 -0.0935309
0001c0 73 2a 5e bd a0 91 6a bc d6 69 c3 bc 78 ad 86 bd
       -0.0542397 -0.014316946 -0.023854177 -0.06576055
0001d0 d4 b5 38 3d 29 ae 14 3d f1 60 ef bd 9f 03 cb 3c
       0.04509528 0.036298905 -0.11688412 0.024782
0001e0 ee a8 aa bd 64 1d c8 3d 60 e9 ba bd 59 e4 ec bd
       -0.08333002 0.09771231 -0.09126544 -0.11566991
0001f0 bc 2d a5 bc 38 ba bd bd 12 ca 8a bd b3 51 99 bd
       -0.02016341 -0.09264034 -0.06776823 -0.07486286
000200 5f 3e bc bd 0c 27 0a 3e ad 83 9e 3d ed eb 90 bd
       -0.09191584 0.13491458 0.07739959 -0.07076249
000210 68 64 77 3d 7e b4 a7 bd 98 f3 58 3d c8 31 75 bd
       0.06039849 -0.08188723 0.052966684 -0.05986193
000220 ed 95 a9 3c 24 d2 9a 3d 8a ea 88 bd 09 c4 b5 3c
       0.020701373 0.075596124 -0.0668536 0.022188203
000230 af 4b 23 3d 7c 4f 9c 3d 47 97 84 3c a8 5b c6 3d
       0.0398671 0.07632348 0.016185416 0.09685451
000240 da b1 db 3c 4b d7 ac 3d c9 45 71 bd 88 40 05 bd
       0.026818205 0.084395014 -0.058904443 -0.032532245
000250 12 15 97 3b 05 36 e1 3d a2 5b ec bd 33 4a 40 3d
       0.004610666 0.109966315 -0.11540915 0.046945762
000260 5b 50 38 3e 96 8a 69 3d 83 35 b3 3d b0 ae ad bd
       0.17999403 0.05701693 0.08750441 -0.084805846
000270 06 43 a8 bb c3 52 5d 3e d8 5c c0 bd e1 5f b2 ba
       -0.005134943 0.21613602 -0.093927085 -0.0013608896
000280 2b 29 91 bd f5 90 d1 3d ae 49 aa 3c d3 75 c7 bd
       -0.0708793 0.102327265 0.020787086 -0.0973927
000290 c1 24 f8 3d c7 e7 f2 3d 95 1d de bc f1 92 a9 3d
       0.12116385 0.11860614 -0.027113715 0.0827998
0002a0 4b 91 a7 bd c2 05 5b bc 35 2b ac 3c 70 43 e8 3d
       -0.08182009 -0.013368072 0.021016696 0.11340988
0002b0 e5 4e 29 3d c6 06 5e 3d 3b 18 32 3d a8 66 a0 bd
       0.041335005 0.05420568 0.04348014 -0.0783208
0002c0 7e 3b 6f bc a4 82 c2 3d de 9c 01 be a6 72 47 bd
       -0.014601586 0.09497574 -0.12657496 -0.04869332
0002d0 eb e5 a8 bd 91 50 68 bd 66 78 f9 bc b6 bc ac 3d
       -0.08246978 -0.05671746 -0.030452918 0.08434431
0002e0 70 2e a4 bd 24 be 7e 3d 82 be 81 bd 15 cc f7 3d
       -0.0801667 0.06219305 -0.063351646 0.120994724
0002f0 0f 73 9a bb cb c9 d3 bd 82 58 e7 bc 1e 6a d3 bd
       -0.004713423 -0.10341223 -0.028240446 -0.103229746
000300 71 0b 34 3d 3a 3a 11 3e 15 31 43 3d 24 8c 3c 3d
       0.043956224 0.14182368 0.04765423 0.046032086
000310 ce 16 02 be 04 86 33 3c 7d 15 33 3c 79 cb 9c bc
       -0.12704012 0.010957245 0.010930416 -0.019139992
000320 82 13 19 be 68 63 ff bc 37 84 15 be 0f 1d 12 3d
       -0.14948848 -0.03117533 -0.14601217 0.035672244
000330 f7 67 3a 3c c4 89 23 3d 4d 9a 50 3d 26 4a 2a bd
       0.011377326 0.039926305 0.050928403 -0.04157462
000340 43 33 3b 3c fa 3b bd 3d 2b a7 dd bb 29 9e bd bd
       0.011425796 0.09239955 -0.0067643127 -0.09258682
000350 3f e3 d0 bc 60 49 9c bc d8 3a ac 3d 1f d4 e3 3d
       -0.025498984 -0.019077957 0.08409661 0.11124443
000360 1f d3 08 3e fc 55 5e 3d e3 52 fd 3b 31 19 b9 bd
       0.13361786 0.05428122 0.007730828 -0.09038008
000370 21 31 c1 3c 3e 13 02 bc e8 9e aa bd 1e 5f a2 bd
       0.023582997 -0.007939158 -0.0833109 -0.079282984
000380 a8 d4 ac 3d 69 71 0a be aa 04 99 bc 7c f7 1b 3d
       0.084389985 -0.13519825 -0.018678982 0.038077816
000390 f8 f3 2e bd fe a9 fd bb 88 8f ee bd 7d 15 ab bb
       -0.042713135 -0.007741212 -0.1164847 -0.0052210675
0003a0 38 83 19 3e 04 e3 53 3c fc ae e1 bc 97 28 e2 3d
       0.14991462 0.012932543 -0.02754926 0.11042898
0003b0 08 e9 d6 3d 5d 41 15 3e b2 85 09 bd fd 17 3d 3d
       0.10493666 0.14575715 -0.033574767 0.046165455
0003c0 44 8c 87 bc 0b a2 3e 3d d4 9f 4f 3d 1a 67 92 bd
       -0.016546376 0.046541255 0.050689533 -0.07148571
0003d0 a9 db 92 bd 97 f8 e9 3c fe 58 61 3d b9 0c b7 bd
       -0.07170803 0.02856092 0.05501651 -0.089379735
0003e0 ce fe 8f 3d ac dd 5a bc e0 af ba 3d d0 1d 5e bd
       0.07031022 -0.013358515 0.09115577 -0.05422765
0003f0 f6 ab 89 bd 2b ec e9 3c 61 6c af bd d8 70 1a bd
       -0.06722252 0.028554996 -0.085655935 -0.037705272

bias f4 [64]
000000 57 4d 80 3d cc 45 35 bb 61 cf 88 3d 93 bd 30 3d
       0.062647514 -0.002766001 0.066801794 0.043149542
000010 85 eb ba bd bd a8 e0 bd 27 62 83 3d f9 e2 8b bd
       -0.09126953 -0.10969684 0.064152054 -0.06830401
000020 22 dc 80 bc 3b 28 86 3c cd 35 0a be 5a 57 30 bd
       -0.015729968 0.016376605 -0.13497086 -0.043052055
000030 cc d6 92 3d c2 e7 2b bc 37 20 a2 bd 85 d4 98 3d
       0.071698755 -0.010492267 -0.07916301 0.0746241
000040 b3 79 dc 3d 6d e5 a4 3c e1 0c 88 bd 1c d5 c8 3c
       0.107654 0.02012893 -0.066430815 0.024515681
000050 13 8b 1f 3d 01 e4 c2 bd 6b a5 bd bd e3 96 8a bd
       0.03895099 -0.095161445 -0.092600666 -0.067670606
000060 0c 8d fd 3d cb c7 48 bb 1e 38 a0 3c 13 69 4a 3d
       0.12380418 -0.0030636664 0.019558009 0.049416613
000070 67 ce c1 bd 39 a8 a8 bc 30 6b c9 3c f6 c0 dd 3d
       -0.09463196 -0.020588027 0.024587244 0.1082782
000080 92 19 48 bc b4 a1 e9 3b e0 6a e0 bd 01 19 0c be
       -0.012213128 0.007129872 -0.10957885 -0.13681413
000090 e5 cf 51 3c 0e 00 fb ba e5 d8 c3 3d 16 3b 5e 3d
       0.012805914 -0.0019149797 0.09562854 0.054255567
0000a0 11 ba a8 3d 02 0f 09 bd f7 29 00 bd ae b9 fa bc
       0.08238614 -0.03346158 -0.03129002 -0.030606117
0000b0 30 6f 20 bd 8c 2f 55 3c 72 f6 e8 bd 10 41 a5 3c
       -0.039168537 0.013011824 -0.11375131 0.020172626
0000c0 00 8a e5 bb 17 31 3a 3d fd f2 e3 3d ff d4 54 3d
       -0.0070049763 0.045456972 0.11130331 0.05196094
0000d0 b8 14 59 3c 5c f3 c3 bd ab d6 65 bd 43 57 67 bd
       0.013249569 -0.095679015 -0.056112926 -0.056479704
0000e0 23 b0 e0 bd 54 c5 53 3d 9e 05 e1 3d f5 2a 9a 3d
       -0.109710954 0.05170186 0.109873995 0.07527725
0000f0 43 57 cf 3d a5 cb b5 bd e8 f1 78 bd 04 06 34 bd
       0.10124066 -0.08876733 -0.060777575 -0.04395105

weight f4 [64, 64]
000000 b0 49 51 bd 2a f0 83 bd bd 01 f3 bd 41 61 6d bc
       -0.051095665 -0.06442292 -0.11865566 -0.014488519
000010 79 62 4d bd a0 f5 cb bd 9a c1 f5 3d 5c e3 12 be
       -0.05014274 -0.099589586 0.11999817 -0.14344543
000020 ac 52 63 bd 12 ca 85 3d 80 9f 83 bd bc c6 1d 3d
       -0.055498764 0.065326825 -0.064269066 0.038519606
000030 25 f6 b2 bd 20 71 95 bc 74 2e c9 3c 1b 8b 82 bd
       -0.087383546 -0.018242419 0.024558283 -0.063741885
000040 3b 8e b2 bd d0 b1 3e 3d 73 71 02 bd fa ba fa 3d
       -0.087185346 0.046556294 -0.031846475 0.12242694
000050 93 15 67 3c 75 03 b2 3d 8d 74 1a bd b9 65 6a bd
       0.014104265 0.086920656 -0.037708808 -0.057225917
000060 d0 f1 95 bc d9 1a 0e 3e 30 2e 0d 3e 2e a8 43 3d
       -0.018303782 0.13877429 0.1378715 0.04776781
000070 60 3f 32 bd 4a 5a e3 3c ca dd 0e 3d d0 bf eb 3d
       -0.04351747 0.027753014 0.034879483 0.11511195
000080 f3 2b af 3d d3 dc 46 3d 9c d7 e2 bc 09 db b2 3d
       0.085533045 0.048550438 -0.027690701 0.08733184
000090 3c 18 3d 3d ad 7a c9 bd 4c ed d0 3d 8c a7 34 3d
       0.04616569 -0.09837852 0.10201511 0.044105098
0000a0 05 32 c4 3d 33 b1 b5 3d 43 43 43 3c 4f ef f9 bd
       0.09579853 0.08871689 0.011917892 -0.122038476
0000b0 c2 1d b5 bd d1 ab 02 bd a1 e4 91 3d 04 39 b5 3c
       -0.088435665 -0.03190214 0.07123686 0.022121914
0000c0 33 49 bc 3c fb 49 f7 bd 65 f3 8c 3d 50 38 9e bd
       0.022984123 -0.120746575 0.06882361 -0.077255845
0000d0 ee b5 9f 3d 3b bd df bd fc a9 bc bc ca 63 8e 3d
       0.07798372 -0.10924765 -0.023030274 0.06952627
0000e0 d3 5c a8 3d 73 53 09 be 0f 92 d6 3d c2 12 ba bd
       0.0822083 -0.1341074 0.10477077 -0.09085609
0000f0 43 68 da bd d5 48 b1 bd 49 7b 19 be 90 0c 84 3d
       -0.106644176 -0.0865647 -0.14988436 0.064477086
000100 f9 63 ca 3d 09 99 f0 3d c2 71 81 3d 76 b5 4c bc
       0.098823495 0.11747939 0.06320526 -0.0124944355
000110 83 4f b6 3c 8d 8d 84 3d 40 75 1b be 9e 04 97 3c
       0.022254711 0.06472311 -0.15181446 0.018434819
000120 a1 25 8b 3d ed 34 df 3d 9d 59 c7 3d da 1a 3c bd
       0.067942865 0.10898767 0.09733889 -0.045924045
000130 8e 1d 36 3c 3f f3 e3 3d 0b 73 c1 3d ac 41 0c bd
       0.011115445 0.1113038 0.09445771 -0.034242317
000140 53 d0 bc 3d 0f 6a 9e bc 1a 39 0f bd 14 e5 88 bc
       0.09219422 -0.019337682 -0.034966566 -0.016710795
000150 ba 0a 44 3d 08 d2 34 bd 86 64 6c bc 0e 8c 82 bd
       0.047861792 -0.044145614 -0.0144282635 -0.063743696
000160 f2 56 1b ba 3c a4 92 3d 8d 57 5a bd 7e 87 2b bd
       -0.00059257366 0.071602315 -0.05330615 -0.041877262
000170 8c 78 a1 3c 7f 2b 57 3d f3 ce f5 3b 4f 5b 67 bd
       0.019710802 0.052531715 0.007501477 -0.056483563
000180 1b 53 a1 3c 82 4b b6 3c 34 fd 0b 3e 62 da a4 3d
       0.019692948 0.022252802 0.13670808 0.08049466
000190 7b ea 21 bc 4d 3b 74 3d 52 cf 2f 3d 4c 3c e5 bc
       -0.009882565 0.059626866 0.042922325 -0.027982853
0001a0 10 9a 82 bd 25 38 a0 bd 39 5d ef 3c 14 e9 6e 3d
       -0.06377041 -0.07823209 0.029219257 0.05832775
0001b0 ef 41 1d bd 4a 5b 6c bd 4a 39 22 3d c8 ce 14 bd
       -0.038392957 -0.057704248 0.039605416 -0.036330014
0001c0 2c 39 31 3d 11 ec 6a 3d 8d 55 f5 3b 2f 2e 02 3d
       0.043267414 0.057354037 0.007487005 0.031782325
0001d0 01 c6 70 bd 1a 91 27 3d 8a 42 71 bd 6f 4c df bc
       -0.05878258 0.040909864 -0.058901347 -0.027258126
0001e0 98 0f e2 bd 12 d4 ec 3c 90 03 a6 bd aa ab 28 bc
       -0.110381305 0.028909717 -0.08106148 -0.010294834
0001f0 90 c3 05 bd e4 8e a9 3d 98 e9 cf 3d dd a0 72 3d
       -0.032657206 0.08279207 0.10151976 0.059235442
000200 ed 15 6c bc 1c 78 1e 3e 26 de c6 bd d8 e9 93 bc
       -0.014409524 0.15475506 -0.0971034 -0.018055841
000210 33 26 4e 3d 6a b5 eb bd 85 be de 3d 10 c6 9e 3d
       0.0503294 -0.11509211 0.108761825 0.07752621
000220 e3 38 48 3d e3 88 72 3d e3 d2 e9 3d 4d 4a ae bc
       0.048882376 0.059212577 0.114171766 -0.021275664
000230 fd 8a 5a 3d 20 db a7 bd 8d 6c 9c 3d 75 1f 14 be
       0.053355206 -0.08196092 0.07637892 -0.14465125
000240 80 5c e4 39 11 52 90 bd b1 e5 62 bd 04 b3 94 bd
       0.00043556467 -0.07046903 -0.055394832 -0.07260707
000250 33 04 53 bc 0f e6 bf bd 1a 48 4d bd 10 e5 f5 bd
       -0.012879419 -0.09370052 -0.05011759 -0.12006581
000260 b7 78 a8 3d 6b c2 9d 3d ef 11 c5 3b 68 12 72 3d
       0.082261495 0.07703098 0.0060141007 0.059099585
000270 80 87 32 3d d5 94 53 bd 62 f5 0c bd 32 7c 58 3d
       0.043586254 -0.05165561 -0.034413703 0.052852817
000280 74 c5 dd bc 7e 75 07 bd 08 1a f9 bc ab 5e 80 3d
       -0.027071692 -0.033071034 -0.03040792 0.062680565
000290 c5 d6 57 bd 35 6b 59 3c 14 d3 9e bd c3 66 8b 3d
       -0.052695055 0.013270189 -0.07755104 0.068067096
0002a0 00 38 31 bd 1e 21 66 bd 39 f6 2f bd da fa 24 bd
       -0.043266296 -0.056183927 -0.042959426 -0.040278293
0002b0 c2 ea b7 3c 13 d3 fc 3d bd f1 93 3c 27 a4 1b bd
       0.022450808 0.12344947 0.018059606 -0.037998345
0002c0 fe e3 f6 bd 02 6a da bc 3c 4d b1 3d 52 90 d9 bd
       -0.12055205 -0.026661877 0.086573094 -0.1062323
0002d0 a4 19 1e 3b 15 4d 89 3d 1c d7 94 3d cb 86 bf bd
       0.002412417 0.06704155 0.07267591 -0.093518816
0002e0 40 89 bf bd a1 c4 a4 3d 0c 95 f6 bc b9 f9 55 3d
       -0.0935235 0.080453165 -0.030100368 0.052240107
0002f0 6f 66 1a be f5 f3 c0 3c ae ab 3a bc 69 d9 00 3c
       -0.15078138 0.023553828 -0.011393471 0.007864335
000300 74 70 15 bd 4c 2b a0 3d ba 41 28 bd 24 2a 80 bd
       -0.036484197 0.07820758 -0.041078307 -0.06258038
000310 db 16 8e bd 92 b2 30 3e 7d ed 32 bc 86 85 5e bd
       -0.06937953 0.17255619 -0.010920879 -0.054326557
000320 70 8b 32 3d db e5 af 3d 30 db 25 be 07 ed ed 3d
       0.04359001 0.08588763 -0.16196895 0.11617475
000330 08 35 80 3d 10 e1 a2 3d 68 9d 19 ba 97 81 5d bd
       0.06260115 0.079530835 -0.0005859942 -0.054078665
000340 eb 08 e9 bc 2e 99 e7 3d c8 d4 7c bd ff 19 12 be
       -0.028446635 0.113085136 -0.06172636 -0.14267729
000350 89 b0 2c bd 70 06 7d 3d 61 a8 02 be 34 0e 60 bb
       -0.042160545 0.061773717 -0.12759544 -0.0034188153
000360 e0 d6 ca 3c 6b ab 3b bd ab 66 d6 bd 8d 0c 7a bd
       0.024760664 -0.045817774 -0.10468801 -0.061047126
000370 83 7f 38 bd 34 a2 58 3d e3 e8 21 be c7 1d ce bb
       -0.04504348 0.052889064 -0.15811495 -0.006290171
000380 61 57 19 3c e3 61 1f 3d 70 0e 6b bd e2 d4 a5 3d
       0.009359212 0.03891171 -0.057386816 0.08097245
000390 27 2a c6 bc 34 29 d8 3d b5 4a cf bd 56 1b 9a bd
       -0.024190022 0.10554734 -0.10121671 -0.07524745
0003a0 34 64 9e bd 30 9e 1a 3d 2e 90 00 be 76 6f e6 3d
       -0.07733956 0.037748516 -0.12555 0.11251728
0003b0 f7 ac e8 bd a4 8b 69 3d ac f6 4c bd b4 e1 d9 bd
       -0.113611154 0.057017937 -0.050039932 -0.106387526
0003c0 74 14 b1 bd f0 a3 9d bd df 2e 8a 3c 7b 0c 30 3e
       -0.08646479 -0.07697284 0.016868053 0.17192261
0003d0 0a 69 ef bb 8a 82 b3 bd d2 46 b6 3c d7 f0 0b 3d
       -0.007306223 -0.08765133 0.022250567 0.03416523
0003e0 f0 24 63 bd b0 3c a6 3d ce 81 e9 bd e5 fb ba bc
       -0.05545515 0.08117044 -0.114017114 -0.02282519
0003f0 da bf 00 3d ad 89 a2 3c ca a6 bf bc 7b a8 ec bd
       0.031432964 0.01984104 -0.02339496 -0.115555726
