tests/python/kaolin/physics/simplicits/regression_test_data/fox_mesh_model_10k_steps.pt (torch, 111399 bytes, 16 tensors)

weight f4 [64, 3]
0.122775204 -0.11087882 0.53642184 -1.1413383 -0.3362953 0.42270762 -0.3891863 -0.72502583
0.3249495 -0.5095262 0.7456045 0.60912424 -0.52732736 -0.39587077 0.34466025 0.24227756
0.6041184 -0.17499147 0.5027312 0.30697796 -0.20098707 -1.2748389 0.22465597 0.5906611
0.28331226 -0.642891 0.30204934 0.3177147 -0.35153213 0.52399695 0.7073981 0.8154419
0.6899329 0.41207823 0.7427346 -0.46413538 0.21827167 0.4556966 -0.738655 0.090225354
-0.39459056 -0.096041925 -0.6177364 -0.039129354 0.05703031 -1.7134823 -0.4176638 -0.6285532
1.2735406 0.57663983 -0.84780735 0.26064426 0.2879199 0.6232561 -0.4457043 0.42956883
0.65923804 0.85728335 0.73557067 0.41804957 -0.048060976 0.74313045 -0.05844449 0.9512994
-0.71155745 -0.6793888 0.1722063 0.59696853 0.12083771 0.018689906 -0.6622239 -0.18511628
0.95555526 -0.15063687 -0.2132162 -0.91550934 0.27101213 -0.23962878 0.611115 -0.081568226
0.38060704 0.6176562 -0.41394246 -0.33362582 0.32787672 -0.62714255 -0.03532793 0.7791692
-0.4269079 -0.58084077 -1.1766225 0.703178 0.5594284 0.36050588 -0.10760989 -0.1387377
0.9790573 -0.8007953 0.0023157382 0.34747383 -0.85630894 -0.6978613 -0.32346895 -0.13983898
0.41629127 -0.61942786 -0.09975341 -0.5788593 0.47326905 0.66820854 -0.11356965 -0.22728418
-0.6256395 -0.33335176 1.2663126 -0.19241828 -0.632642 0.48793665 0.90889007 -0.46647435
-0.15071777 -0.6831659 0.6941425 -0.56678236 -0.5076911 -0.2681776 -0.7394271 -0.54849887
0.29766303 1.417517 0.18973425 0.55018044 -0.79890627 -0.4744941 -0.3830172 0.23883644
0.47784877 0.10174968 -0.9695607 0.16300009 0.42814216 -0.91791934 -0.5647671 0.38577807
0.8229735 0.5054798 0.4452819 -1.2365165 -0.27825698 -0.224293 -0.70203286 0.3993
0.1679574 0.038740028 -0.49519092 0.16085199 -0.8952457 -0.76815724 0.20512004 1.5147828
-0.5049433 0.71053416 0.8937864 0.17235982 -0.16055435 -0.8893279 0.6481744 -0.07912125
-0.7769796 -0.6721802 0.0874049 -0.2860322 0.6082426 -0.04127159 0.08498774 -0.210549
-0.7586933 1.2553129 0.65294117 -0.60727876 -0.4170406 -0.67033625 -0.22596985 -0.31503496
-0.6713736 0.48000523 1.5026681 -0.2319547 -0.18616655 -0.88896906 0.40035248 -0.6789375
00000000: 9171 fb3d 6f14 e3bd f152 093f 6017 92bf
00000010: e62e acbe 226d d83e 6d43 c7be 4b9b 39bf
00000020: c85f a63e 4f70 02bf f0df 3e3f 91ef 1b3f
00000030: edfe 06bf 93af cabe 4f77 b03e 9c17 783e
00000040: 81a7 1a3f f730 33be feb2 003f 372c 9d3e
00000050: 8ecf 4dbe ec2d a3bf 370c 663e 9135 173f
00000060: 4e0e 913e 8194 24bf 36a6 9a3e 80ab a23e
00000070: 05fc b3be aa24 063f 0b18 353f cdc0 503f
00000080: 719f 303f ebfb d23e db23 3e3f 27a3 edbe
00000090: 9c82 5f3e 1151 e93e 7e18 3dbf 12c8 b83d
000000a0: c607 cabe a1b1 c4bd f923 1ebf 1a46 20bd
000000b0: 9d98 693d 6353 dbbf 08d8 d5be dde8 20bf
000000c0: 6103 a33f ab9e 133f e709 59bf 2a73 853e
000000d0: 3d6a 933e b68d 1f3f 5b33 e4be 72f0 db3e
000000e0: d3c3 283f ec76 5b3f 5c4e 3c3f 980a d63e
000000f0: 96db 44bd cc3d 3e3f 7d63 6fbd 5c88 733f
00000100: a128 36bf 6dec 2dbf d956 303e eed2 183f
00000110: c379 f73d 931b 993c 8187 29bf 1f8f 3dbe
00000120: 459f 743f 8d40 1abe 5955 5abe d25e 6abf
00000130: 1ac2 8a3e 3f61 75be 0872 1c3f 3e0d a7bd
00000140: edde c23e b71e 1e3f 44f0 d3be 01d1 aabe
00000150: 75df a73e 6a8c 20bf 05b4 10bd a277 473f
00000160: ac93 dabe fbb1 14bf 919b 96bf 7903 343f
00000170: b336 0f3f 3a94 b83e 9362 dcbd 4111 0ebe
00000180: 80a3 7a3f ec00 4dbf a4c3 173b 17e8 b13e
00000190: 1037 5bbf 0aa7 32bf b99d a5be f331 0fbe
000001a0: 2124 d53e d392 1ebf 844b ccbd 2030 14bf
000001b0: 5250 f23e b70f 2b3f 3497 e8bd 2fbd 68be
000001c0: e929 20bf 15ad aabe 8816 a23f 4c09 45be
000001d0: d3f4 21bf d5d2 f93e 05ad 683f bad5 eebe
000001e0: c255 1abe f6e3 2ebf 53b3 313f a618 11bf
000001f0: 0bf8 01bf 934e 89be 184b 3dbf 6c6a 0cbf
00000200: 4a67 983e 3271 b53f b249 423e a0d8 0c3f
00000210: 1f85 4cbf e4f0 f2be d51a c4be 8a91 743e
00000220: 98a8 f43e 2362 d03d 2135 78bf 7fe9 263e
00000230: 7335 db3e c3fc 6abf 9494 10bf b484 c53e
00000240: 64ae 523f 2067 013f fdfb e33e 2c46 9ebf
00000250: b377 8ebe 10ad 65be 6db8 33bf 0d71 cc3e
00000260: 06fd 2b3e ddad 1e3d aa89 fdbe 62b6 243e
00000270: d22e 65bf f4a5 44bf fd0a 523e 67e4 c13f
00000280: f743 01bf 91e5 353f 2fcf 643f 187f 303e
00000290: 5c68 24be feaa 63bf c2ee 253f 520a a2bd
000002a0: 23e8 46bf 0014 2cbf 5701 b33d d072 92be
000002b0: c9b5 1b3f 660c 29bd 0d0e ae3d 289a 57be
000002c0: b939 42bf 18ae a03f 2727 273f 9f76 1bbf
000002d0: 5886 d5be 289b 2bbf a464 67be 434c a1be
000002e0: 24df 2bbf 3fc3 f53e 6e57 c03f 8885 6dbe
000002f0: 72a2 3ebe 7a93 63bf 00fb cc3e d9ce 2dbf

bias f4 [64]
-0.30720475 0.054403316 -0.13569078 -0.3928897 0.06527317 -0.4911759 0.3839319 -0.0667034
0.371218 0.38457292 0.0065470957 0.089964084 -0.2120336 0.40032503 0.29857722 0.51820236
-0.028162772 0.40834576 0.29899544 -0.010802699 -0.091778055 -0.06578409 -0.43553266 -0.46855125
-0.05461964 0.44764623 0.3506 0.4044074 0.4477421 -0.25570384 0.12691844 0.20779282
-0.1388462 -0.29241818 0.46386293 -0.1920867 -0.28241786 -0.4716949 0.375024 0.42030665
-0.16773206 0.19776694 0.059499267 0.016712556 0.37835294 -0.25808915 -0.4265467 0.50975287
-0.2289705 -0.3828824 0.40420085 0.35175017 0.33093357 0.021552224 -0.2122436 -0.3064194
-0.33114687 0.22526772 0.41689077 -0.07996207 0.0053419243 -0.39680824 0.32579234 -0.102481894
00000000: f149 9dbe 03d6 5e3d 86f2 0abe d728 c9be
00000010: f1ad 853d 687b fbbe b992 c43e cb9b 88bd
00000020: 4910 be3e bee6 c43e 0589 d63b 173f b83d
00000030: 561f 59be 67f7 cc3e 1ddf 983e e9a8 043f
00000040: 9db5 e6bc b212 d13e ee15 993e cefd 30bc
00000050: 22f6 bbbd cfb9 86bd 23fe debe f3e5 efbe
00000060: d8b8 5fbd e331 e53e d881 b33e 7d0e cf3e
00000070: 743e e53e 9deb 82be e8f6 013e a4c7 543e
00000080: b32d 0ebe d6b7 95be 717f ed3e 60b2 44be
00000090: 1399 90be fe81 f1be 2503 c03e 6f32 d73e
000000a0: f4c1 2bbe 6b83 4a3e 81b5 733d c5e8 883c
000000b0: 7ab7 c13e 4324 84be 5464 dabe 2a7f 023f
000000c0: 3e77 6abe 2909 c4be 6af3 ce3e 9918 b43e
000000d0: 2070 a93e 4a8e b03c 6356 59be 01e3 9cbe
000000e0: 158c a9be 95ac 663e b572 d53e 27c3 a3bd
000000f0: 4f0b af3b 732a cbbe 41ce a63e 07e2 d1bd

weight f4 [64, 64]
-0.07960434 -0.033009857 0.0091139935 -0.049006164 0.13862546 -0.049746163 0.030627675 0.0056698993
-0.07191709 0.010832055 -0.15129934 -0.06303867 -0.09213176 -0.072697334 -0.042271648 -0.089510076
-0.107658625 -0.11176773 -0.023978064 -0.11867117 -0.014130988 0.032313876 -0.021382997 -0.009061051
-0.0601735 0.07170577 0.016479379 0.114673436 -0.0354468 -0.14200014 -0.09516101 0.053633932
-0.040783197 0.03216308 0.036812123 -0.016565878 0.02930097 0.093259335 -0.095609106 0.0034254016
-0.13171956 -0.07504705 0.05225449 -0.09915225 -0.011162789 -0.06488509 -0.076820664 0.041872296
-0.040162705 -0.043501887 -0.031185007 -0.07919187 0.016964091 0.05875587 -0.11893676 -0.06779445
-0.021546481 0.025085872 -0.096483 -0.13161826 0.0488064 -0.0034422458 -0.0142850885 -0.101580195
0.09427225 -0.083765544 0.017328838 0.0126248 0.10322466 0.029378198 -0.042557187 -0.02725017
-0.07653195 0.044968147 -0.0018715957 -0.12909432 -0.00046161073 0.11811465 -0.09890726 0.01011633
0.0050005196 0.025008276 -0.08037653 -0.088029 -0.09753842 0.1279353 -0.10359406 -0.03046078
0.075021274 -0.0058008367 0.07264388 0.13551542 0.10545579 -0.09119445 -0.031632833 0.024609039
0.1583332 0.12976412 -0.09725092 0.0899315 0.09037205 0.12480351 0.10826187 0.027030997
0.14512663 0.040111832 0.08100362 0.12732688 0.13070226 0.017036488 -0.079675555 -0.018852022
-0.032429263 -0.0868885 -0.014101427 0.0062898025 -0.02684021 0.23077811 0.099927194 -0.0959926
0.048942372 0.00045797267 0.098091915 0.0006350073 0.23386623 0.12527147 -0.054979607 -0.011410661
-0.063666284 -0.10749397 0.11684582 -0.08442645 0.093185626 -0.06458433 0.0232158 -0.09121951
0.06325288 -0.0013157197 -0.13313207 -0.16172388 -0.1338748 0.02965593 0.06101726 -0.072159745
0.00265895 0.1038926 -0.018303383 -0.028988782 -0.10284493 0.06243601 -0.120540105 0.12702364
0.134687 -0.033240907 -0.047295295 0.121382914 0.048896022 0.011393498 0.03206842 -0.08064289
0.16056871 0.11274057 0.11144992 0.10141971 -0.114826694 0.033366844 -0.108842246 -0.055727456
-0.045495044 -0.09306727 0.1193704 -0.007902084 0.12477162 -0.053818703 0.034776095 0.08160625
0.10293188 -0.0064700884 -0.071916535 0.13280532 0.025792912 0.25305456 0.033009555 0.033191018
-0.015665997 -0.006866597 -0.10893988 -0.13199037 0.22368549 -0.050810438 0.1121805 0.022444362
0.06776348 -0.104537226 -0.092383556 -0.061086416 0.024722971 0.071460225 -0.06215527 0.06202605
0.0047336738 -0.09675947 -0.14701393 -0.047717765 -0.027073914 -0.083407395 -0.07041625 0.05432559
0.0549082 0.03370809 -0.017873265 -0.23482117 -0.12479116 0.012654006 0.046698425 -0.0613042
-0.0209756 0.025170527 -0.09712511 0.039352138 0.121494986 -0.01318032 -0.09474492 0.024410117
0.11444471 -0.048429005 0.07522862 -0.018374262 -0.10900435 -0.06657509 -0.09849947 0.020919144
0.11871246 0.07223578 0.12844081 0.055598356 -0.0720907 0.062200632 -0.0715149 -0.059843455
0.021735765 -0.08036699 0.08572794 -0.010055211 0.027737651 0.34317392 0.041044928 -0.0026562507
-0.0277382 -0.013509783 -0.019810371 0.040460184 0.15306745 -0.04578846 0.13332883 -0.018095408
00000000: 9a07 a3bd 5835 07bd dc52 153c b0ba 48bd
00000010: d5f3 0d3e a2c2 4bbd e4e6 fa3c 90ca b93b
00000020: 4449 93bd ee78 313c 37ee 1abe 6b1a 81bd
00000030: 94af bcbd 57e2 94bd 0925 2dbd 0f51 b7bd
00000040: 207c dcbd 7be6 e4bd a56d c4bc df09 f3bd
00000050: a985 67bc 8e5b 043d 652b afbc cd74 14bc
00000060: 7d78 76bd 7ada 923d c3ff 863c e8d9 ea3d
00000070: aa30 11bd 7c68 11be c7e3 c2bd 41af 5b3d
00000080: 480c 27bd 6fbd 033d 4fc8 163d 2ab5 87bc
00000090: 9608 f03c c0fe be3d b5ce c3bd b47c 603b
000000a0: 7ee1 06be 45b2 99bd ce08 563d 5610 cbbd
000000b0: 21e4 36bc 79e2 84bd 2754 9dbd 4982 2b3d
000000c0: a681 24bd 092f 32bd b377 ffbc 592f a2bd
000000d0: 47f8 8a3c ffa9 703d 1e95 f3bd d1d7 8abd
000000e0: 3f82 b0bc e380 cd3c e198 c5bd f0c6 06be
000000f0: 38e9 473d 4d97 61bb 010c 6abc 4709 d0bd
00000100: cf11 c13d 458d abbd 35f5 8d3c 40d8 4e3c
00000110: 7367 d33d 8caa f03c 7250 2ebd c03b dfbc
00000120: c8bc 9cbd 8530 383d 5550 f5ba 4d31 04be
00000130: 5804 f2b9 18e6 f13d e48f cabd f7be 253c
00000140: 66db a33b 28de cc3c 739c a4bd 8c48 b4bd
00000150: 39c2 c7bd 7901 033e 1f29 d4bd e388 f9bc
00000160: c1a4 993d f214 bebb 51c6 943d 8ec4 0a3e
00000170: 35f9 d73d 28c4 babd 6e91 01bd e598 c93c
00000180: 1922 223e e3e0 043e 7e2b c7bd 022e b83d
00000190: fb14 b93d fc98 ff3d 66b8 dd3d 1c70 dd3c
000001a0: 139c 143e 4e4c 243d 3ae5 a53d fa61 023e
000001b0: d0d6 053e 1b90 8b3c f02c a3bd 8e6f 9abc
000001c0: 8cd4 04bd 99f2 b1bd ac09 67bc b01a ce3b
000001d0: 00e0 dbbc 1951 6c3e a1a6 cc3d c597 c4bd
000001e0: cc77 483d 0d1c f039 6ae4 c83d 9e76 263a
000001f0: a17a 6f3e 2a47 003e 4c32 61bd c8f3 3abc
00000200: 7863 82bd cc25 dcbd dc4c ef3d c6e7 acbd
00000210: 1bd8 be3d ca44 84bd 102f be3c 4bd1 babd
00000220: ba8a 813d 3a74 acba c653 08be f29a 25be
00000230: 7a16 09be fef0 f23c 3ced 793d 7dc8 93bd
00000240: c741 2e3b a5c5 d43d faf0 95bc e279 edbc
00000250: 5da0 d2bd e7bc 7f3d bbdd f6bd 7c12 023e
00000260: 64eb 093e 9e27 08bd b6b8 41bd 9b97 f83d
00000270: 3247 483d cbab 3a3c 2d5a 033d 1928 a5bd
00000280: 206c 243e 87e4 e63d db3f e43d 23b5 cf3d
00000290: 422a ebbd acab 083d afe8 debd 7942 64bd
000002a0: 0359 3abd 0e9a bebd 7878 f43d be77 01bc
000002b0: 4388 ff3d 0071 5cbd 6171 0e3d 2d21 a73d
000002c0: f3cd d23d 0903 d4bb fa48 93bd 1efe 073e
000002d0: a84b d33c 5e90 813e 0735 073d 4ef3 073d
000002e0: fa55 80bc 3101 e1bb df1b dfbd 7c28 07be
000002f0: cf0d 653e 9b1e 50bd e4be e53d 3ddd b73c
00000300: 94c7 8a3d 9d17 d6bd 9733 bdbd c035 7abd
00000310: d487 ca3c bd59 923d 8696 7ebd 070f 7e3d
00000320: ef1c 9b3b d429 c6bd d28a 16be b473 43bd
00000330: 1dca ddbc 7fd1 aabd 6536 90bd 8384 5e3d
00000340: 6ce7 603d 7f11 0a3d f46a 92bc f674 70be
00000350: 8292 ffbd bf52 4f3c d946 3f3d 1d1a 7bbd
00000360: 06d5 abbc 6c32 ce3c 88e9 c6bd b52f 213d
00000370: 5dd2 f83d 45f2 57bc a009 c2bd baf7 c73c
00000380: fd61 ea3d 7e5d 46bd 7611 9a3d 9f85 96bc
00000390: ac3d dfbd 8558 88bd 17ba c9bd a05e ab3c
000003a0: 851f f33d 5af0 933d fd85 033e 1abb 633d
000003b0: 4aa4 93bd 17c6 7e3d 6776 92bd 691e 75bd
000003c0: 340f b23c 7397 a4bd 2192 af3d 9dbe 24bc
000003d0: 123a e33c 7eb4 af3e ba1e 283d 7e14 2ebb
000003e0: 393b e3bc 2358 5dbc 5c49 a2bc 94b9 253d
000003f0: b7bd 1c3e ae8c 3bbd 5a87 083e d23c 94bc

bias f4 [64]
-0.060887206 -0.018973397 -0.123550124 -0.08333395 0.01828428 0.065619156 0.04369174 0.016320005
-0.116297 -0.068694025 -0.018369447 -0.11953481 -0.050948553 0.010614182 0.05379429 -5.7699333e-05
0.019438406 -0.08179681 -0.025027782 -0.046664737 0.014895811 0.038680524 -0.0365035 0.119690955
-0.09876355 -0.116324335 -0.09764911 -0.06649133 0.067924604 -0.10638977 -0.004373863 0.071637325
-0.09179458 -0.05573904 -0.12257201 -0.11753419 0.044046532 -0.057067834 0.018014975 -0.064935885
-0.06424084 0.048594967 -0.051951386 0.04140298 -0.059535205 -0.044504873 0.041913893 0.051621534
-0.04346804 -0.10087692 0.027374033 -0.10842099 -0.0076828273 0.09395109 -0.057340994 -0.100569926
-0.11339781 0.052890237 0.0708297 0.060308557 0.08511414 0.0993392 -0.079490654 0.088670515
00000000: dd64 79bd 196e 9bbc d907 fdbd fdaa aabd
00000010: eac8 953c 5663 863d 1cf6 323d 88b1 853c
00000020: 1f2d eebd 74af 8cbd 867b 96bc abce f4bd
00000030: 6eaf 50bd 1be7 2d3c 6757 5c3d 3002 72b8
00000040: 4b3d 9f3c 1685 a7bd 1007 cdbc 8623 3fbd
00000050: 8f0d 743c 786f 1e3d b284 15bd 8820 f53d
00000060: 8b44 cabd 743b eebd 42fc c7bd 9b2c 88bd
00000070: 0e1c 8b3d e1e2 d9bd 9f52 8fbb 97b6 923d
00000080: ccfe bbbd 9f4e 64bd 0907 fbbd c4b5 f0bd
00000090: 236a 343d f6bf 69bd 2494 933c 1bfd 84bd
000000a0: b490 83bd 840b 473d faca 54bd 2c96 293d
000000b0: 30db 73bd be4a 36bd e7ad 2b3d 1a71 533d
000000c0: 8b0b 32bd 8f98 cebd 823f e03c d30b debd
000000d0: 3ac0 fbbb 6e69 c03d 64de 6abd 9bf7 cdbd
000000e0: 1c3d e8bd 6fa3 583d 290f 913d 1b06 773d
000000f0: 5250 ae3d 5a72 cb3d ffcb a2bd e398 b53d

weight f4 [64, 64]
-0.062058534 0.120337546 -0.021856967 -0.0062301653 0.009530818 0.004802917 -0.0040692906 -0.014198223
0.044699904 -0.005668968 0.017624239 -0.030085472 0.005950798 0.10309744 0.067273706 0.10619321
0.078215055 0.13529244 -0.10010579 0.09368856 0.02068445 0.025924463 0.060882322 0.012594765
-0.0954226 -0.0643967 0.16440679 -0.048519775 0.020443723 -0.045526467 -0.03803333 0.16461524
0.067601174 -0.037552852 0.01950134 0.07878753 -0.01526102 -0.006144296 0.08309566 -0.026569689
-0.06532115 -0.031445365 0.108261764 -0.015247318 0.08338156 0.053132314 0.10162027 0.1362411
-0.092800096 0.04713008 0.08646106 -0.018153079 0.01323474 0.077325396 -0.0030368413 0.024305323
-0.08967994 -0.059340887 0.021511214 0.082110524 0.12918194 -0.03760108 -0.034057602 -0.06294862
0.08735403 0.05891033 -0.10932862 0.04341874 -0.0027110458 0.0847971 0.09878617 -0.02185267
-0.07518477 0.12464782 -0.13208336 -0.11359804 -0.051799476 -0.133726 -0.022962404 -0.12930451
-0.03967923 0.02697192 0.079214275 -0.09378027 -0.014127622 -0.1655975 0.008787642 0.036033224
-0.06484142 0.04778187 0.043215025 -0.089603 -0.055194225 -0.10187137 -0.08310243 -0.1289397
-0.0017442724 0.020374186 -0.09397881 -0.13119501 -0.030021304 0.0089749005 0.031186853 0.09203081
-0.06790994 -0.104313366 0.010252582 -0.021103142 -0.009947181 -0.033442583 0.101788744 0.08349435
0.10056498 -0.06256578 -0.0065900125 0.063198455 0.07868412 0.03568475 0.14616923 -0.1490758
0.033272203 0.04231121 0.10061136 -0.10768941 0.040753428 0.015224419 -0.12542774 0.010781597
0.057391874 0.09950412 -0.14671932 -0.12447676 -0.021655248 0.04741411 -0.100418106 0.049017437
0.040109746 0.01459507 -0.009914773 -0.052630585 -0.085042015 -0.009450115 -0.06532568 0.038785838
0.081283145 -0.004923583 -0.04121542 -0.05943942 0.0027957538 -0.11685371 -0.009644836 -0.089949906
-0.014650982 -0.03132247 -0.11196817 -0.01602451 -0.09798379 -0.044210684 0.05067547 -0.0020384875
-0.021892196 -0.07895379 -0.0034961808 0.0018447306 0.030339524 -0.04713219 -0.056957345 -0.10978214
0.06976856 0.019442707 0.09048218 0.10694717 0.0011590325 -0.12387669 0.038350485 0.049945578
-0.09087898 -0.10814758 -0.104594894 0.091299824 0.0022344035 0.020722589 0.026283592 -0.08824116
-0.016072905 0.18319483 0.06270443 -0.08080549 -0.104361825 0.18026428 0.08225201 -0.100269906
0.080167234 0.015611924 -0.02852482 -0.09092331 0.061000373 0.071480475 -0.04305281 0.13011661
0.10014984 0.13631877 -0.14217791 -0.095717974 -0.059360832 -0.07095854 0.0010542641 -0.026818948
0.010411173 -0.10194909 0.06551302 0.003672539 0.036219947 0.0015080115 -0.08615909 -0.07177048
-0.027971337 0.025569595 0.094867356 0.098393895 -0.028744511 -0.11468334 -0.13163716 0.045970347
0.12479799 0.12614128 -0.014488598 -0.021186594 0.09529634 -0.09078219 0.018629992 -0.11791577
-0.04965147 0.06320431 -0.03560352 0.093941405 0.07834206 -0.049871475 0.0960038 -0.08568582
-0.09522782 -0.07093973 0.05211593 -0.017190976 0.05022768 0.09253874 -0.050630257 -0.10754955
0.0014638479 -0.026197314 -0.116937295 -0.06768597 -0.08669716 -0.00027609654 0.053372942 0.04969217
00000000: 1731 7ebd 8873 f63d 620d b3bc 6a26 ccbb
00000010: 2627 1c3c ca61 9d3b af57 85bb aa9f 68bc
00000020: 3f17 373d c0c2 b9bb b560 903c cf75 f6bc
00000030: e9fe c23b c024 d33d ccc6 893d d37b d93d
00000040: 372f a03d 1a8a 0a3e 4404 cdbd cadf bf3d
00000050: 7072 a93c 8a5f d43c be5f 793d 465a 4e3c
00000060: ed6c c3bd 6be2 83bd 415a 283e acbc 46bd
00000070: 9879 a73c f679 3abd d6c8 1bbd e690 283e
00000080: 7c72 8a3d 05d1 19bd 46c1 9f3c 5b5b a13d
00000090: 5b09 7abc 1756 c9bb 0f2e aa3d ada8 d9bc
000000a0: 18c7 85bd dbcc 00bd 58b8 dd3d e3cf 79bc
000000b0: f4c3 aa3d 45a1 593d 4a1e d03d c982 0b3e
000000c0: fa0d bebd 790b 413d 7f12 b13d c4b5 94bc
000000d0: 86d6 583c c75c 9e3d be05 47bb f51b c73c
000000e0: 1eaa b7bd 6e0f 73bd 4938 b03c 9029 a83d
000000f0: 4548 043e 9703 1abd fc7f 0bbd 35eb 80bd
00000100: abe6 b23d f54b 713d afe7 dfbd d9d7 313d
00000110: cdab 31bb 1aaa ad3d 6750 ca3d 5f04 b3bc
00000120: 79fa 99bd 5b47 ff3d dc40 07be 17a6 e8bd
00000130: b02b 54bd 78ef 08be a71b bcbc 6768 04be
00000140: b086 22bd 37f4 dc3c 183b a23d df0f c0bd
00000150: 8b77 67bc 6492 29be 0bfa 0f3c 9397 133d
00000160: 94cb 84bd ecb6 433d 3d02 313d c781 b7bd
00000170: 5713 62bd f0a1 d0bd 9b31 aabd c508 04be
00000180: 12a0 e4ba c4e7 a63c f677 c0bd fc57 06be
00000190: 3def f5bc 760b 133c 927b ff3c a67a bc3d
000001a0: 5e14 8bbd 3fa2 d5bd 72fa 273c 7fe0 acbc
000001b0: 80f9 22bc 17fb 08bd 9e76 d03d 16ff aa3d
000001c0: 03f5 cd3d 7d22 80bd 08f1 d7bb 316e 813d
000001d0: 2425 a13d 2c2a 123d 63ad 153e 54a7 18be
000001e0: 6f48 083d 854e 2d3d 540d ce3d 448c dcbd
000001f0: 11ed 263d d76f 793c 2170 00be 4ca5 303c
00000200: be13 6b3d d1c8 cb3d 973d 16be aced febd
00000210: 5966 b1bc 4c35 423d 02a8 cdbd 82c6 483d
00000220: 1e4a 243d 2920 6f3c 9271 22bc 2b93 57bd
00000230: 822a aebd a8d4 1abc 78c9 85bd e6dd 1e3d
00000240: c777 a63d 0256 a1bb 80d1 28bd c076 73bd
00000250: f738 373b ff50 efbd 6005 1ebc a837 b8bd
00000260: ac0a 70bc fe4b 00bd 914f e5bd d545 83bc
00000270: baab c8bd 4316 35bd 1591 4f3d 2598 05bb
00000280: 4357 b3bc 86b2 a1bd 2e20 65bb e3ca f13a
00000290: 988a f83c af0d 41bd 1b4c 69bd 75d5 e0bd
000002a0: d2e2 8e3d 5046 9f3c b94e b93d 1e07 db3d
000002b0: adea 973a 10b3 fdbd 6615 1d3d bc93 4c3d
000002c0: c21e babd 7a7c ddbd d935 d6bd 67fb ba3d
000002d0: 126f 123b 6bc2 a93c b050 d73c c8b7 b4bd
000002e0: 53ab 83bc 6d97 3b3e 2e6b 803d 597d a5bd
000002f0: a7bb d5bd 3397 383e be73 a83d 4f5a cdbd
00000300: b82e a43d 28c9 7f3c e2ac e9bc 0036 babd
00000310: 87db 793d 5b64 923d 2558 30bd 4a3d 053e
00000320: 5c1b cd3d 2697 0b3e 1697 11be c907 c4bd
00000330: 5824 73bd b652 91bd 3c2f 8a3a 69b3 dbbc
00000340: a093 2a3c afca d0bd b12b 863d fbae 703b
00000350: 5e5b 143d 78a8 c53a 2d74 b0bd 67fc 92bd
00000360: 2524 e5bc 5477 d13c d149 c23d bd82 c93d
00000370: 9c79 ebbc 19df eabd e4cb 06be 674b 3c3d
00000380: 1796 ff3d 2e2b 013e 9661 6dbc 828f adbc
00000390: ba2a c33d 03ec b9bd ed9d 983c d37d f1bd
000003a0: 575f 4bbd 4371 813d ffd4 11bd 5a64 c03d
000003b0: cd71 a03d 0846 4cbd a49d c43d 0c7c afbd
000003c0: ce06 c3bd d948 91bd 8377 553d 17d4 8cbc
000003d0: 8abb 4d3d f384 bd3d ac61 4fbd f042 dcbd
000003e0: 96de bf3a c09b d6bc d27c efbd f19e 8abd
000003f0: 488e b1bd 0dc1 90b9 969d 5a3d 048a 4b3d

bias f4 [64]
-0.12116379 -0.096957006 0.07039558 -0.08442764 0.01369867 -0.04573252 0.063009754 0.071719974
0.080743395 -0.053733166 0.11043375 -0.0049798144 0.055029217 0.12636809 -0.046958826 -0.011205835
0.089047246 -0.11166773 -0.09539074 0.02872124 0.028838504 -0.06924732 0.0024960053 -0.09890021
-0.106504336 0.056542005 0.07813412 0.052468553 0.11111377 -0.05514721 0.09212574 -0.08725779
-0.029523911 -0.0035345887 -0.042512406 0.00062068657 0.10451971 -0.08653286 0.060202267 0.094606794
-0.044395432 -0.15426822 -0.057919137 0.010243331 -0.029667411 -0.032399487 -0.103027485 -0.08728671
-0.08773129 0.10510524 -0.01674699 0.06299876 0.046472434 0.026835177 0.09333105 -0.0705098
0.072290994 -0.11463938 -0.06507315 -0.106428556 0.083762184 0.052945238 -0.08306991 -0.12969677
00000000: b924 f8bd 6591 c6bd 8f2b 903d 66e8 acbd
00000010: 6370 603c 0652 3bbd 420b 813d ece1 923d
00000020: cb5c a53d 4f17 5cbd 172b e23d b62d a3bb
00000030: 5166 613d a366 013e e657 40bd ae98 37bc
00000040: 675e b63d 0db2 e4bd 385c c3bd ce48 eb3c
00000050: ba3e ec3c 8ad1 8dbd 0594 233b 318c cabd
00000060: f21e dabd 9798 673d c804 a03d 44e9 563d
00000070: 9e8f e33d 0ae2 61bd 6cac bc3d 36b4 b2bd
00000080: 21dc f1bc 8fa4 67bb 7d21 2ebd 92b5 223a
00000090: 6e0e d63d 2438 b1bd a796 763d 35c1 c13d
000000a0: fcd7 35bd 7df8 1dbe 9e3c 6dbd a5d3 273c
000000b0: 1209 f3bc 53b5 04bd 1300 d3bd 60c3 b2bd
000000c0: 76ac b3bd 6b41 d73d fc30 89bc 7e05 813d
000000d0: e159 3e3d 72d5 db3c 5924 bf3d 7167 90bd
000000e0: 4d0d 943d 0dc8 eabd 1245 85bd 37f7 d9bd
000000f0: 828b ab3d 1bdd 583d 8f20 aabd 3bcf 04be

weight f4 [64, 64]
0.050353326 -0.06288016 -0.06165907 0.031319275 -0.012635927 -0.049706366 0.028005295 -0.017157005
0.0016112168 -0.07090216 0.12783593 -0.0637757 -0.104669385 0.084206305 0.075276606 0.053129952
-0.056480993 0.0080218315 0.0073230746 -0.11102937 0.0291836 -0.1205404 -0.08810514 -0.06238762
0.068873525 -0.12899403 -0.024014685 -0.009777175 -0.073946625 0.056226097 -0.020222945 -0.13894962
0.14866948 0.0039375154 0.087306686 -0.026842315 -0.11539111 -0.08440218 -0.037119888 -0.11286423
0.09111829 -0.034038674 -0.030509159 -0.013485236 -0.14237402 0.067385316 -0.115760066 0.06330642
-0.08645434 -0.033639323 -0.09624263 -0.0074777603 0.013170907 0.119899146 -0.07684453 -0.10338933
-0.06977643 0.02404905 0.027397182 -0.11690968 -0.046565115 -0.081895486 -0.06916131 0.08823738
0.035101175 0.04753 -0.058256824 -0.08038826 -0.096257016 -0.0033926084 -0.10340901 -0.08342107
0.1098585 0.13229482 -0.04409724 -0.019781476 -0.013832672 -0.02455543 0.09405803 0.10275469
0.0022451978 0.0024160924 -0.047955856 0.11124396 0.0077839377 0.054203905 0.052017603 -0.01713373
-0.09965122 0.12166401 0.06373281 0.0839469 0.10325118 0.07293952 -0.10390705 -0.079213776
0.02091271 0.037873656 0.11130537 -0.11255403 0.08608795 -0.123054735 -0.01764157 -0.09438385
-0.08520477 -0.097537555 0.07871127 0.023018185 0.03727668 0.08928236 0.08857889 -0.032297008
0.028617842 -0.02732736 -0.056771956 -0.0010529605 -0.05163413 -0.10090419 -0.022029938 0.048180807
0.025570612 -0.026741408 -0.0730366 -0.1299073 0.018398022 -0.09116565 0.06302951 -0.1854639
-0.113937825 -0.06069606 0.09253292 0.023864148 0.009749322 -0.021858355 -0.09144144 -0.023382012
-0.036510438 0.035213284 -0.045224223 0.11176785 -0.08316463 -0.038568184 0.030286718 -0.063460864
0.1129167 -0.043997236 0.0063014133 0.04922726 0.08156424 -0.085417554 -0.0073820986 -0.026149236
0.11752432 -0.107396886 -0.036876112 0.05495558 0.06319354 -0.108710706 0.015483949 0.06286214
0.1599048 0.047185346 -0.058974855 0.021150595 0.013491923 0.11128354 0.061072372 -0.018109452
-0.042380583 -0.079369694 -0.08824882 0.09598449 -0.024128634 0.09072123 -0.0052135754 0.054489564
-0.08659157 -0.11903234 -0.12465172 0.057957616 -0.10594263 0.11831532 0.10176859 -0.09718848
0.10450917 -0.024252528 -0.04198421 0.11440625 -0.114179894 0.043029305 -0.064914696 -0.02968997
0.1741643 0.092581734 -0.15857713 0.059276644 -0.07855757 0.11378777 0.09486483 -0.14953601
0.086722 0.0046877554 0.13192403 0.067545556 0.038999747 0.08109464 -0.09971638 -0.076676264
0.10457194 0.09415163 -0.041944534 -0.07616714 -0.10650597 0.017691657 -0.018165464 0.091450766
0.00836917 -0.008147724 0.09079027 -0.06045622 -0.031226862 0.0067011057 0.038297024 0.06702671
-0.04951791 0.08598673 0.02062816 0.070441686 -0.133196 -0.023350488 -0.0003071062 0.071238235
0.007895351 0.01594945 0.09422244 -0.0543548 0.059034534 -0.029830875 -0.044376444 0.04489737
0.08085105 0.11333505 -0.124856584 0.064563796 -0.09652181 -0.069929846 -0.12895004 0.11030523
-0.05640594 0.007868832 0.073586226 0.062941425 -0.022145862 -0.075412005 0.113472246 0.06822434
00000000: 4a3f 4e3d 50c7 80bd 398e 7cbd a448 003d
00000010: eb06 4fbc e798 4bbd 5c6b e53c d98c 8cbc
00000020: 772f d33a 2735 91bd 6ce7 023e d69c 82bd
00000030: e75c d6bd 5b74 ac3d 9f2a 9a3d cb9e 593d
00000040: 9d58 67bd 006e 033c 67f6 ef3b 5e63 e3bd
00000050: 7212 ef3c e3dd f6bd 7870 b4bd 298a 7fbd
00000060: 900d 8d3d 0317 04be 72ba c4bc 7230 20bc
00000070: 5471 97bd 564d 663d 97aa a5bc cf48 0ebe
00000080: d03c 183e 4606 813b d9cd b23d 6ae4 dbbc
00000090: 2d52 ecbd 0ddb acbd 060b 18bd 5d25 e7bd
000000a0: 3a9c ba3d 236c 0bbd 58ee f9bc 2ef1 5cbc
000000b0: 7fca 11be 5001 8a3d 9d13 edbd cca6 813d
000000c0: f90e b1bd 63c9 09bd db1a c5bd 0008 f5bb
000000d0: caca 573c af8d f53d aa60 9dbd c9bd d3bd
000000e0: f2e6 8ebd 8302 c53c 0e70 e03c 586e efbd
000000f0: 10bb 3ebd d2b8 a7bd 72a4 8dbd cdb5 b43d
00000100: 40c6 0f3d d1ae 423d b59e 6ebd 9aa2 a4bd
00000110: 6622 c5bd 8656 5ebb 1ac8 d3bd aad8 aabd
00000120: 7efd e03d 4b78 073e 4f9f 34bd c30c a2bc
00000130: 6ea2 62bc 7828 c9bc 7fa1 c03d 0d71 d23d
00000140: 2b24 133b 4e57 1e3b 5c6d 44bd e0d3 e33d
00000150: 6710 ff3b ea04 5e3d 6910 553d 095c 8cbc
00000160: f015 ccbd fb2a f93d 5986 823d 5aec ab3d
00000170: 5b75 d33d 5161 953d 38cd d4bd d53a a2bd
00000180: 2251 ab3c 6821 1b3d 12f4 e33d ba82 e6bd
00000190: e14e b03d 1f04 fcbd 0e85 90bc 524c c1bd
000001a0: d77f aebd c5c1 c7bd 6033 a13d a290 bc3c
000001b0: 6faf 183d acd9 b63d d968 b53d de49 04bd
000001c0: f76f ea3c a1dd dfbc b689 68bd 7e03 8aba
000001d0: 4f7e 53bd dba6 cebd 2178 b4bc 3d59 453d
000001e0: 7679 d13c cc10 dbbc 3794 95bd 6b06 05be
000001f0: 73b7 963c 0eb5 babd 9e15 813d 40ea 3dbe
00000200: 3c58 e9bd 6f9c 78bd e681 bd3d bf7e c33c
00000210: 9fbb 1f3c 4b10 b3bc a645 bbbd a28b bfbc
00000220: f88b 15bd ce3b 103d 093d 39bd 8be6 e43d
00000230: 3852 aabd acf9 1dbd da1b f83c c5f7 81bd
00000240: df40 e73d 7236 34bd 167c ce3b 86a2 493d
00000250: 270b a73d 66ef aebd 88e5 f1bb ec36 d6bc
00000260: 97b0 f03d e6f2 dbbd 680b 17bd 1a19 613d
00000270: 9d6b 813d b8a3 debd 64b0 7d3c debd 803d
00000280: 15be 233e 6c45 413d 9e8f 71bd 0344 ad3c
00000290: 3a0d 5d3c a0e8 e33d 0627 7a3d 465a 94bc
000002a0: 4397 2dbd 948c a2bd ccbb b4bd 8493 c43d
000002b0: 6aa9 c5bc 0dcc b93d a4d6 aabb 7330 5f3d
000002c0: ec56 b1bd 3ac7 f3bd 6749 ffbd f764 6d3d
000002d0: 73f8 d8bd 4d4f f23d 0d6c d03d c10a c7bd
000002e0: e708 d63d 3dad c6bc a3f7 2bbd d34d ea3d
000002f0: 26d7 e9bd 7f3f 303d fff1 84bd 6138 f3bc
00000300: 2058 323e 7e9b bd3d 0b62 22be 11cc 723d
00000310: cbe2 a0bd 9009 e93d 7e48 c23d f81f 19be
00000320: 4e9b b13d be9b 993b 1817 073e 5355 8a3d
00000330: 33be 1f3d f214 a63d 1a38 ccbd 7208 9dbd
00000340: d029 d63d 92d2 c03d 08ce 2bbd 84fd 9bbd
00000350: cd1f dabd 18ee 903c bdcf 94bc 8a4a bb3d
00000360: d81e 093c 087e 05bc 40f0 b93d f1a0 77bd
00000370: 7acf ffbc f394 db3b 57dd 1c3d 4d45 893d
00000380: 4bd3 4abd d019 b03d 63fc a83c bb43 903d
00000390: 8864 08be 8649 bfbc 1903 a1b9 5ae5 913d
000003a0: 815b 013c 6ca8 823c b2f7 c03d 24a3 5ebd
000003b0: 32ce 713d e15f f4bc 13c4 35bd 4ee6 373d
000003c0: 3c95 a53d 351c e83d cfb4 ffbd 063a 843d
000003d0: 3aad c5bd 6137 8fbd 7b0b 04be b5e7 e13d
000003e0: ea09 67bd 46ec 003c 60b4 963d 6fe7 803d
000003f0: 3d6b b5bc 9c71 9abd 2364 e83d 34b9 8b3d

bias f4 [64]
-0.073843956 -0.05147217 -0.06766844 -0.11575923 0.049095843 -0.11107385 0.0768843 0.050922286
-0.12050199 -0.09187816 0.07144191 -0.018223895 0.029007746 0.089797504 -0.05736294 -0.063685045
-0.08663853 0.080198705 -0.0017029414 0.044739716 -0.031651713 0.022532662 -0.01747241 -0.07209095
-0.040602528 -0.009377957 0.10401341 0.0071331435 0.04184563 0.010848745 0.00872228 -0.12778601
0.08599611 -0.08032175 0.049222056 -0.053658437 0.089816675 0.030149214 -0.06531638 -0.03865092
-0.0018513654 -0.101952314 -0.0006381651 0.05637325 -0.13344663 -0.018556813 -0.05116748 0.111975215
0.056809314 -0.061733555 0.115847826 -0.093134396 -0.078578964 0.046090942 0.10633291 0.07338788
0.016023215 -0.081357256 0.011860473 -0.1115249 -0.07953649 -0.05682025 0.106107086 -0.08242941
00000000: 803b 97bd 7bd4 52bd c095 8abd 2d13 edbd
00000010: b918 493d b07a e3bd 8475 9d3d e393 503d
00000020: bfc9 f6bd 9e2a bcbd 2350 923d 474a 95bc
00000030: a7a1 ed3c c1e7 b73d 67f5 6abd 4e6d 82bd
00000040: 8b6f b1bd 383f a43d 3b35 dfba fe40 373d
00000050: 3aa5 01bd 6b96 b83c 4d22 8fbc 6ca4 93bd
00000060: d64e 26bd 01a6 19bc fc04 d53d 25bd e93b
00000070: 5366 2b3d efbe 313c e5e7 0e3c 56da 02be
00000080: bb1e b03d bb7f a4bd 119d 493d f3c8 5bbd
00000090: cef1 b73d 7cfb f63c 98c4 85bd 6d50 1ebd
000000a0: 84a9 f2ba 60cc d0bd 894a 27ba a3e7 663d
000000b0: 3ca6 08be 7504 98bc fe94 51bd 4353 e53d
000000c0: e2b0 683d 53dc 7cbd a041 ed3d 3fbd bebd
000000d0: 02ee a0bd dbc9 3c3d 12c5 d93d 634c 963d
000000e0: 1e43 833c a29e a6bd 6e52 423c 2b67 e4bd
000000f0: 07e4 a2bd 5abc 68bd ac4e d93d c0d0 a8bd

weight f4 [64, 64]
-0.076426014 -0.024987878 -0.014493838 -0.019577064 -0.10716499 0.07499133 -0.00061557424 0.08014034
-0.11564294 0.059254225 0.098819956 0.0241665 0.018243829 0.0725638 0.029985573 -0.008912686
0.13658187 -0.028528174 0.11220232 -0.09633837 0.08016346 0.027538216 0.0962301 0.10352803
0.08299158 -0.08046667 0.07509302 -0.015616616 -0.09610809 -0.032085754 -0.054705992 0.032213602
-0.0076035275 0.0019686618 0.06958524 0.009446709 0.040013023 0.052742224 -0.006655119 -0.069867894
-0.086367644 -0.019060554 0.020015616 0.07150176 0.011069607 0.012467836 0.16058159 0.023970705
-0.06871621 -0.06219613 0.09941634 0.00027784373 -0.009264488 -0.0700699 0.027710851 0.08600179
-0.024345312 0.016243776 -0.023856364 -0.032278407 0.018213328 0.05176124 -0.1019611 -0.0035124759
-0.08131283 0.029096017 -0.07983282 -0.075674914 0.13564786 0.07458089 -0.07356477 0.14665371
-0.10454695 -0.046245575 -0.10798241 -0.107579015 0.07680763 -0.11836185 0.09224861 0.114025004
0.04231455 0.11116189 0.008363796 -0.034940414 0.047265712 -0.120202854 -0.043193083 0.11547808
0.0088746045 -0.062351238 -0.07116503 -0.193758 0.0058199875 -0.043282345 -0.092797995 -0.051996097
0.04944572 -0.06660553 -0.07912547 -0.08297768 0.04706284 0.033968054 0.03775596 -0.10688966
-0.009377774 -0.05721757 0.0950717 0.099526435 0.089683175 -0.08131072 0.007915199 0.09320161
0.047941316 -0.022103982 -0.0787469 0.04701098 -0.16011111 -0.08672756 -0.020823423 -0.068949886
-0.07948852 -0.05583674 -0.009274166 0.011598659 0.017076546 -0.106634624 0.08096509 0.13282113
-0.011116043 0.09702763 -0.08647453 0.103456035 0.011002997 0.033190418 0.10188795 -0.08949124
0.011821206 -0.13577798 -0.10772524 0.1328882 0.05245703 -0.01729829 -0.030438475 0.010872586
-0.0028311466 -0.066961326 -0.10510922 0.07393592 0.07000855 -0.010503056 -0.006178143 0.03838076
-0.075389355 0.094994195 -0.045378324 0.06324789 -0.06388247 0.020664385 0.01904244 0.066033036
-0.11429063 0.027066156 0.1079043 0.031844057 -0.0877531 0.024393762 0.0807257 0.095388226
-0.008695824 0.02878371 0.060074605 0.15867417 -0.036598787 -0.13899404 0.05321123 -0.0013471219
0.12889087 -0.12666856 -0.039223965 0.05640892 -0.057275824 0.06395288 0.12068944 0.007826345
-0.083234854 0.11693343 -0.10822062 -0.084491014 0.04908305 0.04555669 -0.058453806 -0.12241027
0.0034911283 -0.04058607 -0.020381387 -0.10392868 0.070431 -0.061777405 0.021483991 0.041037243
-0.068088055 0.077671155 -0.071846426 0.055682182 -0.07630886 0.041748248 0.04873396 -0.06446545
0.06862894 -0.049215794 -0.14619759 0.07689065 -0.042827114 -0.07538968 -0.034459133 0.0722416
0.010712249 0.064392924 0.0070583182 -0.029686656 -0.0048313737 -0.09833821 -0.08975234 -0.07537741
0.09377679 -0.04124405 0.030343287 -0.06995371 0.036398966 -0.052045643 0.055281155 -0.10176474
-0.034473594 0.045763675 0.08175182 0.1499074 0.016688649 0.0905911 0.04364381 -0.013109744
0.009034873 -0.0049839197 -0.091052905 -0.040682696 -0.049365673 -0.025722118 -0.04577116 0.08471366
-0.12583148 -0.10685871 -0.05734657 -0.051537193 0.07521637 -0.028042834 -0.041371126 0.037018824
00000000: 3e85 9cbd 61b3 ccbc 9077 6dbc 1460 a0bc
00000010: 5179 dbbd 0e95 993d 7d5e 21ba 9e20 a43d
00000020: 35d6 ecbd 8fb4 723d 1e62 ca3d d3f8 c53c
00000030: 1574 953c 549c 943d 4ea4 f53c 8406 12bc
00000040: 1edc 0b3e ebb3 e9bc 54ca e53d 0d4d c5bd
00000050: bd2c a43d d397 e13c 4914 c53d 8106 d43d
00000060: 7df7 a93d b6cb a4bd 5fca 993d d6dc 7fbc
00000070: 51d4 c4bd 5a6c 03bd 6413 60bd 69f2 033d
00000080: 0327 f9bb aa04 013b b582 8e3d 5fc6 1a3c
00000090: b2e4 233d 3b08 583d 2f13 dabb e616 8fbd
000000a0: 85e1 b0bd e124 9cbc caf7 a33c 846f 923d
000000b0: 4c5d 353c e545 4c3c 806f 243e 365e c43c
000000c0: 16bb 8cbd 5fc1 7ebd cb9a cb3d 8eab 9139
000000d0: 14ca 17bc cf80 8fbd de01 e33c b521 b03d
000000e0: d26f c7bc ab11 853c 6c6e c3bc 5d36 04bd
000000f0: 1e34 953c 9803 543d fbd0 d0bd 9131 66bb
00000100: 5787 a6bd c55a ee3c 647f a3bd 73fb 9abd
00000110: 46e7 0a3e debd 983d 20a9 96bd 642c 163e
00000120: b61c d6bd 006c 3dbd e225 ddbd 6352 dcbd
00000130: 524d 9d3d b367 f2bd d7ec bc3d f185 e93d
00000140: 0652 2d3d d8a8 e33d 4e08 093c ae1d 0fbd
00000150: b199 413d ea2c f6bd 3beb 30bd c67f ec3d
00000160: ca66 113c 0364 7fbd f9be 91bd 7f68 46be
00000170: 98b5 be3b d448 31bd e00c bebd dcf9 54bd
00000180: 9887 4a3d 7b68 88bd 890c a2bd 34f0 a9bd
00000190: f7c4 403d 1622 0b3d fea5 1a3d f7e8 dabd
000001a0: 3ca5 19bc f85c 6abd f4b4 c23d 84d4 cb3d
000001b0: d0ab b73d 3c86 a6bd c0ae 013c 7ce0 be3d
000001c0: 1d5e 443d 6913 b5bc 0e46 a1bd 968e 403d
000001d0: 2bf4 23be 389e b1bd e295 aabc 9935 8dbd
000001e0: e1ca a2bd 11b5 64bd acf2 17bc 4d08 3e3c
000001f0: 1de4 8b3c 4163 dabd 06d1 a53d 4302 083e
00000200: 1020 36bc 6cb6 c63d 8f19 b1bd c2e0 d33d
00000210: ea45 343c adf2 073d a1aa d03d 2f47 b7bd
00000220: bbad 413c 6209 0bbe 0d9f dcbd d813 083e
00000230: 2fdd 563d 25b5 8dbc 1c5a f9bc ee22 323c
00000240: c28a 39bb 0523 89bd 8143 d7bd b76b 973d
00000250: a560 8f3d 0315 2cbc 0572 cabb 2535 1d3d
00000260: bc65 9abd 518c c23d 9fde 39bd 1c88 813d
00000270: d0d4 82bd 5b48 a93c e4fe 9b3c 543c 873d
00000280: 3511 eabd d8b9 dd3c eefc dc3d ea6e 023d
00000290: e6b7 b3bd 6dd5 c73c 8453 a53d e75a c33d
000002a0: ee78 0ebc d1cb eb3c ca10 763d 7b7b 223e
000002b0: 9ce8 15bd 7454 0ebe 05f4 593d e991 b0ba
000002c0: f8fb 033e 67b5 01be 4fa9 20bd 0a0d 673d
000002d0: 0e9a 6abd baf9 823d 062c f73d 123a 003c
000002e0: 0977 aabd cb7a ef3d c6a2 ddbd a009 adbd
000002f0: 4f0b 493d a799 3a3d 426d 6fbd 3cb2 fabd
00000300: 6acb 643b 943d 26bd def6 a6bc 8fd8 d4bd
00000310: 213e 903d 4e0a 7dbd 32ff af3c ab16 283d
00000320: c071 8bbd 0e12 9f3d 3824 93bd 0013 643d
00000330: d247 9cbd 3600 2b3d 439d 473d 7606 84bd
00000340: 548d 8c3d 8096 49bd d2b4 15be d878 9d3d
00000350: 7c6b 2fbd e865 9abd 0525 0dbd 67f3 933d
00000360: 6e82 2f3c 70e0 833d 7749 e73b 6e31 f3bc
00000370: 8050 9ebb 8b65 c9bd 13d0 b7bd 795f 9abd
00000380: 0c0e c03d 85ef 28bd 7c92 f83c e443 8fbd
00000390: 1517 153d d02d 55bd 7e6e 623d 086a d0bd
000003a0: 2f34 0dbd b172 3b3d 806d a73d 5381 193e
000003b0: a2b6 883c d487 b93d dac3 323d 40ca 56bc
000003c0: 0107 143c 2650 a3bb f279 babd e6a2 26bd
000003d0: a933 4abd 31b7 d2bc 8a7a 3bbd 5b7e ad3d
000003e0: f8d9 00be bdd8 dabd 3de4 6abd aa18 53bd
000003f0: 0a0b 9a3d 16ba e5bc c574 29bd 0da1 173d

bias f4 [64]
-0.09558103 -0.10179289 -0.009798926 -0.08499061 -0.056486167 0.04193904 0.052369047 0.056492563
-0.040676523 -0.100811124 0.048503924 -0.016438128 -0.054201245 0.07424574 -0.052962333 -0.057006136
-0.07142481 0.023276102 -0.0589124 -0.014690922 -0.032004762 0.10624355 -0.028844347 -0.06251547
-0.08600327 -0.029616643 -0.0069968505 0.026555786 0.036978524 0.045181677 0.083229184 -0.041175704
0.08949801 -0.07407463 0.11187656 -0.038018283 0.101181366 0.039819367 0.012525639 -0.10083373
-0.07208567 0.06858571 -0.07555786 0.07154926 0.010417839 0.04735291 0.11698513 0.084506914
-0.08214378 -0.06309716 -0.01051995 0.027813269 -0.08221827 0.08643547 0.086584 0.037814237
-0.10377304 0.022545073 -0.05011554 0.096556656 -0.090019435 0.064020954 -0.032933258 0.06425738
00000000: fdbf c3bd ca78 d0bd ad8b 20bc 8f0f aebd
00000010: 0a5e 67bd 45c8 2b3d ed80 563d bf64 673d
00000020: 6d9c 26bd 1076 cebd 0dac 463d 41a9 86bc
00000030: 2002 5ebd 270e 983d 08ef 58bd 447f 69bd
00000040: 2c47 92bd 86ad be3c 214e 71bd 31b2 70bc
00000050: 6d17 03bd 3896 d93d fb4a ecbc 1c08 80bd
00000060: 7b22 b0bd 9a9e f2bc d645 e5bb 858b d93c
00000070: cb76 173d 6c10 393d 1074 aa3d dba7 28bd
00000080: bc4a b73d 71b4 97bd 8a1f e53d 0fb9 1bbd
00000090: 2d38 cf3d a219 233d 5638 4d3c ea81 cebd
000000a0: a7a1 93bd aa76 8c3d 14be 9abd 6b88 923d
000000b0: 95af 2a3c 20f5 413d e695 ef3d f611 ad3d
000000c0: 003b a8bd 1539 81bd de5b 2cbc a7d8 e33c
000000d0: 0d62 a8bd 1405 b13d f452 b13d 1ae3 1a3d
000000e0: f686 d4bd 72b0 b83c f445 4dbd 7fbf c53d
000000f0: 1c5c b8bd 6b1d 833d 06e5 06bd 6099 833d

weight f4 [64, 64]
-0.080602296 -0.036481112 -0.038432848 -0.010308633 -0.07101452 0.07844447 0.08729856 -0.030055147
0.025805753 0.078998104 -0.048336305 0.0684696 0.09643671 0.019567385 -0.13283612 0.032316912
-0.048606366 0.047505844 -0.108993545 0.13794053 -0.088385954 0.004990107 -0.08833162 0.06435019
0.04945455 -0.015404276 -0.040720638 0.01758633 -0.06837907 0.056187015 0.021366399 0.066702224
-0.11879089 -0.03425373 0.057704713 0.085992485 0.028394615 -0.0883301 -0.0512375 -0.060509857
0.03990354 0.04428368 -0.09339081 -0.091105014 -0.017243177 -0.013598634 -0.10386064 -0.10634052
0.09157234 -0.059795003 -0.103249654 0.015879177 0.1041876 0.0033581045 0.098751366 0.03913993
-0.049674757 -0.092685156 -0.09180974 -0.020570774 -0.019402374 -0.014332283 0.011770677 0.10989376
0.05410044 0.11973275 0.013517353 -0.058719642 0.071252644 0.051563773 0.07607719 -0.07020645
0.10578518 0.15492846 -0.06103724 -0.09417853 0.13235396 -0.08282983 0.12079644 0.09268959
0.07898423 -0.09645445 0.002244163 0.006876232 -0.014951506 -0.120933786 -0.0041682036 0.033439152
0.068721466 0.08296474 0.04078491 0.117005385 0.015148359 -0.086495645 0.08748785 -0.07135381
0.035932776 -0.049447972 -0.14566185 -0.05205075 -0.1002489 0.00924452 -0.043735914 -0.0229184
0.11041121 0.03814986 0.05174619 0.071425036 -0.15867409 0.08185178 -0.027015582 -0.054344166
-0.108661525 -0.0140858665 0.020506423 0.10102435 0.08419517 0.13034406 0.056561656 -0.031772636
-0.060866877 -0.021420214 -0.09193243 -0.058714814 -0.028658787 -0.045326248 0.083841786 0.088304825
-0.0065409127 -0.030929146 -0.03229375 -0.036295347 0.06162665 0.05176858 0.054607254 0.08849494
-0.05855691 -0.007469917 -0.0741998 0.074800216 0.1186134 0.054727897 0.041051727 0.0023935004
-0.10771567 0.09605988 0.017922834 0.05294709 -0.08551514 -0.026625622 0.058207948 0.014449547
0.04394327 -0.07438083 -0.09304949 -0.1015313 -0.090056516 0.025602581 0.008769836 -0.08152641
-0.13698985 0.0484265 0.02831793 -0.076130256 -0.05023291 0.06332347 0.05456456 0.025527867
-0.06470814 0.055132642 -0.021137025 -0.09879997 0.06223131 -0.043570746 -0.12693301 -0.088975795
0.04668754 0.04280666 0.03807342 0.08012315 -0.065439165 0.08314151 -0.07924566 -0.0727063
0.050879057 0.10086325 0.04358695 -0.0320829 0.07405367 -0.03448452 0.08907629 0.03870363
-0.035035376 0.041774005 0.15468265 -0.011493492 -0.038537867 -0.06109701 0.102705896 0.027079612
0.041313376 -0.06441735 -0.09304899 0.10506916 0.067164615 -0.10956234 0.04121035 -0.024209468
-0.052440383 0.048362736 -0.07051104 -0.0051693036 0.014656329 -0.070579454 -0.055373475 0.13334629
0.01786964 0.045004893 0.10526758 -0.1205161 -0.08283586 -0.011398731 0.08311717 -0.038981114
0.06730051 0.102072954 -0.084419176 -0.108066425 -0.1183501 -0.072632164 0.025848016 0.009084279
-0.08861378 0.064161584 0.07193365 0.012755855 0.07128141 0.062300574 -0.12216469 -0.071569264
0.118084736 0.124821 -0.060904942 0.0707932 -0.01807649 -0.08655147 -0.09115236 -0.022959447
-0.027067171 0.059945967 -0.0065518646 0.101777986 0.015463875 0.15264879 -0.09991847 0.028010635
00000000: d112 a5bd 386d 15bd c36b 1dbd 8ae5 28bc
00000010: 1070 91bd 7fa7 a03d 96c9 b23d 3636 f6bc
00000020: 9666 d33c c2c9 a13d 4afc 45bd ca39 8c3d
00000030: 9c80 c53d c84b a03c 3106 08be bd5e 043d
00000040: 7817 47bd 7d95 423d 0238 dfbd 4840 0d3e
00000050: b203 b5bd 0d84 a33b 35e7 b4bd 08ca 833d
00000060: db90 4a3d 3762 7cbc afca 26bd 3511 903c
00000070: 530a 8cbd 5b24 663d 9608 af3c 2d9b 883d
00000080: a348 f3bd a44d 0cbd c75b 6c3d d41c b03d
00000090: d39b e83c 69e6 b4bd 6ade 51bd 2fd9 77bd
000000a0: e571 233d ce62 353d ae43 bfbd 4495 babd
000000b0: 9041 8dbc cecc 5ebc e3b4 d4bd 0fc9 d9bd
000000c0: 478a bb3d 9beb 74bd 8e74 d3bd 0c15 823c
000000d0: 4f60 d53d a513 5c3b 283e ca3d 3151 203d
000000e0: c277 4bbd b7d1 bdbd bf06 bcbd 0a84 a8bc
000000f0: baf1 9ebc f4d1 6abc ccd9 403c fb0f e13d
00000100: 6c98 5d3d 7236 f53d e377 5d3c 0284 70bd
00000110: e8ec 913d 8934 533d 5cce 9b3d 66c8 8fbd
00000120: e7a5 d83d 91a5 1e3e 2f02 7abd ace0 c0bd
00000130: cc87 073e b0a2 a9bd 2064 f73d 0ad4 bd3d
00000140: 7cc2 a13d e989 c5bd cf12 133b 0452 e13b
00000150: 29f7 74bc 22ac f7bd 6d95 88bb 7ef7 083d
00000160: d7bd 8c3d 6be9 a93d 140e 273d 85a0 ef3d
00000170: d330 783c a124 b1bd d42c b33d f221 92bd
00000180: 3f2e 133d f589 4abd 6128 15be 2b33 55bd
00000190: 4c4f cdbd 5476 173c 6e24 33bd 5ebf bbbc
000001a0: 461f e23d 0743 1c3d d0f3 533d 4a47 923d
000001b0: 767b 22be e8a1 a73d c84f ddbc fd97 5ebd
000001c0: ef89 debd 68c8 66bc 16fd a73c dbe5 ce3d
000001d0: 846e ac3d ea78 053e 32ad 673d 0624 02bd
000001e0: 8c4f 79bd 7279 afbc 1247 bcbd f27e 70bd
000001f0: d5c5 eabc 04a8 39bd 3eb5 ab3d 29d9 b43d
00000200: 2755 d6bb 1f5f fdbc 7446 04bd 6eaa 14bd
00000210: 3a6c 7c3d 4a0b 543d dbab 5f3d d63c b53d
00000220: 5fd9 6fbd 35c6 f4bb 11f6 97bd db30 993d
00000230: 95eb f23d 5c2a 603d db25 283d 46dc 1c3b
00000240: 089a dcbd 0bbb c43d e8d2 923c 0cdf 583d
00000250: 9022 afbd fa1d dabc 756b 6e3d cbbd 6c3c
00000260: dcfd 333d fa54 98bd bb90 bebd a4ef cfbd
00000270: 8d6f b8bd 81bc d13c 5caf 0f3c 52f7 a6bd
00000280: 1147 0cbe de5a 463d 01fb e73c 2eea 9bbd
00000290: 06c1 4dbd bcaf 813d 177f 5f3d d11f d13c
000002a0: b485 84bd c4d2 613d 8e27 adbc a357 cabd
000002b0: 42e6 7e3d 3d77 32bd bafa 01be f138 b6bd
000002c0: 6f3b 3f3d 0956 2f3d e0f2 1b3d 9b17 a43d
000002d0: f804 86bd 1946 aa3d 8c4b a2bd 0ae7 94bd
000002e0: 8f66 503d 6491 ce3d 3b88 323d 5c69 03bd
000002f0: 73a9 973d a43f 0dbd a16d b63d b387 1e3d
00000300: 4181 0fbd 381b 2b3d 2165 1e3e 334f 3cbc
00000310: e2d9 1dbd dc40 7abd 7857 d23d 10d6 dd3c
00000320: 3738 293d 3eed 83bd 7890 bebd 802e d73d
00000330: 9a8d 893d 3862 e0bd 2fcc 283d ef52 c6bc
00000340: bacb 56bd 0118 463d 1868 90bd 4363 a9bb
00000350: 1921 703c f68b 90bd 4ccf 62bd ee8b 083e
00000360: 5a63 923c 0d57 383d 8796 d73d 25d1 f6bd
00000370: d9a5 a9bd bec1 3abc 5639 aa3d a9aa 1fbd
00000380: dad4 893d a00b d13d f6e3 acbd ee51 ddbd
00000390: 8a61 f2bd 2cc0 94bd 38bf d33c 3ad6 143c
000003a0: 247b b5bd 2667 833d f351 933d effd 503c
000003b0: fdfb 913d e32e 7f3d 7b31 fabd e892 92bd
000003c0: 69d6 f13d 27a2 ff3d 7677 79bd 06fc 903d
000003d0: 2615 94bc e641 b1bd 17ae babd 7315 bcbc
000003e0: f9bb ddbc e789 753d 06b1 d6bb fa70 d03d
000003f0: 315c 7d3c f74f 1c3e 0ea2 ccbd 8f76 e53c

bias f4 [64]
-0.022408016 0.055269558 0.041479416 0.014353449 -0.04069981 0.029247103 -0.076677255 -0.04552649
0.061331946 -0.050410114 -0.09946881 -0.06809847 -0.1001788 0.095913775 -0.04866178 -0.050239507
0.0304446 0.0278359 -0.0073587685 0.08692436 -0.031022824 -0.005094385 0.045175087 -0.016393177
-0.05646683 0.07892657 0.0871337 -0.07857489 -0.0416253 0.055668045 0.011295387 -0.04413586
-0.08583473 -0.09641387 -0.06512146 0.08021466 0.053771053 -0.07226369 -0.028553752 0.08119392
-0.020664342 0.01996505 -0.045514487 -0.08893737 0.043684416 -0.071872994 -0.0015768558 0.07348979
-0.008599446 -0.01376202 0.09672712 0.0055716773 -0.06919834 0.073568985 0.023941832 -0.07378128
-0.05078695 0.07588163 0.049163695 -0.1053976 0.0439523 -0.013400307 0.08703131 0.014063615
00000000: 0491 b7bc 5562 623d 52e6 293d bb2a 6b3c
00000010: d8b4 26bd 9f97 ef3c f708 9dbd fc79 3abd
00000020: 3537 7b3d d67a 4ebd 4eb6 cbbd 3677 8bbd
00000030: 8b2a cdbd 716e c43d 9351 47bd f1c7 4dbd
00000040: f466 f93c 1d08 e43c d321 f1bb 6605 b23d
00000050: 9423 febc ccee a6bb 8309 393d fc4a 86bc
00000060: c349 67bd 41a4 a13d 2773 b23d dfeb a0bd
00000070: 4a7f 2abd 2d04 643d 4910 393c cec7 34bd
00000080: 1eca afbd a374 c5bd 665e 85bd 9547 a43d
00000090: 093f 5c3d fcfe 93bd 8fe9 e9bc ff48 a63d
000000a0: 4448 a9bc bf8d a33c 666d 3abd cc24 b6bd
000000b0: 6eee 323d 2632 93bd 80ae ceba d181 963d
000000c0: b1e4 0cbc 187a 61bc de18 c63d 9e92 b63b
000000d0: dcb7 8dbd 56ab 963d a921 c43c a41a 97bd
000000e0: fa05 50bd d467 9b3d df5f 493d b2da d7bd
000000f0: 5407 343d f68c 5bbc 793d b23d 146b 663c
